models/InvertedDoublePendulum-v4.pth (torch, 27596 bytes, 10 tensors)

policy.0.weight f4 [64, 11]
0	0xbdde0267	-0.10840302
1	0xbf600ad8	-0.87516546
2	0x3ff4ae71	1.9115735
3	0x3eb08f91	0.34484532
4	0x3e0e2f3f	0.1388521
5	0xbd5225fb	-0.051305752
6	0x3c85afb9	0.016319143
7	0x3d951595	0.07279507
8	0x3bdb2234	0.006687427
9	0xbcdf0029	-0.027221756
10	0xbe13acb5	-0.14421351
11	0xbe921687	-0.28532812
12	0x3eead1e9	0.45863274
13	0xbdfd03f4	-0.123542696
14	0x3e8694e2	0.26285464
15	0x3e741ece	0.23839876
16	0x3dd914d3	0.10599675
17	0x3da587fa	0.08082576
18	0x3d6362c5	0.055514116
19	0xbe774da7	-0.24150716
20	0x3e0532f4	0.13007718
21	0xbe6e0744	-0.23244959
22	0x3ea8cf1b	0.3297051
23	0xbf0cb32a	-0.5496088
24	0x3ed4fb8b	0.41598162
25	0xbe87d84d	-0.26532212
26	0xbe1db9e4	-0.15402943
27	0x3e62f4b7	0.22163664
28	0xbdb64a7e	-0.08900927
29	0xbe069c4c	-0.1314556
30	0xbbfbd399	-0.0076851365
31	0x3dbfefc2	0.09371902
32	0xbd265ac8	-0.04061392
33	0x3e1e26e1	0.15444519
34	0xbcea3a0d	-0.028592134
35	0x3ebd91db	0.3702534
36	0xbe80057d	-0.25004187
37	0xbe54caca	-0.20780483
38	0xbd0e326b	-0.03471605
39	0xbe9c0512	-0.30472618
40	0xbca4d947	-0.020123137
41	0x3e76baff	0.24094771
42	0x3d8f5f34	0.070005804
43	0x3e25cd5b	0.16191618
44	0x3f10ff78	0.56639814
45	0xbd5ecc8c	-0.05439429
46	0xbfb20807	-1.39087
47	0xbec78530	-0.38968801
48	0xbcdddb84	-0.027082212
49	0xbea3fe37	-0.32029888
50	0x3dcb4e63	0.099270605
51	0xbe5e2924	-0.21695381
52	0x3d84711f	0.06466889
53	0x3e2b930d	0.16755314
54	0x3e909239	0.2823656
55	0xbe3d548a	-0.1848928
56	0x3f8e5e29	1.1122485
57	0xbfd9cd93	-1.7015861
58	0xbd9ae80d	-0.075637914
59	0x3d3039be	0.043023817
60	0x3d3b2e49	0.045698438
61	0xbe90cbee	-0.28280586
62	0xbdfd79c5	-0.12376741
63	0xbe5af85a	-0.21383801
64	0xbe47edc5	-0.19524296
65	0x3e39788e	0.18112394
66	0x3e8014d0	0.2501588
67	0xbf02ac7e	-0.5104445
68	0x3f49eb88	0.7887502
69	0xbe3406b1	-0.17580678
70	0xbe9670ed	-0.2938303
71	0xbe3a94df	-0.18220852
72	0xbe96a700	-0.29424286
73	0x3cacb072	0.02108023
74	0xbe2d7a4f	-0.16941188
75	0xbda2a3aa	-0.07941373
76	0xbd96b05c	-0.07357857
77	0xbf0d84fb	-0.5528104
78	0xbe534a7e	-0.20633885
79	0xbfb2408b	-1.3925947
80	0xbe58a717	-0.2115749
81	0x3e784566	0.24245223
82	0xbed3b986	-0.4135248
83	0xbe87d38b	-0.26528582
84	0xbdcf2f3d	-0.10116432
85	0xbe8c41f4	-0.27394068
86	0x3e8db9a7	0.27680704
87	0xbe6bd381	-0.23029901
88	0xbe3e08ef	-0.18558095
89	0xbe868ecc	-0.2628082
90	0x3f90e122	1.1318705
91	0x3e010dba	0.12602893
92	0x3d1cccc6	0.038281225
93	0xbe2e99a9	-0.17050804
94	0xbe466f01	-0.19378282
95	0x3d6caacd	0.057780076
96	0xbe8ae699	-0.27129057
97	0x3e20e718	0.15713155
98	0x3e179fb2	0.14807013
99	0xbf2b6693	-0.6695339
100	0x3e800af7	0.25008366
101	0xbf4d30d6	-0.8015264
102	0x3e476ce6	0.19475135
103	0x3d034874	0.03205152
104	0x3cfe5008	0.031044021
105	0x3e132553	0.14369707
106	0x3da6a823	0.08137538
107	0x3cffd95d	0.031231577
108	0x3e8f738f	0.28017852
109	0x3e25b689	0.16182913
110	0x3d76457a	0.06012485
111	0xbdf86f23	-0.12130573
112	0xbf4ba471	-0.7954779
113	0xbd7b7b40	-0.061396837
114	0xbde7ac4f	-0.11312162
115	0x3e94f532	0.2909332
116	0xbe5e4780	-0.21706963
117	0xbea98a40	-0.3311329
118	0xbd9c2a03	-0.076252006
119	0xbe0f2087	-0.13977252
120	0xbe10bb9c	-0.14134067
121	0xbf13d58a	-0.5774771
122	0x3f36984d	0.7132614
123	0xbf522e84	-0.8210223
124	0x3ec09a43	0.37617692
125	0x3e3166fc	0.17324442
126	0x3e4e5523	0.20149665
127	0x3e4c442d	0.19947882
128	0xbe080e3d	-0.13286681
129	0x3dbbfffd	0.09179685
130	0x3e9370d7	0.28797027
131	0xbd2829c1	-0.041055445
132	0x3eaddace	0.33955997
133	0x3eb56f11	0.354363
134	0xbfa00377	-1.2501057
135	0x3d8370d9	0.06418008
136	0x3d9aa424	0.075508386
137	0x3e5b1c11	0.21397425
138	0x3d6c4c6c	0.05769007
139	0xbee0ccd8	-0.43906283
140	0xbd2fa407	-0.042881038
141	0x3db9be26	0.09069471
142	0xbe2ba9a8	-0.16763937
143	0xbf102128	-0.5630059
144	0xbf15ee8a	-0.58567107
145	0x3ff3f690	1.905962
146	0x3e7313d5	0.23738034
147	0xbdb670a4	-0.08908203
148	0xbdf4825f	-0.11938929
149	0xbe02a100	-0.12756729
150	0x3caef6a7	0.021357847
151	0xbddfa07d	-0.109192826
152	0x3e0f49a3	0.13992934
153	0x3d9079bd	0.0705447
154	0x3ed60554	0.4180094
155	0x3f0ad312	0.5422832
156	0x3fc377ee	1.5270975
157	0x3dbf9cb7	0.09356063
158	0x3c87069d	0.016482646
159	0x3ecb62ea	0.39723903
160	0x3ed01135	0.40638128
161	0x3e5f3e23	0.21801047
162	0xbd453e9d	-0.048155416
163	0x3e22234c	0.15833777
164	0x3e93bdcc	0.2885574
165	0x3ef0381d	0.4691781
166	0xbf3cf4d8	-0.738111
167	0x3df04edc	0.11733791
168	0x3ca24097	0.01980619
169	0x3ea533e7	0.3226616
170	0x3e2a5fe0	0.16638136
171	0xbe56e9de	-0.20987651
172	0xbe919e78	-0.28441215
173	0x3c799fdb	0.015235866
174	0x3d81b1c5	0.06332735
175	0xbe99649f	-0.2995958
176	0xbdd6b014	-0.10482803
177	0x3ee7b72f	0.45256945
178	0xbfc38ec5	-1.5277945
179	0x3c804e6f	0.0156624
180	0xbe0f0e93	-0.13970403
181	0x3f0ac616	0.54208505
182	0xbe287c5b	-0.16453688
183	0xbe8e3671	-0.2777591
184	0x3d36c67b	0.04462288
185	0x3d7a7710	0.061148703
186	0xbda40609	-0.080089636
187	0xbd78c71f	-0.06073677
188	0x3ebe2b7b	0.37142548
189	0xbfd304cc	-1.6485839
190	0xbe28f15b	-0.1649832
191	0x3da3801d	0.0798342
192	0x3e7ff008	0.24993908
193	0xbddc4fc2	-0.107574
194	0xbe66c1bd	-0.22534843
195	0xbde7c749	-0.113173075
196	0x3ddd7f6e	0.10815321
197	0xbe127aff	-0.14304732
198	0xbf5037e4	-0.8133528
199	0xbf3e2445	-0.7427409
200	0x3f8d4d21	1.1039163
201	0x3cbdd26e	0.02317163
202	0xbb8818f4	-0.0041533653
203	0xbe08d867	-0.13363801
204	0xbebfe1f8	-0.37477088
205	0xbd2946d7	-0.041327324
206	0xbeeceed8	-0.46275973
207	0xbe995343	-0.29946336
208	0xbe142182	-0.14465907
209	0xbe2248d8	-0.158481
210	0x3f82f8c0	1.0232162
211	0xbf6726c0	-0.902935
212	0x3e336a26	0.17520961
213	0x3ee8496c	0.45368516
214	0xbea21fe7	-0.31664965
215	0x3ea56275	0.3230168
216	0x3c346414	0.011010189
217	0xbdb79182	-0.089633
218	0xbe8ca725	-0.2747127
219	0x3da76b59	0.08174772
220	0xbf0ae400	-0.5425415
221	0xbcd6dc0e	-0.026227977
222	0xbf52a63c	-0.82284904
223	0xbd3e45f0	-0.046453416
224	0x3e78d683	0.2430058
225	0xbeae0ec2	-0.33995634
226	0xbea78d20	-0.32724857
227	0x3d194867	0.037422564
228	0x3e368b9b	0.17826693
229	0xbcf94dd0	-0.030432612
230	0x3b6094c9	0.003426837
231	0x3e94b489	0.29043987
232	0xbf0b4c39	-0.5441318
233	0x3db5628f	0.08856689
234	0xbe59987d	-0.21249576
235	0xbcad0bd5	-0.021123806
236	0xbe59cf69	-0.21270527
237	0x3f2afc1f	0.66790956
238	0xbf62dc3b	-0.88617295
239	0x3ecc056a	0.3984788
240	0xbd294e55	-0.04133447
241	0xbe6365b6	-0.22206768
242	0x3d3f08f5	0.0466394
243	0x3f76e187	0.9643788
244	0x3eaf231e	0.3420648
245	0xbe01a421	-0.12660266
246	0xbd85c289	-0.06531245
247	0x3e71099e	0.23538825
248	0x3ed7e149	0.42164066
249	0x3e85cbf5	0.2613217
250	0x3d262788	0.040565044
251	0x3c09d9cb	0.008413742
252	0x3e6f97a5	0.23397692
253	0xbe6ccad7	-0.23124252
254	0x3d915c24	0.070976526
255	0xbeb7638e	-0.35818142

policy.0.bias f4 [64]
0	0xbe203ab9	-0.15647401
1	0x3ea5e339	0.3239992
2	0x3e73beee	0.23803303
3	0xbea238c0	-0.31683922
4	0xbe676683	-0.22597699
5	0xbdf3b41a	-0.11899586
6	0xbec79679	-0.3898199
7	0xbdc19771	-0.09452713
8	0x3e107293	0.14106207
9	0xbe0d9e66	-0.13829955
10	0x3b3658ca	0.0027823918
11	0x3edab699	0.42717436
12	0x3e451f2a	0.1925017
13	0x3e09c93a	0.13455668
14	0xbdea9634	-0.1145443
15	0x3da40b52	0.08009972
16	0x3e405d2f	0.18785547
17	0xbe8c574e	-0.27410358
18	0x3e8a19f2	0.2697292
19	0x3ec490a0	0.3839159
20	0x3d9df001	0.07711793
21	0xbe150635	-0.14553149
22	0x3dd145ff	0.10218429
23	0x3e98111e	0.2970056
24	0xbe2e9d07	-0.17052089
25	0xbecf03ea	-0.40432674
26	0xbe8f810c	-0.28028142
27	0x3e591846	0.21200666
28	0x3c740c9b	0.0148955835
29	0xbeae3bca	-0.3402999
30	0xbefbc8b4	-0.49176562
31	0x3e856481	0.2605324
32	0x3c96e09e	0.018417653
33	0xbe03d9fe	-0.12876126
34	0xbd3c6933	-0.045998763
35	0x3d2003ff	0.03906631
36	0xbe3d8a4f	-0.18509792
37	0xbd10d960	-0.035363555
38	0xbc375e46	-0.01119191
39	0x3ea2de6a	0.31810313
40	0x3dbcac99	0.09212608
41	0x3e29a2d3	0.16566019
42	0xbe81cd36	-0.25351876
43	0xbb9305b1	-0.0044867625
44	0xbe967751	-0.29387906
45	0xbe9d40a5	-0.30713382
46	0x3cd8c36a	0.026460368
47	0xbe9c7a24	-0.30561936
48	0x3e9e6465	0.3093597
49	0x3e4c8369	0.19972004
50	0xbea281e0	-0.31739712
51	0xbe43992e	-0.19101402
52	0x3ea58047	0.3232443
53	0xbe853142	-0.26014143
54	0x3e272ab9	0.16324891
55	0x3dc0de1a	0.094173625
56	0xbdc845e7	-0.09778958
57	0x3d98d48f	0.07462417
58	0xbd87d165	-0.06631736
59	0xbe0fa2ae	-0.14026901
60	0xbde7f622	-0.11326243
61	0xbe698532	-0.22804716
62	0x3d9f213a	0.07770009
63	0xbcb7c8b0	-0.022434562

policy.2.weight f4 [32, 64]
0	0x3d70731d	0.05870353
1	0xbdb553ab	-0.08853849
2	0xbe2288fc	-0.15872568
3	0xbddc12d6	-0.1074578
4	0x3e9591a3	0.29212674
5	0xbd07dc70	-0.03316921
6	0xbe3ae570	-0.18251586
7	0x3d8b53b0	0.068030715
8	0xbd550bc1	-0.052013163
9	0xbcb329d0	-0.021870524
10	0xbe383ebc	-0.17992681
11	0x3c4cb0a5	0.012493287
12	0x3e666ca7	0.22502385
13	0xbd669732	-0.056296535
14	0xbd0f936b	-0.035052698
15	0xbe1d4f90	-0.15362382
16	0xbe13d200	-0.14435577
17	0xbe643a5f	-0.22287892
18	0xbe98fb4a	-0.29879218
19	0x3dceca27	0.10097151
20	0xbd9dc36b	-0.07703289
21	0xbd1456a3	-0.036215436
22	0x3d18bc21	0.03728879
23	0xbec74900	-0.38922882
24	0x3e9c20b4	0.304937
25	0xbe107292	-0.14106205
26	0xbcb6fd4a	-0.022337575
27	0xbd5f3248	-0.05449131
28	0xbd8de5aa	-0.069285706
29	0x3e54491f	0.20731018
30	0xbd0bca31	-0.03412837
31	0x3d7850aa	0.060623802
32	0x3dc8a3da	0.09796877
33	0x3ede4fec	0.4342035
34	0xbbcc403e	-0.006233244
35	0xbd558569	-0.052129183
36	0x3eda046f	0.42581508
37	0xbd7671b1	-0.06016702
38	0x3e19cc26	0.15019283
39	0xbd3f1a76	-0.046656094
40	0x3d966f40	0.07345438
41	0xbe2ff2b4	-0.17182428
42	0xbe45ffda	-0.19335881
43	0x3dc75e6c	0.097348064
44	0xbc8e2c10	-0.017354995
45	0xbd412e9e	-0.0471636
46	0x3e8f72ae	0.2801718
47	0xbdc194e9	-0.094522305
48	0xbd46bf01	-0.048522
49	0x3e3ca5b3	0.18422584
50	0xbdcb6be2	-0.099326864
51	0x3c4e8935	0.012605955
52	0x3dd49a24	0.103809625
53	0x3e0e67bc	0.13906759
54	0x3db6427b	0.08899399
55	0x3d43747a	0.047718503
56	0xbd9ccfbf	-0.07656812
57	0xbd494a63	-0.049143206
58	0x3ce34dc2	0.027747039
59	0x3c090adc	0.0083644055
60	0x3da8f2b4	0.08249417
61	0x3d48adb6	0.04899379
62	0x3ad1b489	0.0015999238
63	0xbc0b77f2	-0.008512484
64	0x3d95fa46	0.073231265
65	0x3da01bde	0.07817815
66	0xbda056d9	-0.07829065
67	0x3e1101f2	0.14160898
68	0xbc018c01	-0.007906915
69	0xbb3559f1	-0.0027672017
70	0x3ceb3445	0.028711447
71	0x3ced83d1	0.028993519
72	0x3cdd83fb	0.027040472
73	0x3d8c6d57	0.068567924
74	0x3ce40af5	0.027837256
75	0xbdab2def	-0.083583705
76	0x3d481283	0.04884578
77	0x3d0a5e73	0.03378148
78	0xbd195c72	-0.03744168
79	0xbc070f15	-0.008243342
80	0x3c8be776	0.017078143
81	0xbc19622f	-0.009361788
82	0xbdd7acec	-0.10531029
83	0x3d271abe	0.040796988
84	0xbda41d28	-0.080133736
85	0xbc88422c	-0.016633116
86	0xbd1aa1b4	-0.03775187
87	0x3d85406c	0.06506428
88	0xbc878de9	-0.01654716
89	0xbdb245a9	-0.08704693
90	0x3d0ddd2f	0.034634765
91	0x3dfb0df3	0.1225852
92	0xbd6c1cfe	-0.057644837
93	0x3e06b8bb	0.13156407
94	0x3d28a571	0.041173402
95	0x3bb3583c	0.005473165
96	0xbda05c87	-0.07830148
97	0xbd91cb51	-0.07118858
98	0xbd8bbc01	-0.06822968
99	0x3d4d804b	0.050171178
100	0x3ca2921d	0.019845063
101	0xbb9f5c36	-0.0048632873
102	0xbccf2a8f	-0.025288848
103	0xbc5ffd99	-0.013671302
104	0x3b30cf90	0.0026979186
105	0x3e571c37	0.21006857
106	0x3a10c00d	0.0005521782
107	0x3d897420	0.06711602
108	0xbd8134b5	-0.06308881
109	0xbc76c233	-0.015060949
110	0xbd8a0ebd	-0.06741092
111	0xbdfc2381	-0.12311459
112	0x3d3824e8	0.04495707
113	0xbc92c772	-0.017917369
114	0xbd803a00	-0.062610626
115	0xbd28bac2	-0.04119373
116	0xbddd83ab	-0.10816129
117	0xbe0bfdcc	-0.13671035
118	0x3dec54ba	0.11539598
119	0x3b95a893	0.0045672148
120	0xbd14595e	-0.03621804
121	0x3c0e1b6b	0.008673529
122	0xbdcfa8b4	-0.101395994
123	0x3da1fc8f	0.079095
124	0xbd0a23b6	-0.033725463
125	0x3d571dbd	0.052518595
126	0x3d2e16ba	0.042502142
127	0x3d12eccd	0.035870362
128	0xbabe0999	-0.001449871
129	0x3d57b74c	0.05266504
130	0xbd723a39	-0.059137557
131	0xbdd7b21d	-0.10532019
132	0x3d4bda49	0.04976872
133	0xbd240425	-0.040043015
134	0x3d473e7f	0.048643585
135	0xbd514133	-0.05108757
136	0xbd71a60a	-0.058996238
137	0xbe02415c	-0.12720245
138	0xbaefb435	-0.0018287959
139	0xbd2890d6	-0.04115375
140	0xbdf9f5c8	-0.12205082
141	0xbd16e69b	-0.036841016
142	0xbc82acd6	-0.015951555
143	0xbbc23f5a	-0.0059279623
144	0xbd17a18f	-0.03701931
145	0x3b172784	0.0023064325
146	0x3d35e185	0.044404525
147	0xbd937312	-0.07199682
148	0xbd9d65b2	-0.076854125
149	0x3da28744	0.07935956
150	0x3d9e3a09	0.07725913
151	0x3d349abe	0.044092886
152	0xbb6df630	-0.003631007
153	0xbc3dcec1	-0.0115849385
154	0x3d0932c6	0.033495687
155	0xbcd8322b	-0.02639111
156	0xbdc839ed	-0.097766735
157	0xbd9b6c98	-0.07589072
158	0x3c10c336	0.008835604
159	0x3c8c55b5	0.017130712
160	0xbdbfa81d	-0.09358237
161	0xbd2dafeb	-0.042404097
162	0x3d6aa17e	0.057282917
163	0xbc493b60	-0.0122822225
164	0xbcd6f0f2	-0.026237939
165	0x3e1a03fa	0.1504058
166	0x3da2cbbc	0.079490155
167	0x3d747c51	0.05968887
168	0xbdc98796	-0.09840314
169	0x3e204f61	0.1565528
170	0x3e2d3d11	0.16917826
171	0x3c759ca8	0.014990963
172	0xbd8c06bb	-0.06837221
173	0x3e232916	0.15933642
174	0xbdc7894f	-0.097429864
175	0xbd469709	-0.048483882
176	0xbd224424	-0.039615765
177	0x3c1cf877	0.009580723
178	0x3dc13130	0.0943321
179	0xbd35b6f7	-0.044363942
180	0xbd42e8d8	-0.04758534
181	0xbe26526c	-0.16242379
182	0x3dac4702	0.08411981
183	0x3d1be264	0.0380577
184	0xbc230305	-0.00994945
185	0x3cc0e50a	0.023546714
186	0xbcd346ec	-0.025790654
187	0x3d1659cd	0.036706734
188	0x3b3a1294	0.002839242
189	0xbce01e29	-0.027358131
190	0xbd35eac6	-0.04441335
191	0xbc725f30	-0.014793202
192	0xbe1a3bdc	-0.15061897
193	0x3d19dec0	0.037565947
194	0xbd6e16a8	-0.058127075
195	0x3e19347c	0.14961427
196	0x3d970833	0.07374611
197	0x3e5e1123	0.21686225
198	0xbdb8e423	-0.090278886
199	0x3e8ec480	0.27884293
200	0x3e5622dd	0.20911737
201	0xbdbf3cf4	-0.09337798
202	0xbeae336b	-0.34023604
203	0xbcb70404	-0.022340782
204	0x3b24647c	0.0025084307
205	0xbe3dca9a	-0.18534318
206	0x3d62d997	0.05538329
207	0xbe7d26b3	-0.24721794
208	0xbdbddfe8	-0.09271222
209	0xbe45a51a	-0.19301262
210	0x3e0f8d2d	0.14018698
211	0x3d1fcb08	0.039011985
212	0x3e34f0a6	0.17669925
213	0xbe3f6da4	-0.18694168
214	0x3e1d132e	0.15339348
215	0xbe1c5afd	-0.15269084
216	0x3e2afc54	0.16697818
217	0x3dc31b76	0.09526722
218	0xbe2dc902	-0.1697121
219	0xbd8202f6	-0.06348221
220	0xbe44bf6b	-0.19213645
221	0xbdc508f1	-0.09620846
222	0x3c47f583	0.012204531
223	0x3e89f5a2	0.26945215
224	0xbc1ed1d9	-0.009693586
225	0x3e5e9184	0.21735197
226	0x3e65ab7b	0.22428696
227	0x3e74c818	0.23904455
228	0xbb58bebc	-0.003307267
229	0xbe90ff4d	-0.2831978
230	0xbd77a3c9	-0.060458932
231	0xbd85ab55	-0.065268196
232	0xbe6b40f7	-0.22974001
233	0xbf243e4d	-0.64157563
234	0xbe90668a	-0.2820323
235	0x3e78dacd	0.24302216
236	0xbe8dc713	-0.27690944
237	0x3cf0f541	0.029413821
238	0x3b75d583	0.0037511296
239	0xbe3e2d45	-0.18571956
240	0x3e3ddcde	0.18541285
241	0x3c1afade	0.009459225
242	0x3de60ed1	0.11233295
243	0xbec04756	-0.37554425
244	0xbe1470ad	-0.14496107
245	0x3de7b920	0.11314607
246	0x3e3b7198	0.18305051
247	0xbcfc0655	-0.030764738
248	0xbf030f01	-0.5119477
249	0xbdae8ae1	-0.08522583
250	0xbe2aaee3	-0.16668276
251	0xbea02af7	-0.3128278
252	0xbe7079e8	-0.23484004
253	0xbd8a9938	-0.067675054
254	0xbe6cd141	-0.23126699
255	0xbde84470	-0.113411784

policy.2.bias f4 [32]
0	0xbdcab80a	-0.09898384
1	0xbd3df389	-0.04637483
2	0xbd6a665d	-0.057226527
3	0xbd26ce7f	-0.040724274
4	0x3e44c391	0.19215228
5	0xbe64a6e9	-0.22329296
6	0x3d991538	0.0747475
7	0x3a6cac78	0.00090283854
8	0xbde5b858	-0.112168014
9	0xbd58b647	-0.05290821
10	0xbde111d2	-0.10989727
11	0xbe960bdc	-0.29305923
12	0x3deb3a9f	0.114857905
13	0xbdac3144	-0.08407834
14	0xbd47b9e6	-0.04876127
15	0xbe0338f6	-0.12814698
16	0xbd106ec4	-0.035261884
17	0xbe00d84e	-0.12582514
18	0xbe3bdfe3	-0.18347125
19	0x3bb39a40	0.0054810345
20	0x3d754814	0.059883192
21	0x3d6e6175	0.05819841
22	0x3e23e931	0.16006924
23	0xbec277ad	-0.3798193
24	0x3db6c431	0.08924139
25	0xbe414b49	-0.18876375
26	0xbe984f69	-0.29748085
27	0xbe45e900	-0.19327164
28	0xbd9a856e	-0.07544981
29	0x3b5ee388	0.003401013
30	0x3dd1bb27	0.102407746
31	0x3de6db2f	0.11272275

policy.4.weight f4 [1, 32]
0	0x3ea1a904	0.3157426
1	0x3b01ce32	0.001980674
2	0x3b45d0a5	0.0030184176
3	0x3df126ce	0.117749795
4	0xbe4af54b	-0.19820134
5	0x3ecb4b21	0.39705756
6	0x3f135b22	0.5756093
7	0xbe9933d3	-0.2992235
8	0xbe8c0a14	-0.2735144
9	0xbdd2cba4	-0.102927476
10	0x3b0c84b7	0.002144141
11	0x3e47cd6a	0.19511953
12	0x3eb81dbe	0.3596019
13	0xbe1fff86	-0.15624818
14	0xbe0b89f4	-0.13626844
15	0xbe5c0bea	-0.2148892
16	0xbe7358e2	-0.23764375
17	0xbe3da6c8	-0.18520653
18	0x3aa826ad	0.0012828909
19	0x3e4b6bd1	0.19865347
20	0x3b118b0b	0.002220812
21	0xbe0c8643	-0.13723092
22	0x3ec401e0	0.3828268
23	0x3eb8be76	0.3608281
24	0xbe40a960	-0.18814611
25	0x3e6038e5	0.21896704
26	0x3ef9a3c0	0.48757744
27	0x3da58c9e	0.08083461
28	0x3d266ef1	0.040633146
29	0x3e990b71	0.29891542
30	0xbe124632	-0.1428459
31	0x3e94836b	0.29006514

value.0.weight f4 [64, 11]
0	0x3ec0abc7	0.37631056
1	0x3fdb36ef	1.7126139
2	0x403a2622	2.9085774
3	0xbe7d9532	-0.24763945
4	0xbe876664	-0.26445305
5	0x3e1dae24	0.1539846
6	0x3eba4152	0.3637796
7	0x3ea17931	0.31537774
8	0xbbecbf01	-0.007224918
9	0x3c3444e0	0.011002749
10	0x3e647e08	0.22313702
11	0x3dcf2b6a	0.101157025
12	0xbf8be61a	-1.0929596
13	0xc058d8f7	-3.3882425
14	0x37932a64	1.7543505e-05
15	0x3e16dcc4	0.14732653
16	0xbe5dc384	-0.21656615
17	0xbed54efe	-0.4166183
18	0xbeb2c99a	-0.34919435
19	0x3e07c19d	0.13257451
20	0x3e88dde2	0.26731783
21	0xbd494671	-0.049139444
22	0xbed7992b	-0.42109045
23	0xbf19be65	-0.60056144
24	0x40644c68	3.5671635
25	0x3e1c4b45	0.15263088
26	0x3f15b948	0.5848584
27	0x3e927c83	0.2861062
28	0x3e8f352a	0.27970248
29	0x3e5bee1e	0.21477553
30	0xbd89b93f	-0.06724786
31	0x3c6572a2	0.014004381
32	0x3e82fef9	0.25585154
33	0x3fa50f42	1.2895281
34	0x3ffa0f91	1.9536
35	0xc0315972	-2.7710843
36	0xbf84c97c	-1.0373988
37	0xbf9546d2	-1.1662238
38	0x3f9aa3c0	1.2081223
39	0xbd9c78df	-0.07640242
40	0xbf57c143	-0.8427927
41	0x3bcd5205	0.006265881
42	0x3c4fbe88	0.0126797035
43	0x3e25ac43	0.16178994
44	0x3e905207	0.28187582
45	0x4080857f	4.016296
46	0xbfb8ad7c	-1.4427943
47	0xbdcc3c31	-0.09972418
48	0xbea964ca	-0.33084708
49	0x3ec5addb	0.38609204
50	0x3f4b72ac	0.7947185
51	0x3e51a7c6	0.20474157
52	0x3f6c27ce	0.9224824
53	0x3dd6a5ba	0.104808286
54	0x3e8857de	0.26629537
55	0xc0082549	-2.1272757
56	0x3e98ee8c	0.29869497
57	0x400745df	2.1136396
58	0x3f5690e1	0.8381482
59	0x3eb62c16	0.3558051
60	0xbf8a74bf	-1.0816878
61	0x3e9786d5	0.29595056
62	0x3f3031b0	0.6882582
63	0xbef801d7	-0.48438904
64	0x3da09afe	0.078420624
65	0xbe562fb2	-0.20916632
66	0xbf08e07f	-0.53467554
67	0xc06d9ba7	-3.7126253
68	0x40001d31	2.0017817
69	0x3f5d94c5	0.8655513
70	0x3f6f5d13	0.93501395
71	0xbf217105	-0.6306308
72	0xbeec55e7	-0.46159288
73	0x3e13945f	0.14412068
74	0xbc7ea74f	-0.015542819
75	0x3e0d14ab	0.13777415
76	0xbcac44c9	-0.021028893
77	0x4031905d	2.7744362
78	0xc05ecf91	-3.4814188
79	0x3f7d26e2	0.98887455
80	0xbf830e7d	-1.0238796
81	0xbf167752	-0.5877582
82	0x3e837654	0.25676215
83	0x3d8956ae	0.06705986
84	0x3c20f84e	0.009824825
85	0x3eeffeaf	0.46873996
86	0x3e298177	0.16553293
87	0xbe622733	-0.22085266
88	0xbecb0069	-0.3964875
89	0xc0855222	-4.166276
90	0x3fa17e4e	1.261667
91	0x3e1bb095	0.1520408
92	0x3e2c4302	0.16822436
93	0xbe894338	-0.26809096
94	0xbf32d7ad	-0.69860345
95	0xbea9d93d	-0.33173552
96	0xbf63febb	-0.8906056
97	0x3b556941	0.0032563957
98	0x3de7d3d6	0.113197014
99	0x40054627	2.0824068
100	0xc05be06d	-3.4355729
101	0x3f40128b	0.75028294
102	0x3d0d65c4	0.03452088
103	0xbeb5747c	-0.35440433
104	0x3f4bc5e3	0.79598826
105	0xbeabaac8	-0.33528733
106	0xbee33dcb	-0.44383082
107	0xbf3d6e5c	-0.7399652
108	0x3d271b90	0.04079777
109	0x3d412a46	0.047159456
110	0x3f8b4f22	1.0883524
111	0x3fb88530	1.4415646
112	0x402758e4	2.6148005
113	0x3e50e412	0.20399502
114	0xbe384461	-0.17994834
115	0x3ed8100f	0.42199752
116	0x3ef00513	0.4687887
117	0x3f05b418	0.52227926
118	0x3bae2ab3	0.0053151487
119	0xbcd1f1ae	-0.025627937
120	0x3e5a7978	0.21335399
121	0x3fcd37fc	1.603271
122	0x401fe467	2.4983156
123	0xc05f331f	-3.4874952
124	0x3f8bbe5a	1.0917466
125	0x3eef1390	0.46694613
126	0x3f04c7bf	0.5186729
127	0x3e0b779d	0.13619848
128	0xbec1ab5c	-0.3782605
129	0xbe0372ca	-0.12836757
130	0x3e43a61f	0.19106339
131	0xbcfa0e06	-0.030524265
132	0xc0430f54	-3.0478106
133	0x3ff7e5ed	1.9367043
134	0x3f931ef0	1.1493816
135	0x3f9f4b54	1.2444863
136	0x3f6de267	0.9292359
137	0xbf786cfc	-0.97041297
138	0x3e7b974d	0.24569435
139	0x3eea1ec3	0.45726594
140	0xbf0ff4c2	-0.56232846
141	0xbe0b4a83	-0.13602643
142	0x3ccf7266	0.025323104
143	0xbe847ddc	-0.25877273
144	0xbf692c8a	-0.91083586
145	0xc01c0617	-2.4378717
146	0xbd296429	-0.041355286
147	0x3d4fc2de	0.05072295
148	0xbebb1c7e	-0.36545175
149	0xbf15d4ab	-0.5852763
150	0xbec0e6d1	-0.376761
151	0x3c5e1007	0.013553626
152	0xbd6ce226	-0.05783286
153	0x3e03d569	0.12874378
154	0xbf504ad7	-0.81364197
155	0xc04430c1	-3.0654757
156	0x3fe4ac69	1.7865115
157	0x3e6d5ea3	0.23180632
158	0x3f0e04ed	0.55476266
159	0xbf9112e3	-1.1333889
160	0xbf155a01	-0.5834046
161	0x3d754b33	0.05988617
162	0xbda8cfde	-0.082427725
163	0xbe91be09	-0.28465298
164	0xbd25fe5e	-0.040525787
165	0xbffee600	-1.991394
166	0x3e46b661	0.1940551
167	0xc001caae	-2.0279956
168	0xbf8d7418	-1.1051054
169	0xbf9ca220	-1.2236977
170	0xbeef19e5	-0.46699443
171	0xbe90fa62	-0.28316027
172	0xbf1ea7f3	-0.6197502
173	0x3e0632b5	0.1310528
174	0x3e5ab9a2	0.21359876
175	0xbe69fd19	-0.22850455
176	0xbe81e83b	-0.2537249
177	0xc0890ed4	-4.28306
178	0x3f08b5c3	0.53402346
179	0xbeeb876d	-0.4600176
180	0xbeff823c	-0.49904048
181	0xbe88a9c8	-0.26692033
182	0xbf54b5b2	-0.83089745
183	0xbe7eb712	-0.24874523
184	0x3f28a5b1	0.65877825
185	0xbe5c6c30	-0.21525645
186	0x3e334e01	0.17510225
187	0xbfedf92b	-1.8591665
188	0xbe258467	-0.16163789
189	0xc00701e2	-2.10949
190	0xbf3a4248	-0.7275739
191	0xbe6a2f7b	-0.22869675
192	0xbf7b3253	-0.98123664
193	0xbf134829	-0.5753198
194	0xbdd71d00	-0.10503578
195	0xbf22b3f3	-0.6355583
196	0x3e513274	0.20429403
197	0x3e650082	0.22363475
198	0xbe203d62	-0.15648416
199	0xbf9faa09	-1.2473766
200	0xc0191094	-2.3916368
201	0xbe74328f	-0.23847412
202	0xbd551af7	-0.05202767
203	0xbebc4b8f	-0.36776397
204	0xbf0d85db	-0.5528237
205	0xbec7368a	-0.38908798
206	0x3d0843a0	0.033267617
207	0xbe97aa26	-0.29622
208	0x3e848a3c	0.25886714
209	0x3bbd4093	0.00577552
210	0x3f981812	1.1882346
211	0x403e3464	2.9719477
212	0x3bd68413	0.006546506
213	0x3e28b914	0.16476852
214	0x3e69a1c3	0.22815613
215	0x3eef3fcf	0.4672837
216	0x3ec01d71	0.37522462
217	0xbc2f0cc6	-0.010684198
218	0x3e8bc74d	0.27300492
219	0xbe120320	-0.14259005
220	0xbea2d913	-0.3180624
221	0x40348547	2.8206346
222	0xc08474c6	-4.1392546
223	0x3f9e517b	1.2368616
224	0x3f750bf1	0.95721346
225	0xbd2c6de0	-0.042096972
226	0xbe3517e1	-0.1768489
227	0xbef1f046	-0.47253627
228	0xbeb2bd24	-0.34909928
229	0xbe338aaa	-0.17533365
230	0xbe3b3802	-0.18283084
231	0xbe97d115	-0.29651704
232	0xbfb9afd1	-1.450678
233	0xc0375043	-2.8642738
234	0xbd5a1f30	-0.0532524
235	0xbe806828	-0.25079465
236	0xbec6c1ad	-0.38819638
237	0xbe4035b2	-0.18770483
238	0xbeb819d3	-0.35957202
239	0xbebeaad1	-0.37239698
240	0xbe2f7472	-0.17134264
241	0xbd172cc1	-0.036907915
242	0xbe9c313b	-0.3050631
243	0xbfb35d95	-1.4012934
244	0xc05078c2	-3.2573705
245	0x3e246bb6	0.16056713
246	0xbe6cb69b	-0.23116533
247	0xbe40ca1c	-0.18827099
248	0xbeb3969e	-0.3507585
249	0xbe4ab167	-0.19794236
250	0xbcd5f352	-0.026117
251	0xbe60ea05	-0.21964271
252	0x3d5c9180	0.053849697
253	0xc023d350	-2.5597725
254	0x3ebeed57	0.3729045
255	0xbfc2959b	-1.5201906

value.0.bias f4 [64]
0	0xbf010baf	-0.5040845
1	0xbf112e89	-0.5671163
2	0x3e92b1d6	0.28651303
3	0xbeec7d65	-0.46189418
4	0xbe153036	-0.14569172
5	0x3f28fa84	0.66007257
6	0x3ef64001	0.48095706
7	0xbf3826aa	-0.71933997
8	0xbdf323c3	-0.118720554
9	0xbd573c3f	-0.05254769
10	0x3e08b139	0.13348855
11	0x3ed0ca65	0.40779415
12	0x3f795f6e	0.9741124
13	0xbe706179	-0.23474683
14	0x3edbef82	0.42956167
15	0xbf3c5e4f	-0.73581403
16	0xbeaee5cb	-0.34159693
17	0xbe29f455	-0.16597112
18	0xbed84d8c	-0.42246664
19	0x3e03216f	0.12805723
20	0x3f3d15a0	0.7386112
21	0xbe6db4a7	-0.23213445
22	0x3db24e4e	0.08706342
23	0xbe396d0c	-0.18108004
24	0x3e142d66	0.14470443
25	0x3f44a17e	0.7680892
26	0x3cc9a94b	0.024616858
27	0x3f4ef956	0.80849206
28	0xbf77ff36	-0.96873796
29	0x3cbfe8bf	0.023426412
30	0x3e31fdf3	0.1738203
31	0x3e86f805	0.263611
32	0x3e59159c	0.2119965
33	0x3ec71d39	0.38889483
34	0xbfb9b86b	-1.4509405
35	0x3cac1a18	0.021008536
36	0x3f09d055	0.53833514
37	0x3f073ffb	0.52832
38	0xbeacae15	-0.33726564
39	0xbf11adc7	-0.5690579
40	0x3f3a45e1	0.72762877
41	0xbf72700a	-0.9470221
42	0xbe7cdf50	-0.24694562
43	0x3f5c5e56	0.86081445
44	0x3e6aad5e	0.22917697
45	0x3d89ffc4	0.067382365
46	0xbea042a1	-0.31300834
47	0x3f23ceb9	0.6398731
48	0xbf5cc7b6	-0.86242235
49	0x3d985b29	0.074392624
50	0xbe804b2d	-0.25057355
51	0xbe8703f9	-0.26370218
52	0xbf000400	-0.50006104
53	0xbf6b8a8b	-0.92008275
54	0x3dd65424	0.10465267
55	0x3f1e1dd8	0.6176429
56	0xbda1210d	-0.07867632
57	0xbf69be6b	-0.9130618
58	0xbcee90a7	-0.02912171
59	0x3cc6d446	0.024271142
60	0x3f41f509	0.7576452
61	0xbe5965e8	-0.2123028
62	0xbedc768d	-0.43059197
63	0x3ed168a6	0.40900153

value.2.weight f4 [32, 64]
0	0xc01b47c7	-2.426256
1	0x3f826a29	1.0188648
2	0xbf41bb95	-0.7567685
3	0x3fdd1d4f	1.7274569
4	0xbf13f52f	-0.57795995
5	0xbf534ad4	-0.82536054
6	0xbf61af7b	-0.88158387
7	0x3ed4ae96	0.41539448
8	0x3f5fe179	0.8745342
9	0x3f975010	1.1821308
10	0xbfecdad8	-1.8504286
11	0x3e96f34d	0.294825
12	0xbf9a7e5e	-1.2069814
13	0x3f72c2f9	0.94828755
14	0xbf293972	-0.6610328
15	0x3f4bfece	0.79685676
16	0x3fea9f93	1.8329948
17	0x3fb04a60	1.3772697
18	0x3f31a31f	0.6938953
19	0xbfa9c163	-1.3262142
20	0x3f498541	0.78718954
21	0x3f9f37f9	1.2438956
22	0x3fe0e73e	1.757057
23	0x3f519239	0.81863743
24	0xbf961c81	-1.1727449
25	0xbeb86218	-0.3601234
26	0x3f81b6c3	1.01339
27	0xc072ea2a	-3.7955422
28	0xbe197613	-0.14986448
29	0xbf4b07d6	-0.7930883
30	0xbe38e715	-0.18056901
31	0xbf18d566	-0.5970062
32	0xbf8275ef	-1.019224
33	0xbea9f7a3	-0.33196744
34	0xbe8b7793	-0.27239665
35	0xbeac6e98	-0.33678126
36	0x4008bbd3	2.1364639
37	0x3e9e7402	0.30947882
38	0xbfe4f32e	-1.7886713
39	0xbf4111e8	-0.7541795
40	0xbeb6455e	-0.35599798
41	0xbed1bbc4	-0.40963566
42	0x401d43df	2.4572675
43	0x3f72cc88	0.9484334
44	0x3fa96412	1.3233664
45	0xbfc8e018	-1.5693388
46	0x3f24f6b6	0.6443895
47	0x3de21b62	0.11040379
48	0x3ef95da7	0.48704264
49	0xbf32c812	-0.69836533
50	0x3fcd194c	1.6023345
51	0xbf718391	-0.9434138
52	0x3ecaf7cd	0.39642182
53	0xbfa2d009	-1.2719737
54	0xbf9d5677	-1.2292012
55	0xbe6c5696	-0.23079905
56	0xbf37087c	-0.7149732
57	0xbc126ac5	-0.008936589
58	0xbee2e98c	-0.44318807
59	0xbf5dc932	-0.86635125
60	0x401a07cd	2.4067261
61	0x3fc1c523	1.5138286
62	0x3eed3110	0.46326494
63	0x3fdf523a	1.7446969
64	0x4025f07c	2.592803
65	0xbfee21e9	-1.8604099
66	0x3f1bd503	0.60871905
67	0xbf61a5b8	-0.8814349
68	0x3e7736de	0.24142024
69	0x3f145865	0.5794738
70	0x3f06b830	0.526248
71	0xbdb1fe10	-0.08691037
72	0xbf20cca8	-0.6281228
73	0xbf8f6422	-1.1202433
74	0x4048ae6e	3.1356463
75	0x3fc699f9	1.5515739
76	0x3e8e7201	0.27821353
77	0xbfb77ad5	-1.433436
78	0x3ed1d5e1	0.4098349
79	0xbf80df7e	-1.0068204
80	0xbffbf5a7	-1.9684342
81	0xbfa0173d	-1.2507092
82	0xbf7d062a	-0.9883753
83	0x3ffd13ac	1.9771628
84	0xbed1fcbb	-0.4101313
85	0xbfcd521f	-1.6040686
86	0xc023e8fb	-2.561095
87	0xbf4eaf1d	-0.8073595
88	0x3ff5bca1	1.919819
89	0x3f4dbef4	0.80369496
90	0xbf32bb08	-0.6981664
91	0x3e719edb	0.23595755
92	0x3e1826a6	0.14858493
93	0x3f9f78cc	1.2458739
94	0x3f4f495c	0.8097131
95	0x3ea8402f	0.32861468
96	0x3edc388d	0.43011895
97	0xbf260bf7	-0.64862007
98	0x3f170632	0.5899383
99	0x3f89752a	1.0738881
100	0xbfd8448a	-1.6895916
101	0xbfcb2036	-1.5869205
102	0x4015496c	2.3326063
103	0xbf00a059	-0.5024467
104	0x4003e877	2.0610635
105	0xbf0c992d	-0.5492123
106	0xc036a5e3	-2.853875
107	0xbee48045	-0.44629112
108	0xbf19291b	-0.59828347
109	0x400ebd4c	2.2303038
110	0xbea5624e	-0.32301563
111	0x3facc630	1.3497982
112	0xbf1f51ee	-0.6223439
113	0x3f769e05	0.9633487
114	0xbfec4341	-1.8458024
115	0xbece9c01	-0.40353397
116	0xbeda20ab	-0.4260305
117	0x3f87edcf	1.0619448
118	0xbf09110a	-0.53541625
119	0xbc9292a4	-0.01789219
120	0x3f7ee0b9	0.9956165
121	0xbdfd5f2c	-0.12371668
122	0x3f99a40b	1.2003187
123	0x3f557f91	0.83397776
124	0xc020410c	-2.5039701
125	0xbfd5078d	-1.6642929
126	0xbfa56ebf	-1.2924422
127	0xbff77a15	-1.9334131
128	0x402c9b0b	2.696963
129	0xbf98e6d0	-1.1945438
130	0x3ecc1ee9	0.39867333
131	0xbfdae1bc	-1.7100139
132	0x3e6f3391	0.23359515
133	0x3fd2506b	1.6430792
134	0x3f7f3a0d	0.99697953
135	0xbf388431	-0.7207671
136	0xbf2087b7	-0.62707084
137	0xbf403330	-0.75078106
138	0x401967e0	2.396965
139	0x3f71917f	0.94362634
140	0x3f9f8a03	1.2463993
141	0xbf38d870	-0.7220526
142	0x3f389552	0.72102845
143	0xbf98efe0	-1.1948204
144	0xbfcc0a14	-1.5940576
145	0xbfa3c242	-1.2793658
146	0xbf70b33c	-0.9402349
147	0x3f8b5c02	1.0887454
148	0xbf13de1a	-0.57760775
149	0xbfccfd65	-1.601483
150	0xc00a7cfe	-2.163879
151	0xbf5dcd73	-0.86641616
152	0x40030efa	2.047789
153	0x3f05b096	0.52222574
154	0xbf22addf	-0.63546556
155	0x3f871ff2	1.0556624
156	0x3e7976fe	0.24361798
157	0x3f9bab32	1.216162
158	0x3eb7482e	0.35797256
159	0x3f367ad3	0.71281165
160	0x3ebd274e	0.3694405
161	0xbf414d73	-0.75508803
162	0x3f653b21	0.8954335
163	0x3f0a73b4	0.540828
164	0xc005da38	-2.091444
165	0xbfa32dd7	-1.2748364
166	0x400d58a0	2.2085342
167	0xbca95e8d	-0.020674968
168	0x3fd7165e	1.6803701
169	0xbdec5334	-0.11539307
170	0xc00e0e55	-2.2196248
171	0xbf4c35c9	-0.7976957
172	0xbf9374b4	-1.151999
173	0x401af2be	2.4210658
174	0xbf52a29a	-0.8227936
175	0x3f2535d4	0.6453526
176	0x3ea99107	0.3311846
177	0x3f470603	0.7774355
178	0xbfa65ca4	-1.2997022
179	0xbe7ec17c	-0.24878496
180	0xbee2fa90	-0.4433179
181	0x3f8b4d60	1.0882988
182	0xbe8c2ca4	-0.27377808
183	0x3e83c33b	0.25734887
184	0x3f977d4c	1.1835113
185	0x3d7e3a18	0.06206712
186	0x3f88cdfb	1.068786
187	0x3f1a0dd2	0.6017734
188	0xc00f81a7	-2.2422884
189	0xbf981a8e	-1.1883104
190	0xbf03421d	-0.51272756
191	0xbff224b5	-1.8917452
192	0xbf391201	-0.72293097
193	0x401535f8	2.331419
194	0xbf83bb51	-1.029154
195	0xbf13b9a0	-0.57705116
196	0xbff43a35	-1.9080263
197	0x3f1d7d3e	0.6151923
198	0x3f66f6df	0.90220445
199	0xbfcfa0a7	-1.6220902
200	0x3fbfa10c	1.4971023
201	0x3eb2e40b	0.34939608
202	0xbf86e063	-1.0537227
203	0x3f893e9f	1.0722235
204	0x3f97cafa	1.1858819
205	0x4039a754	2.900838
206	0x3f8ddcdb	1.1083025
207	0x3f2a4c14	0.66522336
208	0xbbae1abf	-0.005313247
209	0x3e69ce22	0.2283254
210	0x4050e94e	3.2642398
211	0xbff4485f	-1.9084586
212	0x3f7bb0e1	0.9831677
213	0x4009382a	2.144053
214	0x3f88100e	1.06299
215	0xbf6fe562	-0.93709385
216	0xbf0148bd	-0.50501615
217	0x3ed23508	0.41056085
218	0x3fab3406	1.3375251
219	0xbe9e577e	-0.30926126
220	0xbf8661a0	-1.0498543
221	0x3eda865d	0.42680636
222	0xbfd68185	-1.6758276
223	0x3f3327d8	0.6998267
224	0xbff1ce13	-1.8891014
225	0x3df7fcf8	0.12108797
226	0x3f25ec55	0.6481374
227	0xbfd7ebfa	-1.6868889
228	0x3e0c1193	0.13678579
229	0x3f26168f	0.6487817
230	0xbf9221bc	-1.1416545
231	0xbf36dd2a	-0.7143122
232	0x3e7b15dd	0.24520059
233	0xbf362db7	-0.71163505
234	0x3ed9429d	0.42433634
235	0x3e256b56	0.16154227
236	0x3f7e6692	0.9937526
237	0x3ec7da4f	0.39033744
238	0xbf7d4dac	-0.9894664
239	0x3f68d7a2	0.9095403
240	0x3fe0f496	1.7574642
241	0xbf09228e	-0.5356835
242	0x3f4002ca	0.75004256
243	0xbfa8e16c	-1.3193793
244	0xbf59485b	-0.8487603
245	0xbe4f7686	-0.20260057
246	0x3fd75ac2	1.6824572
247	0x3f2ba607	0.6705021
248	0xbef21f31	-0.47289422
249	0xbf59ed8d	-0.851281
250	0xbe15351f	-0.14571045
251	0xbea4b335	-0.32167974
252	0x3f42abf0	0.76043606
253	0x401e62c5	2.4747784
254	0x4009a8b4	2.1509218
255	0x3f54d1d3	0.83132666

value.2.bias f4 [32]
0	0x3f5f9415	0.8733533
1	0xbf505a7e	-0.8138808
2	0xbfaa7dff	-1.3319701
3	0xbf9bcdb6	-1.2172153
4	0x3ff90fe7	1.9457978
5	0x3f8fdf80	1.1240082
6	0x3f6c096d	0.9220188
7	0xbf703a62	-0.93839085
8	0xbf966b73	-1.1751541
9	0x3f25fe93	0.64841574
10	0x3f8e3ea8	1.1112871
11	0x3fd1b06f	1.6381968
12	0xbfb607f4	-1.4221177
13	0x3f83caf3	1.029631
14	0xbf724304	-0.9463351
15	0x3f9459d8	1.1589918
16	0xbf7114a8	-0.94172144
17	0xbf9ae097	-1.2099789
18	0x3fa81779	1.3132163
19	0x3fb124da	1.3839371
20	0x3f929dd0	1.145441
21	0xbf881655	-1.0631815
22	0xbf931371	-1.1490308
23	0x3f90d8a4	1.1316113
24	0xbf94aca9	-1.1615192
25	0xbf861593	-1.0475334
26	0xbf5ebf29	-0.8701044
27	0xbf5cb443	-0.8621256
28	0xbfb82b3a	-1.4388192
29	0xbf873fe4	-1.0566373
30	0xbf4c69f9	-0.798492
31	0x3fcba976	1.591109

value.4.weight f4 [1, 32]
0	0xc1d1937f	-26.19702
1	0x41d0e3e3	26.111273
2	0x41d17d7f	26.186277
3	0x41d16f48	26.179337
4	0xc1d0ddb7	-26.10826
5	0xc1d04f4e	-26.038723
6	0xc1d04870	-26.03537
7	0x41d0cc3b	26.099722
8	0x41d10958	26.129562
9	0xc1d0f20c	-26.118187
10	0xc1cee054	-25.859535
11	0xc1cf7e26	-25.936596
12	0x41d01bf7	26.013655
13	0xc1d11dfd	-26.139643
14	0x41d14a4a	26.161274
15	0xc1d0ee35	-26.116312
16	0x41d0dc64	26.107613
17	0x41d0151c	26.010307
18	0xc1d0fa0b	-26.122091
19	0xc1cfa50a	-25.955585
20	0xc1d16c7d	-26.177973
21	0x41d012b5	26.009134
22	0x41cfbf96	25.968548
23	0xc1d0c5c9	-26.096575
24	0x41cf1d16	25.889202
25	0x41cf94c5	25.947641
26	0x41cd642e	25.673916
27	0x41d1051e	26.127499
28	0x41d21687	26.261
29	0x41d157b3	26.167822
30	0x41d0fb07	26.122572
31	0xc1d1d7f1	-26.23044
