models/InvertedPendulum-v4.pth (torch, 23858 bytes, 10 tensors)

policy.0.weight f4 [64, 4]
0	0x3e06e697	0.131739
1	0x3e6ad6b2	0.22933462
2	0x3f1eb8c9	0.6200071
3	0x3f006a08	0.5016179
4	0x3f3ff9fe	0.7499083
5	0x3fc3c2c3	1.5293812
6	0x3eac81e3	0.33692846
7	0xbe07acbb	-0.13249485
8	0xbf3d066c	-0.73837924
9	0x3f1fa129	0.62355286
10	0x3e8b88bc	0.27252758
11	0x3e60909d	0.21930166
12	0xbe5e281b	-0.21694987
13	0x4001b78f	2.0268285
14	0xbe6e5653	-0.23275118
15	0x3e876d99	0.26450804
16	0x3f3d4c04	0.73944116
17	0x3f89f1dd	1.0776936
18	0x3d86ccd1	0.065820344
19	0x3dfb8efa	0.1228313
20	0x3da7ad2b	0.08187326
21	0x3f9a39d0	1.2048893
22	0x3f0e6d35	0.55635387
23	0x3e575f6e	0.21032497
24	0xbe3816b2	-0.17977408
25	0xbfc3ef8d	-1.530748
26	0xbf05ba3a	-0.52237284
27	0xbedd0aa5	-0.43172184
28	0xbc706f44	-0.014674965
29	0xbe4eb47e	-0.2018604
30	0x3efcf808	0.49407983
31	0xbecd36d2	-0.40080887
32	0x3e23808e	0.15967008
33	0x3f655e6f	0.8959722
34	0x3f174963	0.59096354
35	0x3ef0a6d6	0.47002286
36	0x3e2fb6d6	0.1715959
37	0x3fe08bd7	1.7542676
38	0x3ede8671	0.43461946
39	0x3dfdfba8	0.12401515
40	0x3e2ab227	0.16669522
41	0xbf93dbf9	-1.1551505
42	0xbea7c8cc	-0.32770383
43	0xbe6f60d7	-0.23376785
44	0x3f3af1b2	0.7302505
45	0xbf62450f	-0.88386625
46	0xbca0a95c	-0.019612007
47	0xbeabb58b	-0.33536944
48	0xbf23afc6	-0.63940084
49	0xbf3c775b	-0.7361962
50	0xbeed2842	-0.46319777
51	0xbcb8a16b	-0.022537908
52	0xbdb97970	-0.090563655
53	0xbfe7367f	-1.8063506
54	0xbe7d712b	-0.24750201
55	0x3e8b9199	0.2725952
56	0xbf2d88b7	-0.67786735
57	0xbf8d0888	-1.1018229
58	0xbf259477	-0.64679664
59	0x3ec4569c	0.38347328
60	0x3ba4284b	0.005009686
61	0x3fdb51ee	1.7134378
62	0x3ed5f177	0.41785786
63	0x3eb2558f	0.348309
64	0xbf1814d7	-0.594068
65	0xbf8ea4a3	-1.1143993
66	0xbef40a0a	-0.4766391
67	0xbd972408	-0.07379919
68	0x3e86b9ca	0.2631362
69	0xbea7b47f	-0.32754895
70	0x3e0f6b44	0.14005762
71	0xbe8b6453	-0.2722498
72	0x3f3de548	0.7417798
73	0x3eb26d5b	0.34849057
74	0xbe8366a3	-0.25664243
75	0x3f01ce35	0.5070527
76	0x3d91a03d	0.07110641
77	0x3db43fde	0.08801244
78	0xbe890bdc	-0.2676686
79	0x3e946f96	0.28991383
80	0xbe02febe	-0.12792489
81	0xbf151492	-0.5823451
82	0xbf2d36bb	-0.6766164
83	0xbddaea83	-0.10689261
84	0xbe9ee81c	-0.3103646
85	0x3f8deb15	1.1087366
86	0xbe30e81b	-0.17276041
87	0x3db46a40	0.08809328
88	0xbefc8d1d	-0.4932641
89	0x3fb92e31	1.4467221
90	0xbdce69e9	-0.100787945
91	0x3e43c980	0.19119835
92	0x3e92128e	0.2852978
93	0xbfa44faa	-1.2836812
94	0xbf130301	-0.5742646
95	0xbea004f9	-0.31253794
96	0xbda7c533	-0.0819191
97	0x3f9737a3	1.1813854
98	0xbe0f0934	-0.13968354
99	0x3e21c26f	0.15796827
100	0xbedf9b9f	-0.43673417
101	0x3f36d134	0.7141297
102	0x3f2b7987	0.6698231
103	0x3e9e4ef4	0.3091961
104	0x3f57e1f9	0.8432918
105	0x3fa64f3f	1.2992934
106	0x3ea44e1a	0.32090837
107	0xbd1a50ea	-0.037674822
108	0x3fb53e47	1.415963
109	0x3f11e653	0.5699207
110	0x3f1461d2	0.5796176
111	0xbe9cdf90	-0.30639315
112	0xbe884cce	-0.26621097
113	0x3fc84774	1.5646806
114	0x3ddcad8c	0.10775289
115	0x3e905926	0.28193015
116	0x3f10fc1c	0.5663469
117	0xbfc7eac5	-1.5618521
118	0xbeddde3e	-0.4333362
119	0xbeb82984	-0.35969174
120	0xbe276332	-0.16346434
121	0xbfc92497	-1.5714291
122	0xbea35a14	-0.31904662
123	0xbe4dd1be	-0.20099542
124	0x3ef35b2c	0.47530496
125	0xbf92a20c	-1.1455703
126	0xbf36269d	-0.7115267
127	0xbedd04b1	-0.43167642
128	0x3e4d52fa	0.20051184
129	0xbf51d21c	-0.81961226
130	0x3ee759af	0.4518561
131	0xbef9b712	-0.48772484
132	0xbe94ffaf	-0.2910132
133	0x3f8e6e30	1.1127377
134	0x3e4ebb4e	0.20188639
135	0xbe7a9be2	-0.24473527
136	0x3a375ef2	0.0006995044
137	0xbfa75f38	-1.3075933
138	0xbe3204ca	-0.1738464
139	0xbe79f1b7	-0.24408613
140	0xbf3d6177	-0.73976845
141	0x3f3f4122	0.7470876
142	0x3dbaa2a0	0.091130495
143	0x3e8708af	0.26373813
144	0xbf154e35	-0.5832246
145	0xbf61cf6e	-0.8820714
146	0xbeb3fbb1	-0.35152963
147	0xbe9d26b3	-0.30693588
148	0x3f3bf799	0.7342468
149	0xbf93e8e2	-1.1555445
150	0xbe395669	-0.18099369
151	0xbd311145	-0.04322936
152	0xbe9973f9	-0.29971293
153	0xbfd4f05b	-1.6635851
154	0xbeb260e2	-0.3483954
155	0x3f0148e7	0.50501865
156	0xbc284b66	-0.010271883
157	0x3f512c64	0.8170836
158	0x3ec6e045	0.3884298
159	0x3eacf89c	0.33783424
160	0xbf8ab03d	-1.0835034
161	0xbee66e32	-0.45005947
162	0xbf304929	-0.68861634
163	0xbe3fd12a	-0.18732134
164	0x3f889276	1.0669696
165	0xbf936b8e	-1.1517198
166	0xbe904a3a	-0.2818163
167	0xbdf483b5	-0.119391836
168	0x3f23a23a	0.63919413
169	0xbfbc7c3a	-1.4725411
170	0xbeae903e	-0.34094423
171	0xbe461b56	-0.19346365
172	0x3ef786da	0.4834507
173	0xbfb4f733	-1.4137939
174	0xbef8d4a4	-0.48599732
175	0xbd15f5e9	-0.03661147
176	0xbf89fb02	-1.0779727
177	0xbf45a26c	-0.7720096
178	0xbed5bf9b	-0.41747746
179	0x3e911104	0.28333294
180	0xbe7aaaa8	-0.24479163
181	0xbfb6bc38	-1.427619
182	0xbf027181	-0.50954443
183	0xbee69635	-0.45036474
184	0x3f1a4315	0.6025861
185	0x3f82f948	1.0232325
186	0x3d548802	0.05188752
187	0x3ed34f18	0.4127128
188	0x3ecc39a8	0.39887738
189	0xbf864072	-1.0488417
190	0xbc8ea80c	-0.017414115
191	0xbe6d8710	-0.23196054
192	0x3f18cdfa	0.59689295
193	0x3f7507d9	0.957151
194	0x3f344aea	0.7042681
195	0x3e67d4c1	0.22639753
196	0xbf25fea3	-0.6484167
197	0x3dd9d7ba	0.1063685
198	0xbeaea51e	-0.3411035
199	0x3ecd5f5a	0.4011181
200	0xbf36cf79	-0.7141033
201	0x3edeacd4	0.43491232
202	0x3c22d801	0.009939195
203	0x3efafb48	0.49019837
204	0x3f1659d6	0.5873083
205	0xbf5bcb52	-0.8585712
206	0xbea322d1	-0.318625
207	0x3b6f6470	0.0036528371
208	0xbf314cbc	-0.6925771
209	0x3fade45e	1.3585317
210	0x3eca8444	0.39554036
211	0x3edbc313	0.42922267
212	0xbc73ace5	-0.014872764
213	0xbe6e7b08	-0.2328912
214	0xbf1e2fe1	-0.6179181
215	0xbeba8e69	-0.36436775
216	0x3f4f362b	0.8094203
217	0xbf762759	-0.9615379
218	0xbe9b4fc1	-0.30334285
219	0xbee1421c	-0.4399575
220	0xbe8cf65f	-0.27531716
221	0x3c95bd62	0.018278781
222	0x3eab806b	0.33496413
223	0xbe64387a	-0.22287169
224	0xbf148aaf	-0.58024114
225	0x3f423344	0.75859475
226	0x3e0aefd6	0.13568053
227	0x3eac40c0	0.3364315
228	0xbf1504f0	-0.5821066
229	0xbf66f8e2	-0.90223515
230	0xbf94125b	-1.1568102
231	0x3f61db5e	0.8822535
232	0x3f11759e	0.56820095
233	0xbfa27a66	-1.2693603
234	0x3d1dc155	0.038514454
235	0x3dfa35c9	0.1221729
236	0xbf1d238c	-0.61382365
237	0x3fa73c79	1.306533
238	0x3f15d86c	0.5853336
239	0xbf241590	-0.640954
240	0xbf8c6f94	-1.0971551
241	0xbf508756	-0.81456506
242	0xbe972525	-0.29520527
243	0xbe1eca86	-0.15506944
244	0x3ea6fcda	0.32614785
245	0x3fc1f05e	1.5151479
246	0x3ee75189	0.45179394
247	0x3eb3ad0a	0.35092956
248	0x3ef1cdf3	0.4722744
249	0x3f599dc5	0.8500636
250	0x3f3c5486	0.7356647
251	0xbd2c0dac	-0.042005226
252	0x3f23c7a3	0.63976496
253	0x3f187905	0.5955966
254	0x3f02f791	0.51159006
255	0x3ed91ac4	0.42403233

policy.0.bias f4 [64]
0	0xbe2064ac	-0.15663403
1	0xbe07a042	-0.13244727
2	0x3bd8c146	0.006614837
3	0x3ef30757	0.47466537
4	0x3e8eae7a	0.2786749
5	0xbd78e4ad	-0.060764957
6	0xbe0013b2	-0.12507513
7	0x3deaaec2	0.11459114
8	0x3e9b573d	0.30339995
9	0x3ddffca1	0.10936857
10	0x3dee720e	0.11642848
11	0x3e98c78e	0.29839748
12	0x3f0041d4	0.50100446
13	0x3c37ff78	0.011230342
14	0x3e559915	0.20859177
15	0x3e1de8a2	0.15420774
16	0x3eeb74e1	0.4598761
17	0x3eb2b1a7	0.34901163
18	0x3d9e302a	0.0772403
19	0x3efb2348	0.49050355
20	0x3ea0a6ca	0.3137725
21	0xbd4551fd	-0.048173893
22	0x3e001daf	0.12511323
23	0xbe9a6241	-0.30153087
24	0x3d8cb346	0.06870131
25	0xbd7228ad	-0.059120823
26	0xbe337d0e	-0.17528173
27	0xbe9d919d	-0.30775157
28	0x3dd3aaa9	0.10335285
29	0xbe1a2e14	-0.1505664
30	0xbeacf9e2	-0.33784395
31	0xbe1eb96d	-0.15500422
32	0x3e00178e	0.12508985
33	0xbeb56832	-0.35431057
34	0x3ed7491b	0.42047963
35	0xbcd6ae56	-0.026206177
36	0xbda283c7	-0.07935291
37	0x3c8c1579	0.017100083
38	0x3e8fc527	0.28080103
39	0xbe0d02a0	-0.13770533
40	0xbc6c23b5	-0.01441281
41	0x3d98279f	0.07429432
42	0xbc0dd7b7	-0.008657387
43	0xbdc7675a	-0.097365096
44	0x3ee46795	0.44610277
45	0xbe7fccde	-0.24980494
46	0x3e8798e7	0.26483843
47	0x3e019b0e	0.12656805
48	0x3e99bbd9	0.3002613
49	0xbf0063c4	-0.5015223
50	0xbf14a6f5	-0.58067256
51	0x3d85fb25	0.06542043
52	0xbe173c10	-0.14769006
53	0x3e202d24	0.1564222
54	0x3e725379	0.23664655
55	0x3eb14b3c	0.34627712
56	0xbe6ebf5b	-0.23315184
57	0xbeec0abb	-0.46101937
58	0xbeafcb1c	-0.34334648
59	0x3d994ff4	0.07485953
60	0xbe23eb56	-0.16007742
61	0x3e84c3da	0.25930673
62	0xbeb5b661	-0.35490707
63	0x3eb608fa	0.35553724

policy.2.weight f4 [32, 64]
0	0xbdde201a	-0.10845967
1	0x3e15f48a	0.14644065
2	0x3d0015f1	0.031270925
3	0x3f0637b3	0.5242874
4	0x3d95b9a3	0.07310798
5	0x3daa2ea1	0.08309675
6	0xbed0dbd9	-0.4079273
7	0xbe1d2c71	-0.15348984
8	0x3dae0199	0.084963985
9	0x3ece191b	0.4025353
10	0xbe4ee1a5	-0.20203264
11	0xbd16e66f	-0.036840852
12	0xbd7ba79b	-0.061439138
13	0xbe3c376b	-0.18380515
14	0x3d4228b6	0.047402106
15	0x3f1a4424	0.60260224
16	0xbd9d80a6	-0.07690553
17	0x3ddc2a19	0.10750217
18	0x3d083d88	0.033261806
19	0x3e2f04b4	0.17091638
20	0x3e5c524c	0.21515769
21	0x3e7ad3c3	0.24494843
22	0x3e88a1db	0.26685986
23	0xbdbb6045	-0.09149221
24	0x3e9d590f	0.3073201
25	0xbeb486c8	-0.3525908
26	0x3e6693ff	0.22517394
27	0x3cc8f295	0.024529735
28	0x3e9c8d89	0.30576733
29	0xbe72fbfb	-0.23728935
30	0xbeb3e607	-0.35136434
31	0xbd9292d2	-0.0715691
32	0xbe78095e	-0.24222323
33	0x3b09728b	0.0020972814
34	0xbe0d884c	-0.13821524
35	0x3d973586	0.07383256
36	0xbd8a066f	-0.06739508
37	0xbe0f4320	-0.1399045
38	0xbe20c755	-0.15701039
39	0xbcf8ba72	-0.030362342
40	0x3e438f24	0.19097573
41	0xbe031fae	-0.12805054
42	0xbeaf3c2b	-0.34225592
43	0xbe235db5	-0.15953715
44	0xbb8098f2	-0.0039244825
45	0xbebb4741	-0.365778
46	0x3e43d091	0.1912253
47	0xbcae6a16	-0.02129082
48	0xbd48495f	-0.048898097
49	0x3ded9d9c	0.11602327
50	0xbd89036a	-0.06690104
51	0x3e0b3aac	0.135966
52	0x3dc4d478	0.09610838
53	0x3e9aa8bc	0.3020686
54	0x3c3b33d5	0.011425932
55	0xbd97ab3b	-0.074057065
56	0x3d96f890	0.07371628
57	0x3c693c54	0.014235575
58	0xbe8a5aa2	-0.27022272
59	0x3c2a4796	0.010393044
60	0xbd456382	-0.0481906
61	0x3eb69ae6	0.35665053
62	0xbe041ef8	-0.12902439
63	0xb9f61f79	-0.00046944225
64	0x3dddfc84	0.10839179
65	0x3c9b5908	0.018963352
66	0xbe2e1186	-0.16998872
67	0xbbfe0104	-0.007751586
68	0xbd82217e	-0.063540444
69	0xbe20ad48	-0.15691102
70	0x3d946f7e	0.07247828
71	0xbd092a5a	-0.033487655
72	0xbd60cacb	-0.0548809
73	0xbe32409b	-0.17407458
74	0x3d29de9b	0.04147206
75	0x3e2200c0	0.15820599
76	0xbe28c664	-0.1648193
77	0x3e810fa7	0.25207254
78	0x3d35db12	0.044398375
79	0xbe54ec57	-0.20793281
80	0x3cbc2443	0.02296651
81	0xbdccfd84	-0.10009292
82	0x3d813757	0.06309383
83	0x3e0f12bb	0.13971989
84	0xbbb6b744	-0.005576046
85	0xbcdbff15	-0.026855031
86	0xbda56418	-0.08075732
87	0x3e119188	0.14215672
88	0x3d984149	0.07434327
89	0xbeca5012	-0.39514214
90	0x3d802edf	0.0625894
91	0x3cc9e4f1	0.0246453
92	0x3c83cb92	0.01608828
93	0x3de53541	0.11191798
94	0x3d0ee0ae	0.03488224
95	0x3eab0c8f	0.3340802
96	0xbd9c9222	-0.0764506
97	0xbe157b8b	-0.14597909
98	0xbdaf1772	-0.08549394
99	0xbe3014f2	-0.1719549
100	0xbd17b0cf	-0.037033852
101	0x3e8f8852	0.28033692
102	0x3e58265b	0.21108381
103	0x3d9d4f3c	0.076811284
104	0xbdbfd99b	-0.09367677
105	0x3ea72576	0.32645768
106	0x3f3f1d55	0.7465413
107	0x3e3f687b	0.186922
108	0xbddeb672	-0.108746424
109	0x3cd643d1	0.026155384
110	0xbb201dd7	-0.0024431848
111	0xbb3e29e2	-0.0029016663
112	0xbc12188c	-0.008916985
113	0xbb91e3e3	-0.004452215
114	0xbd40cac0	-0.047068357
115	0x3e84af98	0.25915217
116	0xbe8bd6df	-0.2731237
117	0x3c99876f	0.018741338
118	0x3e3ee4eb	0.18642013
119	0xbe1e4d12	-0.15459087
120	0xbe116ec6	-0.14202413
121	0x3d9a4434	0.0753254
122	0x3e8eebed	0.27914372
123	0xbe81286a	-0.25226146
124	0xbd12d035	-0.035843093
125	0xbe5d8b60	-0.21635199
126	0x3d0b1d01	0.033963207
127	0x3c9a6a29	0.01884945
128	0xbe37b66a	-0.17940679
129	0xbe8f2746	-0.2795965
130	0xbca32f0a	-0.01991989
131	0x3d87931c	0.06619856
132	0x3aa12287	0.0012293615
133	0xbefb343e	-0.49063295
134	0x3e900bf5	0.28134122
135	0xbd2d3de5	-0.042295355
136	0xbd93a82c	-0.072098106
137	0xbe9e4004	-0.30908215
138	0x3ed69363	0.41909322
139	0x3d75aa2d	0.059976745
140	0x3e58250d	0.21107884
141	0x3e15183b	0.14560024
142	0x3e28ea2e	0.16495582
143	0xbebf9eee	-0.3742594
144	0x3e0cf1f5	0.13764174
145	0x3e13002b	0.14355533
146	0x3be9c16e	0.0071336543
147	0x3dbe57b3	0.09294071
148	0x3e86214c	0.26197278
149	0xbe05fdfa	-0.13085166
150	0x3dc7f54c	0.097635835
151	0xbd38197f	-0.04494619
152	0xbd16b387	-0.036792304
153	0xbe6d7ff9	-0.23193349
154	0xbeabcc35	-0.33554235
155	0xbe0075ed	-0.12544985
156	0xbdd55018	-0.10415667
157	0x3d07504e	0.03303557
158	0xbad313e5	-0.0016103951
159	0xbc044c6b	-0.00807486
160	0x3c120c9f	0.008914142
161	0x3cb4da9f	0.022076903
162	0x3e81f18a	0.25379592
163	0xbe219a77	-0.1578158
164	0x3e066a43	0.13126473
165	0xbcc2857b	-0.02374529
166	0x3d38ed88	0.045148402
167	0xbebebc95	-0.37253252
168	0x3e4246cf	0.18972324
169	0xbd3a03bb	-0.045413714
170	0x3e8aa543	0.2707921
171	0x3cab639a	0.020921517
172	0x3e47373c	0.19454664
173	0x3e8b61bb	0.27223
174	0xbb78b8c4	-0.0037951926
175	0x3dc68707	0.09693723
176	0xbcedd321	-0.029031338
177	0xbe1df857	-0.15426765
178	0xbe16f066	-0.14740142
179	0xbda9dc24	-0.082939416
180	0xbe9d432e	-0.30715317
181	0x3e88c2a8	0.2671101
182	0x3cbbebc0	0.022939563
183	0x3e72bdfd	0.23705287
184	0xbd0d2ca6	-0.03446641
185	0x3e074499	0.13209762
186	0xbdbe6092	-0.09295763
187	0x3e007a59	0.12546672
188	0x3d9134cf	0.070901506
189	0xbe85f756	-0.26165265
190	0xbd84bdeb	-0.064815365
191	0xbda181ad	-0.07886062
192	0xbec10ff9	-0.377075
193	0x3df4373f	0.119246
194	0xbd46cd99	-0.048535917
195	0x3dda3637	0.10654872
196	0x3e576710	0.21035409
197	0xbdb7e017	-0.089782886
198	0xbd9dde70	-0.07708442
199	0x3e7d8a69	0.2475983
200	0x3e862fd5	0.26208368
201	0x3ea5829a	0.32326204
202	0x3ebb0175	0.3652455
203	0x3e6cbe27	0.23119412
204	0x3e41abb7	0.1891316
205	0xbe927764	-0.28606713
206	0xbd989ffd	-0.0745239
207	0x3bed1c0e	0.0072360104
208	0x3e8bc008	0.27294946
209	0x3ea5f3f8	0.32412696
210	0x3daa3f76	0.083128855
211	0x3e2665ba	0.16249743
212	0x3df0542b	0.11734804
213	0xbdb24eb3	-0.08706417
214	0xbdaf26ef	-0.08552348
215	0xbe2f7924	-0.17136055
216	0xbe084f87	-0.13311587
217	0xbe98bfa4	-0.2983371
218	0x3d9b4b9c	0.07582781
219	0x3bc86d07	0.0061165127
220	0xbcac8b9b	-0.021062663
221	0xbde40fb9	-0.11135811
222	0xbe6a755b	-0.2289633
223	0xbd178bc2	-0.036998518
224	0x3e2d3a34	0.16916734
225	0xbdeee6d6	-0.11665122
226	0x3ec041bb	0.37550148
227	0xbe13f61c	-0.14449352
228	0xbe4e9333	-0.2017334
229	0xbe09e931	-0.13467862
230	0xbcc5d769	-0.024150567
231	0xbe23440b	-0.15943925
232	0xbdd7110d	-0.10501299
233	0x3e11d98f	0.14243148
234	0xbb308fdb	-0.0026941213
235	0xbebdcad1	-0.370688
236	0x3d0c14f1	0.03419966
237	0xbc9cb962	-0.019131366
238	0x3e2118c4	0.15732104
239	0x3e1ef93f	0.15524767
240	0x3e53ae1c	0.20671886
241	0xbedaad6c	-0.42710435
242	0xbef27351	-0.47353604
243	0xbbba57e5	-0.0056867474
244	0xbe990d67	-0.29893038
245	0x3ec2bd9b	0.38035282
246	0x3e806f79	0.25085047
247	0x3e55c833	0.20877151
248	0xbebc6e07	-0.36802694
249	0xbea3e9f1	-0.3201442
250	0xbeae6dbe	-0.34068102
251	0x3e2a36af	0.16622423
252	0xbe7b894d	-0.24564095
253	0x3e205fc2	0.15661529
254	0xbda83494	-0.082131535
255	0x3e2e27de	0.17007396

policy.2.bias f4 [32]
0	0x3e78b0f7	0.24286257
1	0xbcd8d9af	-0.026470987
2	0x3e27c350	0.163831
3	0x3ec76a2b	0.38948187
4	0xbda61e48	-0.081112444
5	0x3d940d56	0.07229106
6	0xbe9941c8	-0.29933
7	0x3eab005b	0.3339871
8	0x3e446c68	0.19181979
9	0x3cea302c	0.028587423
10	0x3e6175f9	0.22017659
11	0xbc39a7b2	-0.011331486
12	0xbcefb6b1	-0.029261919
13	0x3db17631	0.08665121
14	0x3ce9bae3	0.028531497
15	0x3d05ad65	0.032636065
16	0xbe43ec7e	-0.19133183
17	0xbd857691	-0.06516755
18	0xbd27368e	-0.04082351
19	0x3d670f42	0.056411035
20	0xbd966b71	-0.073447116
21	0x3da78151	0.08178962
22	0x3bc6efee	0.0060710823
23	0x3e2b370a	0.16720214
24	0xb993ec1c	-0.0002821394
25	0xbd8b1198	-0.06790465
26	0x3dbcb004	0.0921326
27	0x3e1289b0	0.14310336
28	0x3e1868fa	0.14883795
29	0x3e191288	0.14948475
30	0xbabb125c	-0.0014272439
31	0x3d89056e	0.06690489

policy.4.weight f4 [1, 32]
0	0x3e95626a	0.29176646
1	0xbe7c7483	-0.2465382
2	0xbeb1c09d	-0.34717265
3	0xbeaf1a9e	-0.34199995
4	0x3dbba3b5	0.09162084
5	0xbf3b0dc3	-0.73067874
6	0xbeadee5b	-0.33970913
7	0x3e6c1a2f	0.23056863
8	0xbea9433f	-0.33059117
9	0x3adaf742	0.0016705769
10	0x3e897bb9	0.26852205
11	0x3ea21bf2	0.31661946
12	0xbd8bf331	-0.068334945
13	0x3e544787	0.2073041
14	0xbe6dcfbd	-0.23223777
15	0xbb6e85e6	-0.0036395728
16	0xbecfddb1	-0.40598825
17	0x3e98c8aa	0.29840595
18	0x3b051796	0.0020308248
19	0xbe3a5b33	-0.18198852
20	0x3c0be417	0.008538268
21	0xbdcdf954	-0.10057321
22	0x3e3f71f8	0.1869582
23	0xbe53b9b8	-0.20676315
24	0x3ee99b0a	0.45626098
25	0xbb688e91	-0.0035485367
26	0x3e8350d3	0.256476
27	0x3ef11711	0.4708791
28	0x3d634f79	0.055495713
29	0xbedc988c	-0.43085134
30	0x3ee86d04	0.45395672
31	0x3e0fc6bb	0.14040653

value.0.weight f4 [64, 4]
0	0x3fa36cbd	1.2767559
1	0x3dac7cde	0.08422254
2	0xbec3d1ed	-0.38246098
3	0xbe74ac08	-0.2389375
4	0x3e7daf87	0.2477399
5	0xbfb6e102	-1.4287417
6	0xbf09c3f4	-0.53814626
7	0xbe7a4366	-0.24439773
8	0x3ee231bb	0.44178566
9	0x3f075833	0.52868956
10	0x3ea68f6e	0.32531303
11	0x3da2bd9e	0.07946323
12	0x3f736482	0.9507524
13	0x3f9b095e	1.2112234
14	0xbe8c49b0	-0.2739997
15	0xbe20313f	-0.15643786
16	0x4009a4c5	2.1506817
17	0x3fc1b32b	1.5132803
18	0x3f018915	0.50599796
19	0x3e1750a7	0.1477686
20	0xbfe2f8a8	-1.7732134
21	0xbef3df4c	-0.476313
22	0xbed2efe1	-0.41198638
23	0xbdba994c	-0.0911127
24	0xc00986df	-2.1488569
25	0xbf674dfc	-0.9035337
26	0xbea4b2f2	-0.32167774
27	0xbd9ed967	-0.0775631
28	0xbe87b956	-0.26508588
29	0x3fc692a7	1.5513505
30	0x3da9b93f	0.08287286
31	0x3e17dbac	0.14829892
32	0xbfcf4131	-1.619177
33	0xbf675e74	-0.903785
34	0x3ca7e7a5	0.020496199
35	0x3d372730	0.044715106
36	0xbfe384ae	-1.7774866
37	0xbfb371b8	-1.4019079
38	0x3e3b0470	0.18263412
39	0x3d606ff9	0.054794285
40	0xbf62a69c	-0.88535476
41	0xbf2170e5	-0.6306289
42	0xbda90027	-0.08251982
43	0xbbc2daef	-0.005946509
44	0xbf5b747c	-0.85724616
45	0xbfbabcb1	-1.4588834
46	0xbe365545	-0.17805965
47	0xbe0fef3f	-0.14056109
48	0x403b85ba	2.930037
49	0x3f0231e0	0.50857353
50	0x3ddde63e	0.10834931
51	0x3d8729bc	0.06599757
52	0x3f778e60	0.9670162
53	0x3ee97175	0.45594373
54	0xbde74f2b	-0.11294397
55	0x3c5e83ef	0.01358126
56	0xbff61229	-1.9224292
57	0xbf0f0b1b	-0.5587632
58	0x3e8ab3d8	0.27090335
59	0x3e387643	0.18013863
60	0xbfe3b8a0	-1.7790718
61	0xbfc2063d	-1.5158154
62	0xbf2149f9	-0.630035
63	0xbeae36a9	-0.34026077
64	0x3f56bf6d	0.8388584
65	0x3f375513	0.7161419
66	0xbdabab64	-0.083822995
67	0x3d5e9cbe	0.0543487
68	0xbf2b37bb	-0.6688191
69	0xbe0b2860	-0.1358962
70	0xbed4391e	-0.41449827
71	0xbdfd0195	-0.123538174
72	0xbf07690b	-0.5289466
73	0xbf4c37f6	-0.7977289
74	0x3e24b767	0.16085587
75	0xbd9a8a34	-0.075458914
76	0x3f2ee015	0.6831067
77	0x3e369b4d	0.1783268
78	0xbebad0d4	-0.36487448
79	0xbe2e09b6	-0.16995892
80	0xbfb53e62	-1.4159663
81	0xbec98160	-0.39356518
82	0xbe13a96f	-0.14420103
83	0xbd57f35a	-0.052722313
84	0xbff2d834	-1.897223
85	0xbe7d20c7	-0.24719535
86	0x3ee4b5c0	0.44669914
87	0x3e727b51	0.23679854
88	0xbfdd23c8	-1.7276545
89	0xbf63e311	-0.8901835
90	0x3ee42555	0.44559732
91	0x3e81bc33	0.25338897
92	0x3fb23a93	1.3924125
93	0x3ffff738	1.999732
94	0x3f0be1d0	0.5464144
95	0x3e702b47	0.23454009
96	0x400cdbee	2.2009234
97	0x3f298cf9	0.6623073
98	0x3ec198b1	0.37811807
99	0x3e0be775	0.13662513
100	0xbf8ffaf9	-1.1248466
101	0xba32cbab	-0.000682051
102	0xbf51ba5e	-0.81925
103	0xbdd85459	-0.10562963
104	0xbf8fbd17	-1.1229581
105	0xbeed0137	-0.4628999
106	0xbe97876c	-0.29595506
107	0xbe09b569	-0.13448109
108	0xbfa374d9	-1.2770034
109	0xbd8fb603	-0.07017138
110	0x3eb0cf30	0.34533072
111	0x3e445af2	0.19175318
112	0x3fe9ceb5	1.8266207
113	0x3e7d5486	0.24739274
114	0x3e975309	0.29555538
115	0x3e344f25	0.17608316
116	0xbf2216f3	-0.6331627
117	0x3f1e1906	0.6175693
118	0xbe580d34	-0.21098787
119	0x3e56918b	0.20953958
120	0xbfeb1b25	-1.8367659
121	0xbfc4dad3	-1.537928
122	0xbea8c2c4	-0.32961094
123	0xbe417b83	-0.18894772
124	0xbf44e827	-0.76916736
125	0x3ef5650b	0.47928652
126	0xbf1692c6	-0.5881771
127	0xbe048085	-0.12939651
128	0x3fdac89d	1.7092472
129	0x3ef3ee32	0.47642666
130	0x3f256120	0.64601326
131	0x3d91b51b	0.07114621
132	0xbf8985ab	-1.0743917
133	0xbf406ae7	-0.7516312
134	0xbdc0da53	-0.09416642
135	0xbcde374e	-0.02712598
136	0x3f79f8a7	0.9764504
137	0x3ee8c3c3	0.45461854
138	0x3ed17a3a	0.40913564
139	0x3e0eb50e	0.13936254
140	0xbf215cfa	-0.63032496
141	0x3f5e6ae1	0.86881834
142	0x3edb7993	0.4286619
143	0x3ea505a0	0.32230854
144	0x3f533102	0.82496655
145	0x3f9c50fc	1.2212214
146	0x3ed57b1d	0.4169549
147	0x3db6dd16	0.089288875
148	0xbf7d9dbb	-0.990688
149	0xbfc1c1b0	-1.5137234
150	0xbd97084f	-0.073746316
151	0xbe800023	-0.25000104
152	0xbf8040d2	-1.0019782
153	0xbfe32cf6	-1.7748096
154	0xbe0e236a	-0.13880697
155	0xbe4e0389	-0.20118536
156	0xbf369686	-0.7132343
157	0xbfc6ea62	-1.5540278
158	0xbed50975	-0.41608778
159	0xbe692369	-0.22767414
160	0xbf81c5a7	-1.0138444
161	0xbfc9a2f9	-1.575286
162	0x3c73e49d	0.014886049
163	0x38c40d28	9.348459e-05
164	0x3fcc6752	1.5969031
165	0x3f907336	1.128516
166	0x3e881394	0.26577437
167	0x3d70c27b	0.05877922
168	0x3f1a83fe	0.60357654
169	0x3ec674ae	0.38760895
170	0x3eab96e5	0.3351356
171	0x3d4ed65d	0.0504974
172	0xbf6b32cd	-0.9187439
173	0xbf6717c0	-0.90270615
174	0xbdf299fd	-0.11845777
175	0xbdec0993	-0.11525264
176	0x3f2fb5ba	0.6863667
177	0x3f1af96e	0.6053685
178	0xbe162dcc	-0.14665908
179	0xbde7c1dd	-0.11316273
180	0xbfb303ca	-1.3985531
181	0xbfdcc9bf	-1.7249068
182	0xbf13cc0a	-0.57733214
183	0xbea19246	-0.3155691
184	0xbfeae0ae	-1.8349817
185	0xbfb48d1d	-1.4105564
186	0x3bc2a889	0.005940501
187	0xbc238f05	-0.009982829
188	0xbf942d9a	-1.1576416
189	0xbd8acecf	-0.06777727
190	0x3e90531a	0.281884
191	0x3e111fcd	0.14172287
192	0xbf7ca0d8	-0.9868293
193	0xbf853000	-1.0405273
194	0x3f0646ea	0.52451956
195	0x3e5adbca	0.21372905
196	0xbffb9b4f	-1.9656771
197	0xbfb4dfa1	-1.4130746
198	0xbe60b3b7	-0.21943556
199	0xbe371bcd	-0.17881699
200	0xbf100df8	-0.56271315
201	0xbfb29858	-1.3952742
202	0xbc9f651d	-0.019457394
203	0xbe0166fc	-0.12636942
204	0xbf9da66a	-1.231641
205	0x3da736c5	0.08164743
206	0x3e96a1cc	0.29420316
207	0x3e141fec	0.14465302
208	0x3fe1f179	1.7651817
209	0x3fccd9fc	1.6004024
210	0x3ec19c6c	0.37814653
211	0x3e684078	0.22680843
212	0xbee8c067	-0.4545929
213	0xbf12cbb3	-0.5734207
214	0xbf4e776c	-0.80650973
215	0xbe9f3177	-0.31092426
216	0xbe0874d1	-0.13325812
217	0x3fabeb23	1.3431133
218	0x3e61f1ca	0.22064891
219	0x3e7f93a8	0.2495867
220	0x3fbf903c	1.4965892
221	0x3f9154b5	1.1353976
222	0x3e9396ed	0.28826085
223	0x3e0ce55b	0.13759367
224	0xbec6261b	-0.38700947
225	0xbf2a497e	-0.6651839
226	0xbef1b8ed	-0.472114
227	0xbe5a6c29	-0.21330322
228	0xbe7b4dff	-0.24541472
229	0xbf97aba9	-1.1849262
230	0xbef88b7b	-0.48543915
231	0xbec05f30	-0.37572622
232	0xbfc42820	-1.5324745
233	0xbf29dfeb	-0.66357297
234	0x3e4bb681	0.19893838
235	0x3e011a9d	0.12607808
236	0xbf52eebd	-0.82395536
237	0xbf8d0656	-1.1017559
238	0x3ec0b1d0	0.3763566
239	0x3e2f29d1	0.17105795
240	0xbf687a92	-0.9081203
241	0xbe66c5f7	-0.22536455
242	0xbba473e5	-0.0050186985
243	0xbd863a54	-0.06554094
244	0xbf0dc08b	-0.5537192
245	0xbfd34a1f	-1.6506995
246	0xbef610ac	-0.48059595
247	0xbe8a808a	-0.27051193
248	0xbf1840e3	-0.5947401
249	0xbdf692c8	-0.12039715
250	0xbec51887	-0.38495275
251	0xbe763ee5	-0.2404743
252	0x3fa2207f	1.2666167
253	0x3f7e758b	0.99398106
254	0x3dccac53	0.09993806
255	0x3d16ed8e	0.036847644

value.0.bias f4 [64]
0	0xbed07b90	-0.4071927
1	0xbf0b5b04	-0.54435754
2	0xbeca1108	-0.3946612
3	0xbf2b998e	-0.6703118
4	0x3f08dfec	0.5346668
5	0xbf0803c0	-0.5313072
6	0xbec2f843	-0.38080034
7	0xbf6109d4	-0.8790562
8	0x3f0d411b	0.5517747
9	0x3e8e8c59	0.27841452
10	0x3f1eb65a	0.61996996
11	0x3f052fc3	0.52026004
12	0xbdebfd95	-0.11522976
13	0xbebb5f21	-0.36596015
14	0x3ee4f985	0.44721618
15	0xbf081ab5	-0.5316575
16	0xbedcf6f3	-0.43157157
17	0x3f38faab	0.7225749
18	0x3f311ff4	0.6918938
19	0xbf05d732	-0.52281487
20	0x3f121c2e	0.5707425
21	0x3ed37f29	0.41307953
22	0x3eb99eeb	0.36254057
23	0x3f14a6ca	0.58067
24	0x3ed1eacd	0.4099945
25	0xbf3f24ea	-0.746657
26	0x3eff85fa	0.49906904
27	0x3f1c475c	0.61046386
28	0xbeea9e0d	-0.45823708
29	0xbf442b85	-0.76628906
30	0xbed34369	-0.41262367
31	0xbf47954c	-0.77962184
32	0x3eff16d7	0.49822113
33	0x3f1c010d	0.60939103
34	0xbf41853c	-0.75593925
35	0x3f71dbe5	0.9447616
36	0xbf21a09a	-0.63135684
37	0xbf4d9e4b	-0.8031966
38	0xbf210843	-0.6290323
39	0x3ec7a90b	0.38996157
40	0x3ec917a9	0.39275864
41	0xbedafff5	-0.42773405
42	0xbf04760b	-0.5174262
43	0x3e0143d6	0.12623534
44	0xbef3f016	-0.4764411
45	0xbee7715d	-0.45203677
46	0xbed28187	-0.41114447
47	0x3f2d3c2c	0.6766994
48	0x3edfee59	0.43736532
49	0xbdbabc37	-0.091179304
50	0xbf1c38f7	-0.6102442
51	0x3f46a6fb	0.7759854
52	0x3ede927e	0.4347114
53	0x3f0ab47c	0.5418165
54	0xbf57cc2e	-0.8429593
55	0xbf2c4333	-0.6729004
56	0x3e11fed1	0.14257361
57	0x3f01d2c4	0.5071223
58	0x3ee4d1bb	0.44691262
59	0x3ef642f9	0.4809797
60	0xbf0461da	-0.5171181
61	0xbf1b2012	-0.6059581
62	0x3ef72f7d	0.48278418
63	0xbf18493f	-0.59486765

value.2.weight f4 [32, 64]
0	0x3f4657a9	0.7747751
1	0x3eab0fce	0.33410496
2	0x3e89db3e	0.2692508
3	0x3ecd9aa4	0.40157044
4	0x3f638888	0.88880205
5	0xbf87745e	-1.0582387
6	0xbf931f87	-1.1493996
7	0x3de1d06f	0.11026084
8	0xbf5fd6a2	-0.8743688
9	0xbfc11af4	-1.508635
10	0xbea56b82	-0.32308584
11	0xbee75655	-0.45183054
12	0x404045de	3.0042644
13	0x3f244ebf	0.64182657
14	0xbf9818c0	-1.1882553
15	0xbf4c0a75	-0.79703456
16	0x3f007d44	0.5019114
17	0xbe8deb23	-0.27718458
18	0xbec0b7b8	-0.37640166
19	0x3ecd1bbc	0.40060222
20	0xbf40b4e7	-0.75276035
21	0xbfba6db0	-1.4564724
22	0xbfcef8ae	-1.6169641
23	0x3f4b82d6	0.79496515
24	0x3f86cf49	1.0532008
25	0xbe98693b	-0.29767784
26	0xbf2367c5	-0.63830215
27	0xbf2898e4	-0.6585829
28	0x3f806f77	1.0034016
29	0xbe0ac539	-0.13551797
30	0xbf8022c8	-1.0010614
31	0x3d1704ee	0.036869936
32	0x3f253670	0.6453619
33	0xbf0b5fca	-0.5444304
34	0x3eaaef88	0.33385873
35	0xbea84645	-0.3286611
36	0x3e588abc	0.21146673
37	0xbdcc7136	-0.09982531
38	0xbe99629f	-0.29958054
39	0xbecf7523	-0.40519056
40	0xbf2e1458	-0.6799979
41	0x3f58a426	0.8462547
42	0x3e8f6a23	0.28010663
43	0xbf0a5b73	-0.5404579
44	0x3f1a09f4	0.6017144
45	0xbf1e71cc	-0.6189239
46	0xbfc51c3b	-1.539924
47	0xbef43f60	-0.477046
48	0xbf6d4a38	-0.92691374
49	0xbf9a4509	-1.2052318
50	0x3a2c66a3	0.00065765734
51	0xbecbcc02	-0.39804083
52	0x3f7c5b01	0.9857636
53	0x3d65814b	0.056031507
54	0x3ce126a5	0.027484247
55	0x3f010b30	0.50407696
56	0x3c2aa452	0.010415154
57	0xbd910e8f	-0.07082855
58	0xbf841523	-1.031895
59	0xbf2cc130	-0.6748228
60	0xbeaeddea	-0.34153682
61	0xbd48e05c	-0.04904209
62	0xbe4e8030	-0.20166087
63	0x3f20d9dd	0.62832433
64	0xbdf1d634	-0.11808434
65	0xbeb28767	-0.3486893
66	0xbc29397b	-0.010328646
67	0xbe0aefa0	-0.13567972
68	0x3f060963	0.52358073
69	0xbf223aa9	-0.6337076
70	0xbe99bd14	-0.30027068
71	0xbeaf08ef	-0.34186503
72	0x3db5fe57	0.08886402
73	0xbd118116	-0.035523497
74	0x3d72f2eb	0.059313696
75	0x3e2ee5bd	0.17079826
76	0xbd181d12	-0.0371371
77	0xbdefe113	-0.117128514
78	0x3d70bc34	0.058773234
79	0xbeff298e	-0.4983639
80	0xbdb49041	-0.08816577
81	0x3de36d93	0.11104884
82	0x3e851e24	0.25999558
83	0xbe6b1d24	-0.22960335
84	0x3e05c421	0.13063098
85	0x3ba01e97	0.004886459
86	0xbd9ebb46	-0.07750563
87	0x3f2fe213	0.68704337
88	0x3ea01f65	0.31273952
89	0xbf83b8f2	-1.0290816
90	0xbccca6ee	-0.024981942
91	0x3dd61f6b	0.10455211
92	0xbe46f86b	-0.19430701
93	0xbf06ab29	-0.5260492
94	0xbf148c3c	-0.5802648
95	0xbf77bc3a	-0.96771586
96	0x3f05e7e4	0.5230696
97	0x3d122a8e	0.035685115
98	0xbe1a422b	-0.15064304
99	0x3e9c83a4	0.30569184
100	0xbe429f0e	-0.19005987
101	0xbf9a0d75	-1.2035357
102	0xbf7e46c2	-0.9932672
103	0x3ce500ca	0.027954478
104	0x3ce58cab	0.028021177
105	0xbe5fff36	-0.21874699
106	0xbc511c00	-0.012763023
107	0xbe021fe9	-0.12707485
108	0xbe2b75ae	-0.1674411
109	0xbf0d7988	-0.55263567
110	0xbf30fd18	-0.6913619
111	0x3e91c3c6	0.28469676
112	0xbdc6b74e	-0.09702931
113	0xbe39a907	-0.18130885
114	0xbf4f9854	-0.8109181
115	0x3eb2338b	0.3480495
116	0x3edffbe9	0.4374688
117	0x3d6f28aa	0.05838839
118	0xbec9e323	-0.39431104
119	0xbd30beb5	-0.043150622
120	0xbd9d364b	-0.07676371
121	0x3e21cfad	0.15801878
122	0x3af8a9eb	0.0018971538
123	0x3e0ebdb3	0.13939552
124	0xbfb70c17	-1.4300565
125	0xbfb26d0b	-1.3939527
126	0x3dcb8858	0.09938115
127	0xbdeb3d5c	-0.11486313
128	0xbd3457e6	-0.04402914
129	0xbe9566fe	-0.2918014
130	0xbf3f2fa8	-0.7468209
131	0xbebb38d1	-0.36566785
132	0x3ea9c04c	0.33154523
133	0xbe1b38e5	-0.15158422
134	0xbe363357	-0.17793022
135	0xbe347127	-0.17621289
136	0x3eb15460	0.34634686
137	0x3d07605f	0.03305089
138	0x3f2202a5	0.63285285
139	0x3ec4a64c	0.38408124
140	0xbe3068e2	-0.1722751
141	0xbe9e9fad	-0.30981198
142	0x3e3e650b	0.18593232
143	0xbd8b34bf	-0.0679717
144	0xbea845ff	-0.32865903
145	0x3f818088	1.011735
146	0x3ea0b501	0.31388095
147	0x3dbf7043	0.09347584
148	0x3ec8359d	0.39103404
149	0x3ee9bfac	0.45654047
150	0x3e9fe19a	0.31226808
151	0x3e88d312	0.26723534
152	0x3dae4a3f	0.08510255
153	0xbe12102f	-0.14263986
154	0x3eaeaf5b	0.3411816
155	0x3ebe3ac2	0.37154204
156	0xbf0e8f50	-0.5568743
157	0xbe4b8f40	-0.19878864
158	0xbdcbea44	-0.09956792
159	0xbe8ccda6	-0.27500647
160	0x3e84675d	0.2586011
161	0x3ee6fa11	0.4511266
162	0xbf435b11	-0.7631083
163	0x3ec0842a	0.37600833
164	0xbf0784b4	-0.52936864
165	0xbea5d89f	-0.3239183
166	0xbead0d6d	-0.33799306
167	0x3eac83a1	0.33694175
168	0x3dd9234a	0.10602434
169	0xbeaaeb1e	-0.33382505
170	0xbf57eb17	-0.84343094
171	0x3e8715ca	0.2638381
172	0xbefd206a	-0.49438792
173	0xbe9405f9	-0.28910807
174	0xbe3523b0	-0.17689395
175	0x3f0af500	0.5428009
176	0x3de60a9e	0.11232494
177	0x3dcbc40c	0.09949502
178	0xbe896996	-0.26838368
179	0x3ee070e3	0.43836126
180	0x3e8889cf	0.2666764
181	0x3fc7fe5e	1.5624502
182	0xbe566964	-0.20938641
183	0xbe9ca0c5	-0.30591407
184	0x3e8dcf93	0.2769743
185	0x3f2e08e1	0.679823
186	0x3ea9018b	0.3300899
187	0x3e12f502	0.14351276
188	0xbe5fd73d	-0.2185945
189	0xbe4d50ac	-0.20050305
190	0x3ed5dd53	0.4177042
191	0xbe9fe981	-0.31232837
192	0xbe171abd	-0.14756294
193	0xbdbd7e1f	-0.09252571
194	0xbf49964e	-0.7874497
195	0xbead1ac6	-0.3380949
196	0x3d964d3a	0.073389485
197	0xbed7a071	-0.42114595
198	0xbe09ecd3	-0.13469248
199	0xbec7c84c	-0.39020002
200	0x3ef5f398	0.4803741
201	0x3e42b673	0.19014911
202	0x3f1f40db	0.62208337
203	0x3f20279c	0.6256044
204	0xbe2f5967	-0.17123948
205	0xbdf12b77	-0.117758684
206	0x3ea6b79b	0.32561955
207	0xbe15ded9	-0.14635791
208	0xbdd3cd7e	-0.10341929
209	0x3f3260be	0.69678867
210	0x3e12537f	0.14289664
211	0x3d8364f0	0.06415737
212	0x3e98906d	0.29797688
213	0x3cf92b35	0.03041611
214	0x3eba32bd	0.36366835
215	0x3e2a5392	0.16633442
216	0x3e313f3c	0.17309278
217	0xbe533390	-0.20625138
218	0x3f16acf3	0.5885765
219	0x3d7b1e9b	0.061308485
220	0xbea20614	-0.31645262
221	0xbee9c2cb	-0.45656428
222	0xbe2684e7	-0.16261636
223	0xbea12073	-0.3147007
224	0x3e86b9d7	0.2631366
225	0x3f1f67c0	0.62267685
226	0xbf5c8c0c	-0.86151195
227	0x3e1562dd	0.14588495
228	0xbf599bce	-0.85003364
229	0xbe6a9759	-0.22909297
230	0xbe02e9f0	-0.12784553
231	0x3f3e4014	0.74316525
232	0x3f1f376e	0.62193954
233	0xbf2ebca4	-0.6825659
234	0xbf36aff8	-0.71362257
235	0xbd876c98	-0.066125095
236	0xbeb6b0da	-0.35681802
237	0xbe746e05	-0.23870094
238	0xbe939c54	-0.28830206
239	0x3dd4e3d0	0.10395014
240	0x3e378848	0.17923081
241	0x3e222925	0.15836008
242	0xbe7ea8f9	-0.24869145
243	0xbca7ebcf	-0.020498184
244	0x3d48d3aa	0.049029984
245	0x3f944429	1.1583301
246	0xbecc0490	-0.3984723
247	0xbf1998b3	-0.59998626
248	0x3e1cce0f	0.1531298
249	0x3efb4c69	0.49081734
250	0x3e7a4e0f	0.2444384
251	0x3e22d69c	0.1590218
252	0xbe79b296	-0.24384531
253	0xbe32567f	-0.17415808
254	0x3edd83ff	0.43264768
255	0xbee4b4c8	-0.44669175

value.2.bias f4 [32]
0	0x3d1e1e24	0.038602963
1	0x3ef07260	0.4696226
2	0x3e88d9a1	0.26728538
3	0x3e9867fb	0.2976683
4	0xbe78451a	-0.2424511
5	0x3ead8cfd	0.33896628
6	0x3ef6320a	0.48085052
7	0xbe7bc2c4	-0.24586016
8	0x3ee295c6	0.44254893
9	0x3e57bf57	0.21069084
10	0x3e75ebe0	0.2401576
11	0x3ed5a44d	0.41726914
12	0x3bb58a09	0.0055401367
13	0xbe110b86	-0.14164552
14	0xbeb47373	-0.3524433
15	0xbe9aaff7	-0.30212376
16	0x3e6f6995	0.2338012
17	0xbe98e7f7	-0.29864475
18	0x3e53fd49	0.2070209
19	0xbed544eb	-0.41654143
20	0x3e838466	0.2568695
21	0x3e8f146a	0.27945262
22	0xbefd414c	-0.4946388
23	0x3eb4dae8	0.35323262
24	0x3e5af8d1	0.21383978
25	0x3ebee393	0.37283
26	0xbe39a77d	-0.18130298
27	0xbe0dfc77	-0.13865839
28	0x3f0136b6	0.5047411
29	0xbdb3cc2f	-0.08779179
30	0x3ebf2526	0.3733303
31	0x3ec30986	0.38093203

value.4.weight f4 [1, 32]
0	0x4026dd35	2.6072514
1	0x404786d2	3.1176038
2	0x40430d12	3.0476727
3	0x403fc8b6	2.9966254
4	0xc04c7273	-3.1944854
5	0x404535ac	3.0814009
6	0x4042882c	3.0395613
7	0xc03fd352	-2.997273
8	0x40445808	3.067873
9	0x404776ee	3.116634
10	0x403ce1e5	2.9512875
11	0x403205e5	2.7816098
12	0x40513d11	3.2693522
13	0xc04e23b4	-3.2209291
14	0xc02d920e	-2.7120395
15	0xc054df35	-3.3261235
16	0x404255c3	3.0364845
17	0xc0347424	-2.8195887
18	0x40387cb1	2.8826106
19	0xc043bac4	-3.0582743
20	0x4050d146	3.262773
21	0x404208d2	3.0317883
22	0xc0440447	-3.062761
23	0x4036969f	2.8529432
24	0x4038e553	2.8889968
25	0x40487b27	3.1325166
26	0xc03f1599	-2.9856932
27	0xc0446996	-3.0689445
28	0x40444e7e	3.0672908
29	0xc0289e58	-2.6346645
30	0x40528bc7	3.2897813
31	0x4044fb17	3.0778253
