models/MountainCarContinuous-v0.pth (torch, 22973 bytes, 10 tensors)

policy.0.weight f4 [64, 2]
00000000: 3dc8 a93e 797a 0a3f 99fe 79be 2485 8b3e
00000010: 3470 273e 8266 a1be e3ec 4f3f d082 c9bd
00000020: c196 8c3e 00c0 afbe b467 8c3f e588 35bd
00000030: 6116 0cbf 83d8 1b3e e5e7 11bf b80d 70bf
00000040: e038 21bf 554a 17bf 68ff 8bbf 4e99 76bf
00000050: 9bd0 b3bd c428 e13e c74e c33e f45f 0a3f
00000060: b69d 403e 9bef 9f3e fef5 253f cfc5 5c3f
00000070: 3ba7 4c3f e13d 023e c8c8 a7be 282d 09bd
00000080: d99e b03f 4e96 6b3e ac4f 993f 4b46 953e
00000090: 2a4e 863f 7f34 023f deef 24be f921 95bd
000000a0: d0b0 113f feed 1abe eaf6 d4be 5434 0ebf
000000b0: d227 fcbd e93c 493f 579a 223f d73f 3ebe
000000c0: 8561 8cbf 1469 4fbf a12c 32bf 4646 59bf
000000d0: 7596 083f 6d83 0f3f da6f f8be 858e e3be
000000e0: 9f20 b8be efbd 28bf 85e4 97be 3dbb 883d
000000f0: 6b61 b6bd 8c84 c0be e6aa c73d cfbb 433e
00000100: b081 52bf aa25 32bf 8815 723f a371 063e
00000110: 46c8 0bbf ff65 09be 4264 ea3e 4a64 9bbe
00000120: cb46 933f 17dd 533d 34f4 0abf c86b 483e
00000130: a0e9 3fbd c97b afbd f34f 2bbf d961 74be
00000140: ef58 72bf c6eb 79bf cd59 09bf 9117 f9be
00000150: 9a76 963e 275d 75bd d1ab 1dbf 8212 2fbf
00000160: 5d40 88bf b2dc 44bf 2cfd 493f c7d1 063f
00000170: d2a4 8cbe b1a0 6d3e 3ea8 3fbf 290b 08bf
00000180: e57a 1dbf eb5a 45bf cfa2 56be 92ec f9be
00000190: d4fe 76bf f7e3 90bf 4387 10bd 4b3f aabe
000001a0: 8dab 803f 812c b43e 188e 3dbf 06f5 89bf
000001b0: 7218 a6be f0a0 3fbf 2eb0 813f c5cc 813f
000001c0: 76fb 13be 2ea1 ad3e 35c0 ed3d f696 d4be
000001d0: 6500 1f3f eb48 1b3f f031 2fbf 67eb 03bf
000001e0: 56a8 9abf 4fce 88bf ea96 7e3d a650 11bf
000001f0: 26d9 1e3f 9256 b73e 0502 67bf 3dbe a2be
0.33160582 0.5409313 -0.24413528 0.27250016 0.16351396 -0.3152352 0.81220835 -0.09839404
0.27458766 -0.34326172 1.0969148 -0.044320006 -0.5472165 0.15219311 -0.5699447 -0.93770933
-0.6297741 -0.59097797 -1.0937319 -0.96327674 -0.08780023 0.43976414 0.3814604 0.5405266
0.18810162 0.31237492 0.6482848 0.8623933 0.79942673 0.12718917 -0.3277037 -0.03349033
1.3798476 0.23006555 1.1977439 0.29155192 1.0492604 0.5086135 -0.16107127 -0.072818704
0.5691042 -0.1512985 -0.4159463 -0.55548596 -0.123122826 0.78608567 0.63516754 -0.1857904
-1.0967261 -0.8101971 -0.6959935 -0.84872854 0.5335458 0.56059915 -0.48522836 -0.4444467
-0.35962388 -0.65914816 -0.29666534 0.06676338 -0.089053 -0.37601125 0.09749393 0.19114612
-0.8222914 -0.6958872 0.94564104 0.13129286 -0.5460247 -0.13417815 0.45779616 -0.30349952
1.1505979 0.05172452 -0.54278874 0.19572365 -0.04685366 -0.08568532 -0.6691887 -0.23865451
-0.9466695 -0.97625387 -0.5365265 -0.48650792 0.2938736 -0.05990329 -0.61590296 -0.68387616
-1.0644642 -0.76899254 0.78901935 0.52663845 -0.27469498 0.2320583 -0.7486609 -0.5314203
-0.6151565 -0.77091855 -0.20960544 -0.488133 -0.96482587 -1.1319569 -0.035285246 -0.33251414
1.0052353 0.35190204 -0.7404494 -1.07779 -0.32440525 -0.74854946 1.0131891 1.0140616
-0.14451393 0.33912033 0.11608926 -0.41521424 0.62109977 0.6065814 -0.68435574 -0.5153107
-1.2082622 -1.068796 0.06215564 -0.56763685 0.6205009 0.35808235 -0.90237457 -0.31785765

policy.0.bias f4 [64]
00000000: f847 d2bd 8aad e7be 369b 073f cff3 bdbe
00000010: e5e2 323f 299a 3ebd 2949 263f f220 c73e
00000020: d7a7 923e 8a85 01bc 9916 0cbf 478c 4bbf
00000030: 0b72 c33e 40f8 b5bd 7368 5dbe 6cf2 23bf
00000040: 8116 823e 913c ed3d d1f2 ec3d 3f30 eebe
00000050: c228 fcbe b76b 873e 6094 44bf 93f6 84be
00000060: 8590 43bd ec0b 103f e0d6 223f 4cd5 523e
00000070: e35a 0e3e 4880 c43e e1db c83e 7f9c b33e
00000080: a5f3 7ebd d6eb 04bf 6da8 3b3f 10cd 1fbf
00000090: fc2e b93d 6a33 fc3e f1b6 443f 7bfd 823e
000000a0: 88af 1a3e 41bc 893e fd99 00bf d1c9 323d
000000b0: 0798 e9bd eb8a ccbd e6a4 ab3e 2ee4 a63e
000000c0: c0c8 673e a1f8 0d3f e3c4 5abc fc7d 3d3f
000000d0: 378e ddbe e5e0 1a3d 0888 d4be 6d5f a0be
000000e0: d424 12bf b576 31bf 9700 4ebc 0798 913e
000000f0: 5197 b1be 2199 173f 4f55 e9be bd86 173f
-0.10267633 -0.45249587 0.5297121 -0.37100074 0.69877464 -0.046533737 0.64955384 0.38892323
0.28643677 -0.007905373 -0.5472198 -0.7951092 0.38172945 -0.088852406 -0.21621875 -0.6404178
0.25407794 0.11583818 0.11569751 -0.46521184 -0.49249846 0.26449367 -0.767889 -0.2596937
-0.047745246 0.5626819 0.63609123 0.20589179 0.13901858 0.3837912 0.39230254 0.35080335
-0.062244076 -0.5192236 0.7330387 -0.62422276 0.09042165 0.49257976 0.76841646 0.25584015
0.15106022 0.2690144 -0.5023497 0.0436495 -0.1140595 -0.09987434 0.33524245 0.32595962
0.22635174 0.554575 -0.0133526055 0.7402036 -0.43272564 0.037812132 -0.41510034 -0.31322804
-0.57087445 -0.6932176 -0.012573383 0.284363 -0.34685758 0.5921803 -0.45572898 0.5918997

policy.2.weight f4 [32, 64]
00000000: f789 ba3e 0505 06be 486e 7fbd a5bb 4a3e
00000010: ebaf 78bd d305 ac3e 9ffb 24bd 5ca3 1bbe
00000020: c87b 88be d735 cdbe 4d60 1f3c 6f38 41bc
00000030: 0b5a 283b f17c cc3e 9976 303e 0a32 51bd
00000040: 432c 263f fd02 203f d7cd f53e fb06 cc3d
00000050: abd3 3b3e a250 73be 81c3 f63c a8a1 983e
00000060: 7048 0abf 9243 35be 4932 db3a 6683 cbbd
00000070: cb44 0abe 4504 b93c ec24 cabd 5738 6abd
00000080: ab01 05bf 0cf6 8f3e 434d 16be 6830 8c3d
00000090: 360b d63e 967e 1fbe fdb8 793d d0b2 21be
000000a0: 5628 5ebe 3fa3 31be 4323 8fbc 8312 d5be
000000b0: c02f 10bf cf67 fa3e 5833 24be f4e3 dfbd
000000c0: 0de9 0abe 44bb 9abd 1535 18bf 088f 0bbb
000000d0: 3b85 2f3e bbc3 03bf aa43 22be 6049 b43e
000000e0: 31c6 bd3c 85e0 7b3d 45e8 0f3f 6baa 5dbe
000000f0: 3c9f 25bf 369e 9b3d 8b6d 1c3e b263 7abe
00000100: 4799 02bd 74a8 e6bd 6003 fe3d 98e4 38be
00000110: 8ebf 893d 834d eabc 3f98 6a3d 9829 323d
00000120: 8263 1a3e ac8d 9f3d f125 72be 5d3d 75be
00000130: 3200 ec3d eeb6 94bd 7833 6dbe 4040 9cbd
00000140: c114 81be 1188 103a 7889 19be 41d8 1abe
00000150: af5c 24be 08f6 123e e459 65bd cf24 50bc
00000160: 7b61 363e 2df4 733d 8a05 9b3d 68b6 463d
00000170: 70fd 8e3d da68 7a3d a41e 0d3d 374f 033e
00000180: 6653 e73d dac7 41be fe61 5c3e 2bb7 bcbc
00000190: d751 8fbd ce33 8c3d 9241 1c3e 89a4 6c3e
000001a0: ecda e43d 2cb2 363e 6221 5ebe 5a86 cd3d
000001b0: fef7 59bc cab8 b3bd 7b7b 623e 7a2a 693d
000001c0: 72e8 073e 7764 723d 242b d93c eb0e 9f3b
000001d0: c8aa 05be cf94 753d 47f3 69be 0f15 b8bd
000001e0: c54b 57bd ed03 0ebd 2bf5 debd cff3 873c
000001f0: cdcb 273d 2c6e 7e3e db1e e8bd 07c5 4f3e
00000200: 9c8c 31be a3f0 0f3e 2cee fb3d d16d 4fbd
00000210: ee10 2c3d 3de0 bdbe 6085 133e a003 973d
00000220: fa04 643e 8b2c ed3e 9d4b d5bd 8f0b 0bbe
00000230: 7023 c7bd 292a 6fbe 964d a6be 3598 33bd
00000240: d2d7 4fbf e8ef a9be 68af f2be 86f1 483b
00000250: 89e6 b1bd 2bd6 813d 6cd2 7cbd 6d68 6cbd
00000260: 34e1 f83e 9610 1b3e ed11 fbbc bff9 a33d
00000270: 137d 383e 6613 8c3d 361a 103e f8a8 d5bd
00000280: 0d60 193f 08f6 67be a5e4 1f3c 236b 1fbe
00000290: 707b abbe 0521 2b3d 4ace f43d daab de3d
000002a0: 701f 8a3e f7b3 583e 1d1a 37be ec63 e73e
000002b0: 28c2 f63e f91b c7be a3ba de3c 27a0 753e
000002c0: 6f3d 553e febb 9e3d 16f4 d33e c9c7 89bd
000002d0: da79 c2bd e0eb 843e 0180 c93d a6bf 8abe
000002e0: beb4 8c3d d362 a5bd a69f c6be e689 9d3d
000002f0: f2d7 f73e ac3f a33c 6127 29be 93b7 f03d
00000300: d5b5 07be 6ae5 0bbe 461f 5a3d 8b1c 30bd
00000310: 39fa 273e 1439 2dbc c741 8e3a 8d1f c93c
00000320: ec2b d73d 797c f13d 1f91 2dbe da55 5cbc
00000330: ce30 b23d 4f0d 95bd 9b63 01be f1f8 65be
00000340: 0d89 b3be 381d 5ebe 9702 48be 596d 77be
00000350: 3df3 95bb 16d7 2d3e f0d4 02be e080 87bd
00000360: 1b65 de3b aaeb ee3d 609e 1d3e d74d 3e3e
00000370: 7696 9f3d b907 803c 05cc e53d 0abf 563e
00000380: 1bed 463e e2b5 24be ca51 343e 566a 2bbe
00000390: 6ec4 febc 38c5 f43d 01ca 73ba 4762 bbbb
000003a0: 5139 bf3d 93ef bb3d 5798 c6bd 3885 013e
000003b0: b5ff 8f3d 7964 4ebe 3e1c 223e 205d 2a3e
000003c0: d3a9 5c3e 67e1 e13c 8104 663e c253 b03d
000003d0: 33d4 71bd bf6d 4c3d 15af 6abc a843 2fbe
000003e0: 72a7 49bc 4c2c 7abd 59e2 78be d1d4 5b3e
000003f0: 0ef3 693e 1454 5d3e 702f ebbd 33b6 763d
0.36433384 -0.13087852 -0.06236103 0.19798143 -0.060714643 0.33598194 -0.040279027 -0.15199035
-0.26656938 -0.4008014 0.00972755 -0.01179324 0.0025688435 0.39939073 0.17232741 -0.05107311
0.6491129 0.6250456 0.48008606 0.09962269 0.18342464 -0.23761228 0.03012252 0.29810834
-0.5401678 -0.17701557 0.001672336 -0.09937172 -0.13502805 0.022585044 -0.098703235 -0.057182636
-0.5195567 0.28117406 -0.1467791 0.0684517 0.41805428 -0.15575632 0.060967434 -0.15790868
-0.21695074 -0.1734743 -0.017472869 -0.41615686 -0.5632286 0.48907325 -0.16035211 -0.109321505
-0.13565464 -0.07555249 -0.59455997 -0.002129497 0.17140667 -0.51470536 -0.15846124 0.3521223
0.023165794 0.061493415 0.5621379 -0.2164704 -0.646961 0.07598536 0.15276162 -0.24452093
-0.031884458 -0.11262599 0.124029875 -0.18055952 0.06725989 -0.028601414 0.0572741 0.0434967
0.15077022 0.07790694 -0.23647286 -0.2394919 0.11523475 -0.072614536 -0.23164165 -0.07629442
-0.25211146 0.00055134395 -0.14993846 -0.15121557 -0.16050981 0.14351666 -0.05599393 -0.012704088
0.17810623 0.059559036 0.07569416 0.0485138 0.06981933 0.06113515 0.03445305 0.12823187
0.11295204 -0.18923894 0.21521756 -0.02303656 -0.069980316 0.068458185 0.15259388 0.2310964
0.111745685 0.17841405 -0.21692422 0.10035391 -0.013303755 -0.0877548 0.22117417 0.056925274
0.13272265 0.059177842 0.026509829 0.0048540733 -0.13053429 0.059956368 -0.22846709 -0.089883916
-0.052562494 -0.034671713 -0.10886606 0.01659575 0.040965844 0.24846715 -0.1133401 0.20290004
-0.17338794 0.1405664 0.12301287 -0.05064184 0.042008333 -0.37085143 0.14406347 0.07373738
0.22267523 0.46323046 -0.10414813 -0.13578628 -0.09723556 -0.23355927 -0.32481068 -0.043846328
-0.8118869 -0.33190846 -0.4739945 0.0030661537 -0.08686549 0.063396774 -0.06172411 -0.057716776
0.48609316 0.15143046 -0.030648196 0.0800662 0.18016462 0.068396375 0.14072499 -0.10432619
0.59912187 -0.22652447 0.009759103 -0.15568213 -0.33492613 0.041779537 0.11953409 0.10872622
0.2697711 0.21162401 -0.17881055 0.45193422 0.48195004 -0.3888853 0.027188605 0.23986875
0.20824216 0.077507004 0.4139716 -0.06727559 -0.094958976 0.25961208 0.09838868 -0.2709934
0.06870411 -0.0807549 -0.38793677 0.07692318 0.4840694 0.019927822 -0.16518928 0.11753764
-0.13252957 -0.13661733 0.05325248 -0.04299597 0.16404046 -0.0105726905 0.0010853343 0.024551177
0.10506424 0.117913194 -0.1694989 -0.013448203 0.08700715 -0.07277929 -0.12635653 -0.22458245
-0.350655 -0.21690834 -0.19532238 -0.24162807 -0.0045761154 0.1697658 -0.12776542 -0.06616378
0.006786955 0.11666043 0.15392447 0.18584381 0.0779237 0.015628682 0.11220554 0.20971313
0.19426386 -0.16085008 0.17609325 -0.16739783 -0.031099524 0.11951679 -0.0009299815 -0.0057185027
0.09337104 0.091765545 -0.09697025 0.12648475 0.07031194 -0.20155515 0.15831086 0.16637087
0.21549158 0.0275733 0.22462656 0.086097255 -0.05904026 0.04990935 -0.014323969 -0.17115653
-0.0123079885 -0.0610774 -0.24305095 0.21467902 0.22846624 0.21614105 -0.11483657 0.060232352

policy.2.bias f4 [32]
00000000: 32bd 07bd 25a9 203e 3f98 6ebd 2b56 5c3e
00000010: f95b 1c3e 2aeb a83d 887e 5a3e 69b9 13be
00000020: bfbe 5dbe 0d68 9dbc 9142 d7bc 21b0 68bd
00000030: be8a 533e eaa6 603d 0d0e ec3d 98a6 62be
00000040: cb49 cc3d 0865 0ebd 74a9 223e 19e0 9f3d
00000050: 35a6 803d 42ae e53d b23a ccbc d199 b53d
00000060: 9078 6bbd 3d78 c9bb 6211 c6bc 6760 5c3d
00000070: 82e2 0a3e 4955 7bbe 3f9d a0bd de90 383d
-0.033139415 0.15689524 -0.058250662 0.21517245 0.1526946 0.08247979 0.2133733 -0.14426197
-0.21654795 -0.019214654 -0.026276859 -0.056808595 0.20658395 0.05484668 0.115261175 -0.22133863
0.099750124 -0.03476432 0.15884954 0.07806415 0.062817015 0.11214878 -0.024930332 0.08867229
-0.057488024 -0.0061483667 -0.02417821 0.053802874 0.13562968 -0.24544252 -0.07842492 0.04506003

policy.4.weight f4 [1, 32]
00000000: 092a d03e 344f 09bf 0e68 dcbe 716e 10bf
00000010: d161 eabe 8c69 01bf fae1 07bf 5978 0d3f
00000020: 4fb9 0d3f 3732 0b3f 94f7 e6be 1578 d93e
00000030: 3364 eebe 09cd ee3e 0729 f0be 055f f33e
00000040: b5c0 f4be 83f4 d7be f123 00bf 9c92 10bf
00000050: 47f1 eebe 93fe c4be 79ec e93e 794c 04bf
00000060: 1035 063f bfa9 d93e 5079 0cbf 2447 f7be
00000070: e860 fabe c344 c23e cea6 013f dd15 d43e
0.4065707 -0.5363648 -0.43048137 -0.5641852 -0.45777753 -0.50551677 -0.5307919 0.5526176
0.55360883 0.54373497 -0.45110762 0.42474428 -0.4656082 0.46640804 -0.469063 0.47533432
-0.47803274 -0.42178735 -0.5005484 -0.5647371 -0.46668455 -0.38475475 0.45688227 -0.5167919
0.52424717 0.42512318 -0.5487261 -0.48296463 -0.4890206 0.37943086 0.5064515 0.4142293

value.0.weight f4 [64, 2]
00000000: 7a8f 87be 3aff 2fbf 108b 163e 693e e13e
00000010: 0de8 1b3e df49 cbbe 5cec 9a3c 27dd d43e
00000020: 58e2 4a3f 0c15 3a3f db3d 31bf 8176 1fbf
00000030: ff0b 373f 93b3 973e efe6 0b3e f040 febe
00000040: 0fe3 6a3e eab6 c73e f45e 1fbf 428d 04be
00000050: ca07 2bbf 37ae 013d 747a 57be cece 373f
00000060: d919 3dbc cb04 743f cbf2 113f 5ecd aebe
00000070: 67f2 2fbf 1f3e 49be 1d0e 493f 1184 083f
00000080: 11cc 40bd 70f8 0d3f 5cab c5be 8efd 8f3c
00000090: ef0e 213f 6798 473f c3fe 36bf af02 b3be
000000a0: a54d f33e 1a66 713e d256 cbbd a404 ed3c
000000b0: 1534 cb3e e279 b0be 98f0 9fbe cbce 59bc
000000c0: fe81 25bf 4a7f b2be 72f9 e5bd ac53 ae3e
000000d0: e758 0d3f 3795 80be 5ce6 e9be ddca 7cbf
000000e0: 0e53 4bbe 365b c9be 6eb7 923d caa6 8fbe
000000f0: 67f5 e2bd 937c 8abe 3a6d e7be 0030 3a3e
00000100: dc76 f83e e9d8 6d3e c030 3b3f c341 d33e
00000110: f707 5b3d 7bf8 0f3f d22a 2ebf 1b82 6abe
00000120: 5e20 5abf 7280 cd3e e66b 5b3e 9819 f1be
00000130: bfd7 a9be 2899 8abd 8948 4a3f 26a3 023f
00000140: 5601 93be c22c 21bd 4b6b 93be f0b0 23bf
00000150: 98ea b0be eb3b 02be babb 34be 1213 a7be
00000160: 385d 44be db79 0cbf ce09 323f a621 8bbd
00000170: 36be 47be 3c2b efbe 06ec d2be 9bfd c93e
00000180: c262 60be 2626 013d c57b 1c3f 94e1 00be
00000190: ff94 f63c f135 dc3e 7838 b9be bcc5 78be
000001a0: c288 cb3d 87fb 553e 7b22 613f 24bb 39be
000001b0: fd28 e6be 22b3 a93e 3dde 66bf a751 d83d
000001c0: 3f02 023f 8be8 183e f97d f1be e087 d63e
000001d0: 9f96 c03d 35f5 19bf feba 77bf f12a 2b3e
000001e0: 44cd 1f3f 18f7 4c3f 71ad 093f c3a4 cf3d
000001f0: 3c30 cdbe f875 6d3e d17a 45be 9ce2 6ebe
-0.2647665 -0.6874882 0.14701486 0.43992928 0.15225239 -0.39704797 0.018911533 0.41574976
0.79251623 0.72688365 -0.6923501 -0.622902 0.7150268 0.29629192 0.13662313 -0.49658918
0.22938178 0.3900674 -0.6225426 -0.1294451 -0.6680876 0.031660285 -0.21042806 0.71799934
-0.011541807 0.95319813 0.570111 -0.34141058 -0.6872925 -0.19652604 0.7853716 0.5332652
-0.047069613 0.5545721 -0.386073 0.017576959 0.6291341 0.7796692 -0.71482486 -0.34962985
0.47520176 0.23574105 -0.09928669 0.028932877 0.39688173 -0.3446799 -0.31238246 -0.013293932
-0.6465148 -0.3486274 -0.112292185 0.34048212 0.5521378 -0.25113842 -0.45683563 -0.98747045
-0.19855902 -0.393274 0.07163893 -0.28056937 -0.11081963 -0.27048168 -0.4520052 0.18182373
0.48528183 0.23227276 0.7312126 0.4126111 0.053474393 0.56238526 -0.6803409 -0.22901194
-0.8520564 0.40137058 0.21427879 -0.4708984 -0.33172414 -0.067674935 0.7901693 0.51030195
-0.28711957 -0.039349325 -0.28792796 -0.6394186 -0.3455398 -0.1271817 -0.17649737 -0.32631737
-0.19176185 -0.54873437 0.6954621 -0.06793527 -0.19506153 -0.46712673 -0.41195697 0.39451298
-0.21912673 0.03153052 0.6112636 -0.12586051 0.030100344 0.43009904 -0.36175895 -0.2429418
0.09938194 0.20896731 0.8794324 -0.18137795 -0.44953147 0.3314448 -0.9018286 0.10562449
0.5078468 0.14932458 -0.47166422 0.4190054 0.09403729 -0.6013978 -0.967697 0.167156
0.62422585 0.80064535 0.53780276 0.10138848 -0.40075862 0.23189533 -0.19285132 -0.23328632

value.0.bias f4 [64]
00000000: 2799 c73e 8722 13bf 5a00 8fbe 7ac2 bd3e
00000010: f8d5 46bf ee30 113f ff19 10bf a733 3f3f
00000020: 9530 293f 7187 e93e c2ac 073f ae00 50bf
00000030: 06c3 dcbe eb14 30bf 10ce 0f3f 22c9 47bf
00000040: ede7 2ebf 9f63 60bf 2045 5abf d8f4 223f
00000050: 2dfa 643f 9b9a 2bbf 9a6e 40bf 2e72 37bf
00000060: 53ec 353f 3d9d 69bf 802f eabe 197a b03e
00000070: eac3 e03e 5728 f93e a21b 433f 2da4 363f
00000080: 043d 493f 19f6 9fbd 4036 58bf f786 323f
00000090: 0f90 133f fbf1 513f 9cd0 f63e aaf6 b0be
000000a0: 4ce5 2f3f 55e2 193f 7bc8 c13e d2df f83e
000000b0: b151 ba3e 7cfc 7fbd 80da 25bf f3e6 ef3e
000000c0: 8a29 3ebf 1a42 7fbe 81f7 6abf ef9f 65bf
000000d0: e1e5 c7be da44 0dbd 81cf 35bf 3797 493f
000000e0: a5ad 30be 0494 0f3f 43b2 023f 7179 1fbd
000000f0: 0566 f4bd 85e3 02bf 63f3 a23e 0e16 2dbf
0.38984033 -0.5747456 -0.27929956 0.37062436 -0.7767024 0.56715286 -0.56289667 0.7468819
0.66089755 0.45611146 0.5299798 -0.8125104 -0.4311754 -0.6878192 0.561738 -0.7804128
-0.6832264 -0.8765201 -0.85261726 0.6365485 0.8944424 -0.67032784 -0.75168765 -0.716586
0.7106373 -0.9125555 -0.45739365 0.34468153 0.4389947 0.4866359 0.7621404 0.7134426
0.7860873 -0.07810611 -0.8445778 0.6973719 0.5764169 0.8200986 0.4820603 -0.3456319
0.68709254 0.6011098 0.37848267 0.4860826 0.3639045 -0.062496647 -0.6478653 0.46855888
-0.74282134 -0.2492756 -0.9178391 -0.89697164 -0.3904257 -0.03448949 -0.7101975 0.7874636
-0.1725374 0.5608523 0.51053256 -0.038934175 -0.11933521 -0.5112842 0.31826314 -0.6761178

value.2.weight f4 [32, 64]
00000000: cbd8 04be 8846 8d3d 0457 783e 0fe7 96be
00000010: 99a3 263c 57df 12be 35b3 293d 2db7 93bd
00000020: 2683 03be 9c21 54be 4f8b d2bd 31d5 903d
00000030: 8025 273e 51dd 223d 83fc 10be 036f ba3d
00000040: 7a64 b83e d26c 033e 3bb5 913d bd9f 20be
00000050: eae2 95bd 9132 223e 5eb8 263e 7668 4d3e
00000060: 45bc dcbd 21bd 773e f873 353e 8ceb b4be
00000070: 5a92 edbc 384c 03be cc3f 5cbd 28e4 6abe
00000080: e094 95bd 8283 2e3e d45e 123d e4e7 a3bd
00000090: b174 64be a4c8 1cbe e639 d8ba 719e 5b3e
000000a0: bc31 11be 38b3 d2bd 5c9d 3cbe 439b 81bd
000000b0: 2287 85be b800 463e 9983 813e c47b dfbd
000000c0: 6a2f de3e 3b33 1f3e e8cc 323e 3a79 353e
000000d0: eff9 843e c12d 7c3e de45 153d d1a4 f2bc
000000e0: 8b86 8f3e 7619 d6bd 9ec9 cebe 296f a5be
000000f0: 4a16 a53e 9cdd 333c 3997 35be c5f9 633e
00000100: 4f92 60be d4ed 453e 3820 793e 76a9 9bbe
00000110: f809 393e 2bbb aabd db73 203e 0f17 66be
00000120: 9706 0cbe 8596 bbbd b162 40bd bf04 2a3e
00000130: d6b1 0b3e a2da 403e 31b6 d3bd 1277 f23d
00000140: e325 b73e bb4d 833e 022c 003d dae3 b0bd
00000150: 7413 2bbe ee17 423e 8bf7 8a3d 1b74 363e
00000160: af8b 70be a486 1e3e 35ae 663d ba06 eabe
00000170: 423c 6ebe 545b 19be 5588 03be 7e97 26be
00000180: 0448 f6bd 52a5 173e c159 ae3d cc7b 1ebe
00000190: 3074 17be 544a 88be 9848 33be cf08 563d
000001a0: 95b1 8cbe e2d7 6ebe 3627 2cbe 3165 1fbe
000001b0: 7f10 82be 6ccd f83d 6494 943d 2f7c a0bd
000001c0: fd40 bf3e e8de 093e d78d 7a3e f16e 1c3e
000001d0: f030 3e3e d60d 2c3e 279b 073e c07a 45be
000001e0: 416f a73e 952d 88be e793 49be afd0 43be
000001f0: 0ffe 6e3e 1b62 db3d 2f3c 51be 563a f53d
00000200: 4680 1d3e fc18 9cbd 5c49 77be 5f08 f63d
00000210: 607a 84bd 2db9 0d3e 8017 4abe 381b 6e3e
00000220: 9363 9f3a d0ae a03d 48be ee3d b1a2 2bbe
00000230: 95a2 3abe 7bff ecbd 8de5 e93d b8f1 6bbb
00000240: 53e1 d0be b06e 7ebe d902 c1bd 6df5 4d3e
00000250: 03d8 733e 1553 b6bd b4d4 16be e2cb b4bd
00000260: e594 82bb 22d7 d3bd d93b 42bd f01e d43e
00000270: eaff 5b3e 534d 0a3e 8fe9 d23d c8bc 3b3e
00000280: 8170 693e fed0 04be fe48 e1bd 4de0 283d
00000290: 9f38 5a3e 3797 d83b 9950 dc3d 63e9 6cbe
000002a0: 0e47 1b3e 4c63 3f3e df5c 143e 7177 023e
000002b0: 05c9 f33d a534 5bbe f5d7 47bd 5b55 5a3c
000002c0: 58cc 97be f2c5 35be b4a0 6ebe a298 0fbe
000002d0: e732 a2be 15bf e0bd eada 48be 967b 3e3e
000002e0: 9e6a 26be a692 b4bb 63bb da3e 750d 5c3e
000002f0: 66e2 aabe 699f eebd 9556 2d3e 8083 6fbe
00000300: a1a9 27be 361b fc3d 5e2b 833e d0c3 94be
00000310: 9955 323e 3a4c f0bd ded7 343e b5ab 9abc
00000320: e176 eabd 0c5b 98bd 017c 53be 97a2 303e
00000330: a96c 3f3e c50a 923d dd8f 37bc 29ea 013e
00000340: 2b55 ec3e ead6 6e3e 7107 ac3d 9890 5bbc
00000350: 7441 84be 2a64 143e 991c 723e daf9 843e
00000360: 2717 71be 66e6 c13d 74f2 6e3e 6230 9dbe
00000370: 0bd1 81be c6ab cebd e48e f6bb aa6d 3ebd
00000380: db5f d3bd 31f3 0d3e 95b3 c73d 6adf 08be
00000390: f19b 54be c8ec d6bd 08a7 45be 4fe4 ba3d
000003a0: a89d f8bd 032e a5bd 2ad4 34be e7c3 3ebd
000003b0: ecb5 8fbe a194 453e 7a10 283e a8d5 1ebd
000003c0: bfb2 bf3e 80c4 713e 7d5a 283d 7bbb 213e
000003d0: 6042 7c3e 7e8c 9a3e e37b fb3d 2f96 24be
000003e0: b16e 963e d448 9cbd aeb0 b1be 8280 09be
000003f0: c2c2 283e af4c 363c 834a acbd 9c85 003e
-0.12973325 0.068982184 0.24251944 -0.2947316 0.010170841 -0.1434301 0.04143067 -0.072126724
-0.12842998 -0.20715946 -0.10280477 0.07071913 0.16322899 0.039761845 -0.14158826 0.09103205
0.36014158 0.1283448 0.07114645 -0.15685935 -0.07318671 0.15839602 0.16281268 0.2005938
-0.10778097 0.2419324 0.1772002 -0.35335958 -0.02900045 -0.12822044 -0.05377178 -0.22938597
-0.07303786 0.17042354 0.035734966 -0.08003214 -0.22310139 -0.15310913 -0.0016496747 0.2144716
-0.14179128 -0.102880895 -0.18419403 -0.06328442 -0.2607966 0.19336212 0.25295714 -0.10912278
0.4339555 0.15546887 0.17460978 0.17722026 0.25971934 0.24626829 0.036443584 -0.029619606
0.28032336 -0.10454075 -0.40388197 -0.3231137 0.32243568 0.010978129 -0.17733468 0.22263248
-0.21930812 0.19329005 0.24328697 -0.30402726 0.18070209 -0.08336481 0.15669195 -0.22469734
-0.13674389 -0.09159569 -0.04696912 0.16603373 0.13642058 0.18833402 -0.10337485 0.11839117
0.35771093 0.2564524 0.03129197 -0.08637209 -0.1670664 0.18954441 0.06785496 0.17817728
-0.23490785 0.15481049 0.05631848 -0.45708257 -0.23265174 -0.14976245 -0.12844975 -0.16268727
-0.12025455 0.14809158 0.08513213 -0.15476912 -0.14790416 -0.26619208 -0.17508161 0.052254494
-0.27479234 -0.2332454 -0.16811833 -0.15565945 -0.2540321 0.12148556 0.07254866 -0.07836186
0.3735427 0.13463938 0.2446817 0.15276696 0.18573356 0.16802153 0.1324278 -0.19285107
0.32702067 -0.26597276 -0.19685327 -0.19122575 0.23339103 0.107120715 -0.20433114 0.11974017
0.15380964 -0.07621953 -0.24149078 0.120133154 -0.06468654 0.1384017 -0.19735527 0.2325257
0.0012160413 0.07845843 0.11657387 -0.1676128 -0.18226083 -0.115721665 0.114207365 -0.003600223
-0.4079691 -0.24846911 -0.09424371 0.20113154 0.2381287 -0.089025654 -0.14729577 -0.0882795
-0.003985035 -0.10343768 -0.047420356 0.41429853 0.21484342 0.1350606 0.10298454 0.18333733
0.22796823 -0.12970349 -0.1100025 0.041229535 0.21310662 0.006609823 0.1075756 -0.23135905
0.15163824 0.18690223 0.14488553 0.12740876 0.11903576 -0.21406801 -0.048789937 0.013326014
-0.2964809 -0.17751291 -0.23303491 -0.14023069 -0.3167946 -0.10973946 -0.19614759 0.18601832
-0.16251609 -0.005510646 0.4272109 0.21489508 -0.33375853 -0.11651499 0.1692756 -0.23390007
-0.16373302 0.123098776 0.25619024 -0.29055643 0.17415465 -0.11733289 0.17660472 -0.018880704
-0.114484556 -0.07439241 -0.20652772 0.17249523 0.18693794 0.071309604 -0.011203733 0.12686981
0.46158728 0.2332417 0.08399857 -0.013401173 -0.25831187 0.14491335 0.23643722 0.25971872
-0.23543988 0.09467773 0.23334676 -0.30700976 -0.253548 -0.10091357 -0.007524358 -0.046491303
-0.10321017 0.13862301 0.097510494 -0.13366476 -0.20762612 -0.10494381 -0.19301999 0.09125578
-0.121394455 -0.08065417 -0.17659059 -0.046573546 -0.28068483 0.19294979 0.16412535 -0.038777977
0.3744106 0.23610115 0.04110192 0.15794174 0.24634695 0.30185312 0.12279489 -0.16072915
0.29381326 -0.07631078 -0.34705108 -0.13427928 0.16480544 0.011126681 -0.084126495 0.12550968

value.2.bias f4 [32]
00000000: f80f 0fbe 9e77 6abd fe93 0f3d e8a8 a2bd
00000010: af6d 533e e168 e03d ab63 043e 5e84 553e
00000020: 8d81 243e 9f46 05bd 3802 093e f831 5fbe
00000030: 2f31 2fba 42af 193c 9313 29be ee2a 1fbe
00000040: 044a a0bd e528 0bbe a2d9 c2bd a8ad d7bd
00000050: 4bbc f13d 80ce 32be 80af 16be b19c a2bd
00000060: 1ce9 f23d fdfd 063e 7e01 9e3d 2ca0 3b3e
00000070: 4839 51be 11c4 19be b838 29be fa04 2a3e
-0.13970935 -0.057242982 0.035053246 -0.079423726 0.2064731 0.10957504 0.12928645 0.20851275
0.16065045 -0.032538053 0.13379753 -0.21796405 -0.0006683049 0.009380164 -0.16511373 -0.1554372
-0.07826617 -0.13589819 -0.095141664 -0.10531169 0.11803492 -0.17461586 -0.14715385 -0.07940043
0.11860868 0.13182826 0.07715128 0.1832282 -0.20432007 -0.150162 -0.16525543 0.16603461

value.4.weight f4 [1, 32]
00000000: dbb7 1140 595d 0940 e6c3 13c0 d41c 1040
00000010: 3e56 12c0 f90a 09c0 fa90 0dc0 931c 10c0
00000020: 5b23 12c0 9ed4 1140 f7af 10c0 4daf 1040
00000030: c91d 0e40 3dbb 09c0 5a16 0740 84fb 1140
00000040: b6be 0940 6883 1240 ae34 0a40 fc6b 0b40
00000050: 1d6c 0bc0 f768 1240 b59f 0840 de12 0e40
00000060: 57e9 12c0 8f0a 10c0 feec 0fc0 516d 0ac0
00000070: fe0b 0f40 c0cd 0f40 9711 0f40 86fb 12c0
2.2768466 2.1463225 -2.3088317 2.2517595 -2.2865138 -2.1412947 -2.2119737 -2.251744
-2.283408 2.2786021 -2.26074 2.2606995 2.220568 -2.152053 2.1107392 2.2809763
2.152265 2.2892704 2.1594653 2.1784658 -2.1784737 2.2876565 2.1347477 2.2199016
-2.295492 -2.2506444 -2.2488399 -2.1629221 2.235107 2.246933 2.2354486 -2.2966018
