models/MountainCarContinuous-v0.model (torch_old, 20506 bytes, 10 tensors)

policy.0.weight f4 [64, 2]
00000000: 9c48 393f adec d9bf a9c0 40bd 3bb2 28c0
00000010: 6844 033f aaa6 4040 04ec cf3e dd7f 4ac0
00000020: 8761 1f3f 4fea 0dc0 589e 213f a226 4e40
00000030: 0ec9 9ebe 43bd 31c0 6a2d 5bbf 84fe 7abd
00000040: 0a81 06bd addb 2fc0 9209 36be 91f3 55c0
00000050: c199 d3bd 2eab f2bf 2eb0 18bb ce09 5bc0
00000060: 6c62 103f 486e 7440 effb a1bf 160d 61bf
00000070: 8240 3dbe 031a 6240 0723 24bf 5e33 3640
00000080: 8c36 69bf b2cf c9bf 98d2 843e 55cf 2d40
00000090: df05 64bf a440 103f 67b8 1c3f ee74 b63f
000000a0: ce4c 0f3f 6cbb 10c0 d566 3fbf 3abd edbf
000000b0: a7b9 17bf 58d6 06c0 5910 403f 323a 9c3f
000000c0: f7f2 403e 60e9 47c0 c91c 0fbf 1660 2f40
000000d0: f999 433e f25c 27c0 0e9a ce3e d286 0540
000000e0: 8bbf c1be 7401 1b3f ff86 4e3f 3b5d 5140
000000f0: 9306 883e 80a3 31c0 abb8 f8bd 3335 4040
00000100: 8534 74be a55d 4440 c215 0d3e 2ad7 55c0
00000110: 6def 8ebf 5d62 53bf d8ae df3d 6443 35c0
00000120: c080 b4be 6bbb 2ec0 fb96 313f ad9c 25c0
00000130: fd08 73bf 4a81 0cc0 baa7 2ebf 0d50 03c0
00000140: faa2 94bd 7cc9 63c0 df18 153f 9ff7 4f40
00000150: a007 363d a0bc 50c0 8f2d 013e 5af6 1bc0
00000160: 1c66 2c3f f939 2640 046c e1be 2fbe 2240
00000170: 125f 153f 27cd 21c0 0edc 68bf 2dd0 b8bf
00000180: cdc4 11be 987d 5ac0 069e 1ebf cfac 2b40
00000190: f8e1 10bf bda2 21c0 f777 413f 2de3 36c0
000001a0: 344d f93e cc67 1140 ae11 7f3f 0cb9 95bf
000001b0: bf81 493f e0b5 f7bf c0cf 17bf af48 fbbf
000001c0: f49d 243e 0477 f2bf 5654 523f f332 d13f
000001d0: 2674 7a3f 11ae d83f 2ab8 623f 70fc 973f
000001e0: 3eef 51bf b47e cfbf 2151 143f 4cc8 22c0
000001f0: c208 f7bc 1569 5340 a98d 353f 435c 3b40
0.7237642 -1.7025353 -0.047058735 -2.6358783 0.51276255 3.0101724 0.40609753 -3.1640542
0.6225819 -2.217426 0.6313224 3.221108 -0.31012768 -2.7771766 -0.8561617 -0.06127788
-0.032837905 -2.747783 -0.17777088 -3.342991 -0.103320606 -1.895849 -0.002329837 -3.4224734
0.5640018 3.819231 -1.2655009 -0.8791059 -0.18481639 3.5328376 -0.6411595 2.8468852
-0.91098857 -1.5766509 0.2594192 2.7157795 -0.8907146 0.56348634 0.61218876 1.4254434
0.5597657 -2.2614393 -0.74766284 -1.8573372 -0.5926766 -2.1068325 0.75024945 1.220526
0.18842684 -3.123619 -0.559033 2.7402396 0.19101705 -2.615048 0.4035191 2.0863538
-0.37841448 0.6054909 0.8067474 3.2713153 0.26567516 -2.7756042 -0.121445976 3.003247
-0.2384816 3.0682156 0.13777831 -3.3412576 -1.1166817 -0.82571965 0.10922021 -2.8322382
-0.35254478 -2.730189 0.69371 -2.5876877 -0.9493559 -2.1953912 -0.6822468 -2.051761
-0.07257648 -3.5591726 0.58241075 3.2494886 0.044440866 -3.2615128 0.12615035 -2.436911
0.67343307 2.5972884 -0.44027722 2.542858 0.5834819 -2.5281465 -0.90960777 -1.443853
-0.1423523 -3.4139156 -0.61959875 2.6824224 -0.565948 -2.5255578 0.75573677 -2.8576157
0.48691714 2.2719603 0.9963635 -1.1697097 0.787136 -1.9352379 -0.59301376 -1.9631556
0.1607588 -1.8942571 0.82159936 1.6343673 0.9783348 1.6928121 0.8856226 1.1873913
-0.8200568 -1.6210542 0.5793629 -2.5434752 -0.030155543 3.3032887 0.7091928 2.9275062

policy.0.bias f4 [64]
00000000: 9350 9d3e 583e 6a3e 8411 97bd 39b4 953d
00000010: 04b2 b03d fa03 8e3e 524e bd3e 3784 ff3c
00000020: 145d 2cbd 9818 ccbd a48d 0f3f 12db 9d3d
00000030: 0740 f73e 6a07 d8be 313b 1d3d df06 7fbe
00000040: 4733 babe 9fa3 aabe b0e1 63be d27a efbe
00000050: 7ddc ddbe 93db b7bc 7f40 96be ffae a8be
00000060: 3e1b c7be b7d8 a9be fa79 563d 3883 b9be
00000070: 474d f53e 50c9 143f 7bc4 633e 3978 bebd
00000080: 527e 8a3e 1e5b 293e a86f e0be f9e3 0f3e
00000090: de88 06be e71a 9c3e fc89 f2be eaae 98be
000000a0: 1be3 4d3d d8be a63e 9fe4 27be 16a0 fc3e
000000b0: 3690 fd3e 0ac5 1a3e 3b94 84be 768b be3e
000000c0: 3471 80be d06b 4f3e 44b1 863d 05a6 fb3e
000000d0: 5d31 a7be 21fe 7cbe 5fe0 cabe 383b 983e
000000e0: 5459 be3e 418e 1abb cba5 06bf d817 2fbe
000000f0: 2488 e93b 03d4 8d3e 61e7 16bd c152 f23e
0.30725536 0.22875345 -0.07376388 0.07309765 0.08627704 0.2773741 0.36973816 0.031190975
-0.042080954 -0.099656284 0.560755 0.077078 0.48291036 -0.42193156 0.038386527 -0.24904965
-0.36367247 -0.33327958 -0.22254062 -0.46773392 -0.43332282 -0.022443568 -0.29346082 -0.3294601
-0.38887972 -0.33173153 0.05236242 -0.36232924 0.4791052 0.5811968 0.2224292 -0.093002744
0.270495 0.16538665 -0.43835187 0.14051808 -0.13138148 0.30489275 -0.473709 -0.2982095
0.050265413 0.32567477 -0.16395806 0.49340886 0.49524087 0.15114227 -0.2589434 0.37215775
-0.25086367 0.20255971 0.065767795 0.491501 -0.3265485 -0.24706317 -0.39624307 0.2973268
0.37177527 -0.0023583325 -0.5259673 -0.1709894 0.007126825 0.27700815 -0.036841754 0.4732876

policy.2.weight f4 [32, 64]
00000000: 1252 a1be 3999 87be c7d4 3c3e 0e89 3bbf
00000010: 86f9 93be b6dc 3d3e f1cc 393c 3872 e23c
00000020: d68e 62bf 93ef 3bbf ad8b aabd 5635 76bf
00000030: 9c08 003e e022 853c 5c2a 3c3f e122 533f
00000040: d3a6 273e bfd7 123e 0dec ee3d 29e5 eb3d
00000050: 6f97 c2bd 4f98 d03d 4b55 323d f963 c83c
00000060: 2a3b 2dbe a05d f53e 7dab 65bf e8f7 f53d
00000070: 6493 52bd 00f7 29bc a5df 45bf 8258 ae3f
00000080: bfce 173e 7353 83bf 1cac 0b3d 961a 19bf
00000090: 8f07 62be 34d6 13bf 1798 a1bd 8686 883d
000000a0: a671 61bf 2bbc 423e 9966 95be fc05 64be
000000b0: 9884 2d3d a39b 8b3e b45b febd e6eb d8bc
000000c0: ba3f c7be 8a3e 243e bafc 07be 09f2 80be
000000d0: 60c7 f03d 9bfa 33bd a314 6e3d c121 08bd
000000e0: fa4d 27be ee97 26bd c970 abbd a80e b33d
000000f0: e63b d2bd 0666 17bf db4e a03f f7d8 9b3d
00000100: 28ad 01be 5718 17be aa79 1c3e 7a84 11be
00000110: a9eb 183e e9b4 e43c 08c7 66be d072 96bd
00000120: d4a8 0e3b c5ac dcbd 4838 7fbe db1a 49bd
00000130: f6bf 85be d50c b93c 47f8 473d 547b aa3d
00000140: fff1 cb3d f397 703e 12b4 c53d a2e5 da3d
00000150: 5f99 963e b9f0 11be 300e 023e 7011 f43d
00000160: cd03 083e 46b6 4f3e bcb3 9dbc be47 753d
00000170: 6b00 95be d903 203d 3a90 04be 78f4 433e
00000180: 89cc 88be ecc9 4fbe ef7a 80bd 7dbb 68be
00000190: 2308 ce3d 4305 36be e100 60bd 77d0 493d
000001a0: ff8f 20be 6111 e03d ba2a 5d3e 1c6c 6bbe
000001b0: 54c6 6ebe a181 7bbe 90ad e93d c5af 5dbe
000001c0: 35fd 473e 301b 15bd 0eb8 94bd 14e1 61be
000001d0: 305c 053e 98c8 ad3d 8414 ca3d 5822 f8bd
000001e0: 0230 01be 6164 c03d d399 713e f34a 68bb
000001f0: f941 72bd 13bd d1bd 776e cf3d 8bff 93bd
00000200: 5500 fbbd bd51 003f 2394 83bf aa30 8ebd
00000210: 3843 b9be 7da7 2dbf f80d 083f 6054 393f
00000220: 4c0f 333f d0f4 4a3f e22c 993e d28e 323f
00000230: a3c9 c0ba 9d4e be3e df74 38be 4025 a73c
00000240: 6a75 e03e d711 57be 7ad2 a63e c297 c6be
00000250: b3f8 afbe d619 5e3f d311 af3e 597b edbe
00000260: b147 40be 62aa 37bd 7f3c 933d b80b d4be
00000270: e491 973e 2617 17bd ef54 863e e6e1 5dbe
00000280: 02af 82bc db15 973e 504c 473e 6df5 d23d
00000290: 5b98 013f a980 3bbd d253 f33d b10b c23e
000002a0: 6de3 5b3f 197b dfbe b171 823c ad54 643e
000002b0: f38d 98bd ecdb 893e ef2b b3be ae58 f43e
000002c0: 7d30 683d 43c3 863e 6cea 483f 8b36 ab3d
000002d0: de0b f3be 4253 c2be d004 75be 3c84 063f
000002e0: 906d 9c3e 7b4b 75bf 9cf9 f8be c788 46bf
000002f0: 1084 4b3f 450a d6bb 570d 2cbf facd 85be
00000300: 1ef1 ea3d e45f 8abd 16d3 5e3d 8169 593d
00000310: daba d93c fdd6 1abd 3b9b acbd 266d 89bd
00000320: 9979 c33d 9e65 323d ce73 a9bd 8aef f13d
00000330: 4d8a a83c f078 0bbc 400e fd3d ba62 583d
00000340: 924d 8e3d acab 8c3c 4d6b cdbc 85ac febd
00000350: eaca 863c 4045 b63d ecb4 14bd df89 bc3d
00000360: f1b5 9d3d 36a7 0bbe 3785 e8bd bc7b e8bd
00000370: d37e 683d e6b1 ac3d 17c6 91bd b946 0c3c
00000380: 9cd8 e13d 9a2e 84bd 630f 39bb f083 7fbd
00000390: 3ee6 da3d 6c5d 843d fb8e 703d 2546 60bd
000003a0: 3521 e9bd 00a1 19bd 9473 b1bd 98c9 453a
000003b0: c3b9 06bd 5e83 fbbc c586 afbd c553 a5bd
000003c0: dc2b 98bc 457e 5cbd 2a56 4a3d 167d 1a3d
000003d0: f20a cdbd 3b17 8dbd 4ea4 a5bd 5352 15bd
000003e0: 2c96 d8bd 8bce 2cbd 088f f3b8 bb3b 7bbd
000003f0: 63b7 1abd 3112 053e 1c44 703b 32b5 c2bc
-0.31507927 -0.26484087 0.18440543 -0.73256004 -0.2890131 0.18541226 0.011340366 0.027642354
-0.884992 -0.73412436 -0.08327422 -0.96175134 0.12503284 0.016251981 0.73502135 0.82475096
0.16372232 0.14340113 0.11666117 0.11518318 -0.0950154 0.101853006 0.043538373 0.024461733
-0.169171 0.47922993 -0.89714795 0.12010175 -0.051410094 -0.010373831 -0.7729438 1.362076
0.14824961 -1.0259842 0.034099683 -0.5980619 -0.22073196 -0.57748723 -0.07890337 0.06666283
-0.8806404 0.19017093 -0.29179838 -0.22267908 0.04236278 0.2726718 -0.12419835 -0.026479673
-0.38915807 0.16039482 -0.13280001 -0.25184658 0.11756778 -0.043940168 0.05812515 -0.033235315
-0.1633834 -0.040672235 -0.083711214 0.0874303 -0.10265331 -0.5914005 1.2524065 0.07609742
-0.1266371 -0.14755379 0.15280786 -0.14210692 0.14933647 0.027918296 -0.22536862 -0.073461175
0.002176811 -0.10775141 -0.24923813 -0.049097877 -0.26123017 0.022589127 0.04882076 0.08324304
0.099582665 0.23495464 0.09653486 0.1068833 0.29413888 -0.14251985 0.12700725 0.119173884
0.132827 0.20284376 -0.019250743 0.05988287 -0.2910188 0.03906617 -0.12945643 0.19136226
-0.26718548 -0.20291871 -0.06273448 -0.22727771 0.10060146 -0.17775445 -0.05468834 0.049271073
-0.1567993 0.10940815 0.2159833 -0.22990459 -0.23317844 -0.24561168 0.114100575 -0.21649082
0.19530185 -0.03640288 -0.07261668 -0.22058517 0.13023448 0.08485526 0.09867194 -0.121159256
-0.1261597 0.09394146 0.23593836 -0.0035445064 -0.059144948 -0.10241141 0.10128491 -0.07226475
-0.12255923 0.5012472 -1.0279583 -0.06942876 -0.36184096 -0.6783369 0.53146315 0.7239437
0.69945216 0.79279804 0.29917055 0.69749177 -0.001470853 0.37169352 -0.18013333 0.020403504
0.4383958 -0.21002899 0.32582456 -0.38787657 -0.3436943 0.8675817 0.34193286 -0.4638317
-0.18777348 -0.044840224 0.07189273 -0.4141519 0.29603493 -0.03688731 0.26236674 -0.21668205
-0.01595259 0.29508862 0.19462705 0.103007175 0.506231 -0.045776997 0.11881222 0.37899545
0.858939 -0.43648604 0.015923353 0.22297926 -0.0744895 0.269256 -0.34994456 0.47723907
0.056686867 0.26320848 0.784827 0.083600126 -0.4746999 -0.37954146 -0.23927617 0.52545524
0.3055234 -0.958183 -0.48627937 -0.77552456 0.79498386 -0.006531986 -0.67207855 -0.2613371
0.11471771 -0.06756571 0.054400526 0.053079132 0.026578356 -0.037802685 -0.08428045 -0.067102715
0.09544677 0.04355394 -0.08274041 0.118132666 0.02057376 -0.00851272 0.123562336 0.052828528
0.06948389 0.017171703 -0.025075579 -0.12435249 0.016454179 0.08899927 -0.036305353 0.09205984
0.07700718 -0.13638005 -0.11353534 -0.113517255 0.056761574 0.08432369 -0.07117861 0.0085617835
0.11027643 -0.06454201 -0.002823793 -0.062381685 0.106884465 0.06463131 0.058730107 -0.054754395
-0.11383287 -0.037507057 -0.08664623 0.00075449934 -0.032892 -0.03070229 -0.08570627 -0.080726184
-0.018575601 -0.053831358 0.04939858 0.037716947 -0.10011853 -0.068891965 -0.08087979 -0.036455464
-0.10575518 -0.042189162 -0.000116137846 -0.06133626 -0.037772547 0.1299522 0.003666169 -0.023768041

policy.2.bias f4 [32]
00000000: 7074 dbba 1a9b 2fbe b442 7a3e 9c8b d8bd
00000010: 6ccb 7fbd 5409 423d 2bad 333c 2470 2b3d
00000020: befb 433d 4fe4 ad3d 4fe8 0b3e f93c 21be
00000030: 9c0f 5d3d 067d 123e 7894 63be 5d44 153e
00000040: 919f 133e a947 1fbd 95a2 58be 3f8a 0bbe
00000050: 28cb a43e 3f85 4b3d afb1 37bd b674 893e
00000060: 11e0 113e f8da bd3d e700 993d cc5a 313e
00000070: f8c9 45bd 1d09 9e3d 1eda 923c a30b 8ebe
-0.0016743075 -0.1714901 0.24439508 -0.105735034 -0.062449858 0.047372177 0.010966579 0.041854993
0.047847502 0.08490812 0.13662837 -0.15745915 0.053969964 0.14305505 -0.22224605 0.1457686
0.14416339 -0.0388867 -0.2115577 -0.13626955 0.32186246 0.04968762 -0.044847187 0.26846856
0.14245631 0.092702806 0.07470875 0.17319793 -0.048288316 0.07716582 0.017926272 -0.27743253

policy.4.weight f4 [1, 32]
00000000: 460e f03e 6b20 bc3d d1af cabe 977a 7c39
00000010: c177 39be 9846 053f 1967 2d3a d1c4 0e3e
00000020: d93b 73be 9b7b 74ba 6fa7 7dbd 53e7 bf3e
00000030: 0aeb e53e 8a69 9bbe 6f52 763d 2924 7fbe
00000040: d2eb 1abe 0fa7 64be 07c3 d8be 32c7 763d
00000050: 638e 80be 4bcc a3bd e50d e4be 13ee 133e
00000060: 7ccb 263e 5326 673e 55c5 8cbe 74c8 7dbd
00000070: 3533 273d d149 14be 243b 01be 8caf 75be
0.4688589 0.09185871 -0.39587262 0.00024078261 -0.18112089 0.5206084 0.0006614789 0.13942267
-0.23753299 -0.000932628 -0.061927255 0.37481174 0.44905883 -0.30353957 0.06013721 -0.24916138
-0.15129021 -0.22329353 -0.42336294 0.06024856 -0.25108632 -0.0799795 -0.4454185 0.14446287
0.1628856 0.22573213 -0.27494302 -0.061958745 0.04082032 -0.14481284 -0.12620217 -0.23992747

value.0.weight f4 [64, 2]
00000000: 9744 423f e3ba a1c0 8bd1 363f f5a0 8840
00000010: 214e e83e 87c0 9f40 185a a6be 6a71 613f
00000020: ff49 553f 669f 74c0 03a8 93be 3fc0 a8c0
00000030: d8be 7fbe 53fe d63b 53e2 82bf 200f 5340
00000040: 9e79 c4be 750c a0c0 16b7 123e cbbe b93f
00000050: 1884 973e 462d b9be b940 b4bf 4170 cf3f
00000060: ce1e ff3e 5e9b a040 fc67 8dbf 38ce 8340
00000070: 38b3 1bbe d472 a6c0 e2af 71be 1ed0 b540
00000080: 0fa1 a13e c1c0 4bbf e93e 87be 228e b4c0
00000090: dd19 ab3f a8df 23c0 7d85 7b3f 85b7 89c0
000000a0: f231 2640 7324 6940 d19c f2bf cd4b bec0
000000b0: 21b9 d5be baa8 a6c0 37ea 953f 4c99 99c0
000000c0: f8b0 adbe 8988 3140 3c2c b03f 5fd5 8cc0
000000d0: 327c 2fbf c5ba 07c1 69c8 cdbf 7747 1fc1
000000e0: f58b c73f 4fe3 383f db01 abbe 245d b240
000000f0: fd61 3340 c6e5 7640 aaba 6d3f 25cb 4bc0
00000100: ac42 e8bf 6a6d a0c0 2bf1 e9bf 267e cac0
00000110: 0396 f3bf 465d 9ac0 84ef bdbe 0607 c43f
00000120: fbfa aebe d4e2 8a3f 7cff 20bf 1c52 6040
00000130: 8507 fe3f 2709 8d40 a29a b4bf d75e c7bf
00000140: 29b4 b43f 5154 20bf 8c0f e23f 30e4 f240
00000150: 1faa 993e 6f27 3bbf 273f 073f d6e9 c2c0
00000160: 148b 343b 10d6 a2c0 a2db 73bf 38e2 0440
00000170: 72ec 853f 200e a2c0 3a6e 56bf 2176 7540
00000180: cb1a 00c0 e2b1 a7c0 ca2c 773e b69f a940
00000190: 1f3d 2140 c4fc d240 cafe babf 5c42 c0c0
000001a0: 1d9a a73e f464 8dc0 3c8f b03f c5e6 8cc0
000001b0: 493e 0540 d518 a040 9c51 ec3e caa7 bc40
000001c0: 9eb3 24bf 76d8 5640 06f6 f6bf 9b22 a1c0
000001d0: 4256 11c0 eb0a 98c0 77df 7bbe e850 92be
000001e0: acc7 1740 3252 ef40 eeae 89be d90a bb3e
000001f0: 16ed a13e d02d f7be d473 adbe 8904 c540
0.7588591 -5.0540633 0.7141349 4.269648 0.45372108 4.992252 -0.3249061 0.8806368
0.83316034 -3.822229 -0.2883912 -5.2734675 -0.24975145 0.0065610795 -1.0225319 3.2977982
-0.38374037 -5.0015206 0.14327654 1.451135 0.29592967 -0.36167353 -1.4082252 1.6206132
0.4982819 5.0189657 -1.1047359 4.118923 -0.15205085 -5.201517 -0.2360225 5.681655
0.3156819 -0.79590994 -0.26415184 -5.64235 1.3367268 -2.560526 0.9825056 -4.3036523
2.5967984 3.6428497 -1.8954107 -5.946753 -0.41742805 -5.2080965 1.1712102 -4.799963
-0.3392408 2.7739584 1.3763499 -4.4010463 -0.6854888 -8.483098 -1.6076785 -9.954947
1.5589586 0.72221845 -0.33399853 5.5738697 2.8028557 3.8577743 0.9286295 -3.184274
-1.8145347 -5.013356 -1.8276724 -6.327899 -1.9030155 -4.823886 -0.37096798 1.5314643
-0.34175858 1.0850472 -0.6288984 3.5050116 1.9846045 4.407367 -1.410969 -1.5575818
1.411748 -0.62628657 1.7660995 7.590355 0.30012605 -0.73107046 0.5283074 -6.0910444
0.0027548717 -5.0886307 -0.9525701 2.0763073 1.0462782 -5.0642242 -0.8376194 3.835335
-2.0016353 -5.240464 0.2413818 5.300746 2.5193555 6.593355 -1.4609005 -6.0081005
0.32734767 -4.4185734 1.3793712 -4.40317 2.0819266 5.0030313 0.46156013 5.895482
-0.64336574 3.3569617 -1.929383 -5.0354743 -2.2708898 -4.7513328 -0.24596964 -0.28577352
2.371562 7.4787836 -0.26891273 0.36531714 0.31626195 -0.4827714 -0.33877432 6.1568036

value.0.bias f4 [64]
00000000: 25a7 af3e c809 88be 06d5 9c3d d8ea cb3f
00000010: 2aec 423e 1e49 4d3d bf45 c63f 046f d2be
00000020: d0cd b93b aeee aabf c08b e1bf 62a1 59bf
00000030: 7f78 ec3d f6b7 dabe 3ccc be3e 5159 12bf
00000040: f0a3 d3bf 8506 793c 5e16 403f f224 cc3e
00000050: ca0b 36bf 8539 863e 167c febd a51d 153f
00000060: 422e d83e dc0a 403f 088c 01bf 42a8 aebf
00000070: 56fc 923f f8d3 e1be acd0 52bf f3ef 863e
00000080: c918 1d3e 18b3 1d3e 1173 1a3e 27fa 6f3f
00000090: cd36 b83f a0e3 aa3c f1d5 8ebe 9146 80bf
000000a0: 8dbe 693f e61c bd3f 792d d6bf 8d66 913e
000000b0: 9147 e8bd 97d8 a0be 47f3 0c3f dc11 6dbe
000000c0: faea f2bd 1db3 7c3d 8c3e 343f 00f7 193e
000000d0: ac75 523f 8539 443f 893a c8be 3d59 053c
000000e0: 0051 ff3d 7778 983d a567 023f 9dfc ad3f
000000f0: da07 0b3f b798 d33f 405d b7bf ee90 4fbe
0.3430721 -0.26569963 0.076578185 1.5931044 0.19035402 0.050118558 1.5490035 -0.41100323
0.0056702867 -1.3354089 -1.7620773 -0.85011876 0.1154642 -0.42718476 0.37265193 -0.57167536
-1.6534405 0.015199308 0.7503413 0.39871937 -0.7111174 0.2621576 -0.12426011 0.5824836
0.42222792 0.7501657 -0.50604296 -1.3645098 1.1483257 -0.44107032 -0.8234966 0.26354942
0.15341486 0.1540035 0.15082957 0.9374108 1.4391724 0.020860493 -0.278976 -1.0021535
0.9130638 1.4774444 -1.6732627 0.28398553 -0.11341775 -0.31415245 0.5505871 -0.23151344
-0.118612245 0.061694253 0.7040794 0.1503563 0.82210803 0.7665027 -0.3910716 0.008138952
0.124666214 0.07444852 0.509394 1.3592716 0.54308856 1.653098 -1.4325333 -0.2027013

value.2.weight f4 [32, 64]
00000000: 4132 bc3e e745 2b3c 96b6 323f 9ce5 2abf
00000010: c164 843f 34cd 8dbe dfb9 dbbe 3c39 53bf
00000020: 85bd 93be d955 de3e d792 063f 9ace 7dbf
00000030: 736b 183f 5862 a1bf c4ed e3be a13b 193e
00000040: 7e71 383f 147b 3ebf c35b 353f 8db3 623f
00000050: 8b9b ccbe a5f6 dc3e 2119 0bbf af06 2e3f
00000060: f43b b5bf 67c0 003f b7ee 8ebf 539a 89bf
00000070: 3d09 733f 4d50 c33d e59d b3be 4ee3 733f
00000080: fd4f c23e 34a8 023f bf4c 033f 6b84 6bbf
00000090: efa9 11bf 36a8 a9bf 5da1 fdbe f84c 88bf
000000a0: 2496 333f af29 8f3f 6b67 013f 6a5b 38be
000000b0: 6e11 503e 1426 3fbf 345a 163f ddfc 47bf
000000c0: ea7d 013f bc8e 4d3f 7a10 99be b17c 99bd
000000d0: 2e4f 66be 210c f23e 158a 06bf 26f0 c93e
000000e0: 7475 07c0 fb87 133f 948c 843e 1c63 2cbf
000000f0: c535 c4be 8562 fabe fc44 2d3f b7f1 133f
00000100: 0d70 e23e 0568 1cbe 6448 8abe 6705 643e
00000110: 8928 02bf 3495 4f3e 7480 703e 868b 7fbe
00000120: 01fb 1a3e a033 66be ad64 9cbe 54b8 83bd
00000130: d04e abbe 4035 0b3f 5b91 cebd 9be2 acbe
00000140: 7afe b7be 80c3 023e 76ee 9f3e 90d9 6f3e
00000150: d7e0 a53d b73f d2bd 43b8 703e 3720 c83e
00000160: d4b0 97be 6b2a fa3e f1ec c53d ed7c 3e3e
00000170: 03f3 673d ef48 2ebf 45b0 9a3e 1744 15bf
00000180: a7ad f13d 9e02 a0bd c329 3b3e 22fd 8a3d
00000190: 6f64 c33e 08dd cb3e bca8 acbe 04f8 cfbd
000001a0: e4b3 2c3e 017d 02be 8079 59bd 8e82 dc3e
000001b0: 1e9b 163e fb43 8f3e bfb9 f23e c356 213e
000001c0: 7aaa 833e 3f2f 78be e2f3 89bc 6b93 c53d
000001d0: 73e5 b13e 752d a53e 86c5 efbc 449b 6ebe
000001e0: 346a a03f 816a e73d 61ee aebc 08fa e03e
000001f0: 39d8 cf3d d6cd db3e cadb cdbe f35a 1cbf
00000200: 6423 33be d436 f3be 126c d4bb 64f9 afbe
00000210: 0026 843f 3e1f 213e d5d0 d3be 3476 a6be
00000220: 7234 b23d 2848 ac3e 97c1 623e bb17 9f3d
00000230: bb77 54bd 8df0 61bf 979d a03e 2975 83bc
00000240: e9cd 8b3e 43c6 90ba 3d07 5fbd f73f 903e
00000250: 2d96 8fbe 8d0b f93e bcea 08be bbdd 05be
00000260: e2e3 c9bc 8e2c a7be 1ac4 22be 9f40 c7be
00000270: cb91 ce3d 8a1f cf3e dbff 9ebe 7b0e 6e3f
00000280: 0c41 3f3c 727e b43e a68c 2e3d 3297 0bbe
00000290: b09b bfbe 297f 47bf 61b0 61bb b071 77be
000002a0: cab5 6abe 3c69 e53e 079a b63d 3652 f2bd
000002b0: 3a4b 353c 2e64 febe 7e3a 67be 818e 2cbf
000002c0: 3050 88bc 9c68 133d f1fd 2dbe 345a 793e
000002d0: 85d7 b3be cb23 3abe a92b eebd 24a7 4cbe
000002e0: 48e6 c1bf 3e1c 02bc 245e a13e 811b 0fbf
000002f0: dc3e 95be f1ed c7be 89a3 f83e 1f70 9abe
00000300: 7f9b f0bf 544f c13d e10c 803f 36f7 db3e
00000310: 9cf4 c5bf bfdc cabe ea44 ef3e b0bf b43f
00000320: 69b1 3fbe c58c 9dbe 85c3 09bf 7940 a03f
00000330: 6096 313f b401 c13f be55 12bc e557 f0bc
00000340: d297 fabe 23b5 94bf 568c a1bf 879c d6bf
00000350: 1b77 623f 3115 82bf 21b3 6bbf b4a4 cebf
00000360: 9d50 de3f 6f2c d4bf 2bba 53bd 1490 753f
00000370: 22f1 9dbf b9ef d03e b01d 363f cdd1 abbf
00000380: bfd3 e6bf 3698 aebf 0039 b1bf 964d 863f
00000390: 7da4 103f b13f b03f 79bf b73f 6168 653f
000003a0: d26b 89bf d8e4 8bbf 8ea3 e5be e219 06c0
000003b0: aaf1 04c0 9c29 8f3f badb dbbf 8a68 b43f
000003c0: c6dc cabf 74f0 e13f 9049 ae3f 7a3c d2bf
000003d0: 7c76 a0bd a40f b8bf c42b 9b3f 87bb a63f
000003e0: bd18 bd3f 78f6 c7bf 9b8f 2bbf 4aa5 d93e
000003f0: 7f17 c83f 7246 c93e 4ce3 dabe a22f 1540
0.3675709 0.010453678 0.69809854 -0.66756606 1.0343248 -0.2769562 -0.42915246 -0.8250921
-0.2885553 0.43424872 0.5256781 -0.99143374 0.59538954 -1.2608137 -0.44517338 0.14964153
0.72048175 -0.7440655 0.7084314 0.8855522 -0.3996242 0.43156925 -0.5433522 0.6797895
-1.4158921 0.5029358 -1.11666 -1.0750221 0.9493597 0.095368005 -0.350814 0.95268714
0.3795165 0.5103791 0.5128898 -0.9199893 -0.56899923 -1.3254459 -0.49537173 -1.0648489
0.7015097 1.1184596 0.5054843 -0.18003622 0.20319149 -0.7466748 0.5873139 -0.78120214
0.50582755 0.8029592 -0.29895383 -0.07494486 -0.22491142 0.4727488 -0.52554446 0.3944103
-2.1165438 0.57629365 0.25888503 -0.6733873 -0.38322273 -0.4890329 0.67683387 0.577907
0.44226113 -0.15274055 -0.27008355 0.22267686 -0.508431 0.2027176 0.23486501 -0.24955568
0.15134813 -0.22480631 -0.3054556 -0.06431642 -0.33458567 0.5437813 -0.10086318 -0.33766636
-0.35936338 0.1276989 0.3123662 0.23422837 0.080995254 -0.10266059 0.2350779 0.39087078
-0.29627097 0.48860487 0.096643336 0.18602343 0.05662824 -0.6808004 0.30212608 -0.5830702
0.118007 -0.07812999 0.1827765 0.067865625 0.38162562 0.3981707 -0.33722484 -0.10154727
0.16865498 -0.12742998 -0.053094387 0.43068355 0.1470761 0.27981552 0.47407338 0.15755753
0.25716 -0.24236773 -0.016839925 0.09647258 0.34745368 0.32261243 -0.029268991 -0.23301417
1.2532411 0.11299611 -0.021353902 0.4394076 0.10148663 0.42930478 -0.40206748 -0.6107628
-0.17493969 -0.47502768 -0.0064826095 -0.34369957 1.0324097 0.15734574 -0.41370264 -0.32512057
0.087014094 0.336488 0.22144161 0.07768198 -0.051871996 -0.88257676 0.31370232 -0.016047077
0.27305534 -0.0011045415 -0.054450262 0.281738 -0.28044263 0.48641625 -0.13370794 -0.13072865
-0.024644796 -0.3265118 -0.1589512 -0.3891649 0.100864016 0.4045375 -0.31054577 0.92990845
0.011673223 0.3525272 0.0426146 -0.13631895 -0.37423468 -0.77928406 -0.0034437405 -0.24164462
-0.2292091 0.4480685 0.08916097 -0.11832087 0.011065299 -0.49685806 -0.22580907 -0.67404944
-0.016639799 0.035988435 -0.16991402 0.24350816 -0.35125366 -0.18177716 -0.11629421 -0.19985634
-1.5148401 -0.007941304 0.31517136 -0.5590134 -0.2914952 -0.39048722 0.48562267 -0.30163667
-1.8797454 0.09438959 1.000393 0.42962044 -1.5465274 -0.3962154 0.46732265 1.4120998
-0.1872002 -0.3077146 -0.53813964 1.2519675 0.6937008 1.5078645 -0.008931575 -0.029338786
-0.48943955 -1.1617779 -1.2620952 -1.6766518 0.8846299 -1.0162717 -0.92070204 -1.6144013
1.7368351 -1.657606 -0.051691215 0.9592297 -1.2339213 0.40807894 0.7113905 -1.3423401
-1.803337 -1.3640201 -1.384552 1.0492427 0.5650099 1.3769437 1.4355308 0.89612395
-1.0736029 -1.0929213 -0.44851345 -2.0953298 -2.07725 1.1184573 -1.717643 1.4094403
-1.5848625 1.7651505 1.36162 -1.6424706 -0.07835099 -1.4379773 1.2122731 1.3025979
1.4773175 -1.5622091 -0.67016 0.42508918 1.563217 0.39311558 -0.4275154 2.3310323

value.2.bias f4 [32]
00000000: b50d 16bf 047d 9c3e dec6 a8be ad54 9c3e
00000010: 86fb e8be 80e6 763e b68b 2ebe face fb3e
00000020: ddca 4ebe e379 4ebf 8126 9e3e 31ea 293f
00000030: 07c0 3a3f bbdc 7e3d 487d 5fbe 95d3 4abe
00000040: 65dd c5bc 9fd8 03bf f06c 9dbe 2b2a 083f
00000050: 59cf abbe 6d2d a93e 5c27 c1be aa41 213d
00000060: 965d 0d3f 1979 423f 0dd2 34be 9cec f33d
00000070: 664d 1dbf f238 ffbe 5d8c d23e 1fd1 babe
-0.58614665 0.3056413 -0.32964224 0.30533352 -0.45504397 0.24111366 -0.17045483 0.49181348
-0.20194574 -0.80654734 0.3088875 0.6637297 0.7294926 0.062222224 -0.21825135 -0.19807275
-0.02415342 -0.5150241 -0.30747175 0.53189343 -0.3355663 0.3304247 -0.3772534 0.039369263
0.55220926 0.7596603 -0.17658253 0.11910364 -0.61446226 -0.49848133 0.41122714 -0.36487672

value.4.weight f4 [1, 32]
00000000: ebe5 cac0 26df 5240 07e7 45c0 b643 8540
00000010: 76fc bdc0 e37d 6540 010b 97c0 8672 9040
00000020: 68df 54c0 4670 a9c0 1feb 9140 bcdf 9a40
00000030: 77a5 9740 3e46 7940 3c57 86c0 1c19 7bc0
00000040: e0a2 6a40 f99e a6c0 9f48 20c0 b6b2 9d40
00000050: c686 bdc0 8965 8940 4522 7ec0 d19b 8440
00000060: 8854 3a40 ea78 9740 598a 81c0 5a0a da40
00000070: 6a7a 93c0 0f26 9bc0 83f2 6a40 a943 85c0
-6.340566 3.29487 -3.0922258 4.1645155 -5.937068 3.5858085 -4.7200933 4.51398
-3.3261356 -5.2949553 4.5599513 4.8398113 4.7389483 3.8949122 -4.1981487 -3.9234076
3.666191 -5.206906 -2.5044324 4.9280653 -5.922702 4.2936444 -3.9708416 4.1440206
2.9114094 4.73351 -4.048138 6.8137636 -4.608693 -4.848396 3.6710517 -4.1645093
