models/MountainCarContinuous-v0.pth (torch, 22973 bytes, 10 tensors)

policy.0.weight f4 [64, 2]
0	0xbe5d56f4	-0.21615201
1	0x40495267	3.1456544
2	0xbe9a5be5	-0.30148235
3	0xbfd6d0b2	-1.6782439
4	0xbf579ce8	-0.84223795
5	0xc0182746	-2.377397
6	0xbe8aabbb	-0.27084145
7	0xc0427a19	-3.0387022
8	0x3ea99401	0.3312073
9	0xc04ec720	-3.2309036
10	0xbdb32c86	-0.087487265
11	0xc032f97e	-2.7964778
12	0xbf13e07b	-0.57764405
13	0xc00faf84	-2.2450876
14	0x3e596076	0.21228203
15	0xc008907d	-2.1338189
16	0x3dd9e161	0.10638691
17	0x402b5529	2.6770728
18	0x3f083233	0.532016
19	0x40167331	2.3507807
20	0xbda25dfd	-0.07928083
21	0x405c7a9b	3.4449832
22	0x3dd6dbb3	0.10491123
23	0xc0569ab2	-3.3531919
24	0xbe8a8c64	-0.27060235
25	0xc02d3c50	-2.7068062
26	0xbf827cfa	-1.019439
27	0xc009e404	-2.154542
28	0xbfcc7a44	-1.5974813
29	0xbf850978	-1.0393515
30	0x3e6b7ec3	0.22997575
31	0xbffdf9e2	-1.9841883
32	0x3eca3b18	0.3949821
33	0xc0566c24	-3.3503504
34	0x3f0836cc	0.53208613
35	0x4014e8d5	2.326711
36	0xbea6c4f6	-0.32572144
37	0xc02b6d5a	-2.6785493
38	0xbd742259	-0.05960307
39	0xc04dd0dd	-3.215873
40	0xbe8bcb96	-0.2730376
41	0xc00b11bd	-2.1729577
42	0xbe36a7b2	-0.17837408
43	0xc017a4d6	-2.3694358
44	0xbe1298cb	-0.14316098
45	0x3fffa830	1.9973202
46	0x3eace027	0.33764765
47	0x4042a01e	3.0410228
48	0x3e7e710f	0.24847816
49	0xc03a58cc	-2.9116697
50	0x3f691d34	0.91060185
51	0xbfc00789	-1.50023
52	0x3f5081e2	0.81448185
53	0x3f84e67b	1.0382837
54	0xbf6acc70	-0.91718197
55	0xc01de65b	-2.4671848
56	0xbf0e019d	-0.5547121
57	0xc00f4869	-2.2387946
58	0x3e4256a8	0.18978369
59	0xc041e1d3	-3.0294082
60	0xbf3fbd04	-0.7489779
61	0xbfccfe53	-1.6015114
62	0x3e5a0466	0.2129074
63	0x403720ae	2.8613696
64	0x3f1dbb15	0.6161359
65	0x3f9a4b0e	1.2054155
66	0xbf7f579d	-0.9974306
67	0xbfeffa50	-1.8748264
68	0x3f338c86	0.70136297
69	0x3f57472d	0.8409298
70	0x3f45f260	0.7732296
71	0xc039339a	-2.8937745
72	0x3f015569	0.5052095
73	0x400f09c6	2.2349715
74	0x3ea93840	0.33050728
75	0xc04deb15	-3.2174733
76	0x3e8b168d	0.27165642
77	0x3ff514b1	1.914694
78	0x3f373efe	0.71580493
79	0x3f1e7e2f	0.6191129
80	0x3e5d520b	0.21613328
81	0xc014e016	-2.3261771
82	0xbd8813f0	-0.06644428
83	0xc048491a	-3.1294618
84	0x3e2abe16	0.16674075
85	0x401d80af	2.4609792
86	0xbea699e2	-0.32539278
87	0xbfed0f70	-1.8520336
88	0x3f26d2f4	0.6516564
89	0x402d5eff	2.708923
90	0xbe1dd633	-0.15413742
91	0x40314762	2.7699819
92	0xbeb9ed37	-0.36313793
93	0xbfa2222e	-1.2666681
94	0x3dcf8f01	0.10134698
95	0x4005ed6d	2.0926163
96	0x3dcec62c	0.10096392
97	0x4021d301	2.5285037
98	0x3e2c424a	0.16822162
99	0x403f3550	2.987629
100	0x3f00996d	0.5023411
101	0x40475a01	3.1148684
102	0x3f407f3e	0.75194156
103	0xc0474c7c	-3.1140432
104	0x3f02b392	0.5105525
105	0xc03a42be	-2.9103236
106	0x3ecd54a7	0.40103647
107	0xc03055b2	-2.7552304
108	0x3e35cfe3	0.17755084
109	0x400fc732	2.246533
110	0x3e0fa205	0.1402665
111	0x402233f8	2.534422
112	0xbedda085	-0.4328653
113	0x403a6fae	2.9130664
114	0xbf2510b2	-0.644786
115	0xbffab93f	-1.9587783
116	0xbe283580	-0.16426659
117	0xc03148d2	-2.7700696
118	0x3e80a13f	0.2512302
119	0xc055221e	-3.3302073
120	0x3e45a2ce	0.19300386
121	0xc04f49b1	-3.2388728
122	0x3f532d6b	0.8249118
123	0x3fb9c76c	1.4513984
124	0xbf1033a5	-0.56328803
125	0x402f093b	2.7349384
126	0x3f2030be	0.62574375
127	0xc001bcf4	-2.0271578

policy.0.bias f4 [64]
0	0xbe38d086	-0.18048295
1	0x3ed5e802	0.4177857
2	0x3e91baf1	0.28462937
3	0xbe1bfb9b	-0.15232699
4	0x3e297489	0.16548361
5	0xbefc3b85	-0.4926416
6	0xbe459d78	-0.19298351
7	0xbef42926	-0.47687644
8	0x3cf84fef	0.030311553
9	0xbe7b775c	-0.2455725
10	0xbe34d6d8	-0.17660081
11	0x3e4f42b0	0.20240283
12	0xbe4204ad	-0.18947096
13	0x3eb591f5	0.3546292
14	0x3d84196b	0.064501606
15	0xbec0f65d	-0.3768796
16	0x3e9eb510	0.30997515
17	0x3eac76db	0.3368443
18	0xbe671ce8	-0.2256962
19	0x3ce1d3a0	0.027566731
20	0xbea7dcfc	-0.32785785
21	0x3e225771	0.15853669
22	0x3e9300cc	0.28711545
23	0xbc030e2b	-0.007998983
24	0xbcd7bbac	-0.026334606
25	0x3ee6fc2c	0.45114267
26	0xbe6309e9	-0.22171749
27	0x3ee75cc0	0.4518795
28	0xbef0a1d5	-0.46998468
29	0x3e273a08	0.16330731
30	0x3dac3494	0.08408466
31	0x3c96cd30	0.018408388
32	0x3ec7f0d6	0.3905093
33	0x3ea385cd	0.3193802
34	0x3e40b05d	0.18817277
35	0x3ecf39a6	0.4047367
36	0x3e97c278	0.29640555
37	0x3e3de2c0	0.1854353
38	0x3eeb3346	0.45937556
39	0xbd5e29f4	-0.05423923
40	0xbe2b116a	-0.16705862
41	0xbdba625a	-0.0910079
42	0x3e83255f	0.2561445
43	0xbe250900	-0.16116714
44	0xbebd015d	-0.36915103
45	0xbd8601a6	-0.06543283
46	0xbe6a916c	-0.22907037
47	0x3eb45942	0.35224348
48	0x3ef7ce40	0.48399544
49	0x3dc99b73	0.09844103
50	0x3e5c4edc	0.21514457
51	0x3ecfff47	0.4062445
52	0x3e142ead	0.1447093
53	0x3d6cabd0	0.05778104
54	0xbdb1284b	-0.086502634
55	0x3ef4d89d	0.47821513
56	0xbe431ba7	-0.19053517
57	0xbe512226	-0.20423183
58	0xbe0284ba	-0.12745944
59	0x3e33f48e	0.17573759
60	0x3d700f9d	0.05860864
61	0xbe18a582	-0.14906886
62	0xbeb30e16	-0.34971684
63	0x3e80501a	0.25061113

policy.2.weight f4 [32, 64]
0	0x3c037d74	0.008025516
1	0xbe885cb2	-0.2663322
2	0xbe8741ac	-0.2641729
3	0xbece0c23	-0.40243635
4	0xbe676df3	-0.22600536
5	0x3e0bc680	0.1364994
6	0xbe3db489	-0.185259
7	0x3ce9f885	0.028560886
8	0x3e8d9a8b	0.2765697
9	0x3e688894	0.2270835
10	0x3e77cdeb	0.24199645
11	0xbe955b0f	-0.29171035
12	0xbd6faf32	-0.05851669
13	0xbdfb6db1	-0.12276781
14	0xbe5ef8de	-0.21774623
15	0x3e607398	0.21919096
16	0xbe2d0a36	-0.16898426
17	0x3bcc8876	0.0062418533
18	0xbd9676be	-0.07346867
19	0xbea4ba93	-0.32173595
20	0x3cd55023	0.026039189
21	0xbe3876d4	-0.1801408
22	0xbd909375	-0.07059375
23	0x3e067df7	0.1313399
24	0xbd98ed87	-0.0746718
25	0x3e01db53	0.12681322
26	0x3e83da1d	0.25752345
27	0xbe2ae15b	-0.16687529
28	0x3cf9426c	0.03042718
29	0x3e02afda	0.12762395
30	0xbea62fe7	-0.32458422
31	0x3e1bb568	0.1520592
32	0x3db0121c	0.08597204
33	0xbddadb4b	-0.10686358
34	0x3d7cfdb2	0.06176538
35	0xbe0f2d1f	-0.13982056
36	0x3e29ea7d	0.16593356
37	0xbe6f081d	-0.23342939
38	0xbe009e14	-0.12560302
39	0x3eaf879b	0.34283146
40	0x3e12fe68	0.14354861
41	0xbed1048d	-0.40823784
42	0x3d9e2255	0.07721392
43	0xbdb409df	-0.08790945
44	0x3e4c142e	0.19929573
45	0x3cb0f776	0.021602374
46	0x3df32ece	0.11874162
47	0xbdc997f8	-0.09843439
48	0xbd79425b	-0.060854297
49	0x3e82ecbf	0.25571248
50	0x3e82a309	0.2551501
51	0xbce13ff6	-0.02749632
52	0x3e25f282	0.1620579
53	0xbd02ed31	-0.031964485
54	0x3e085721	0.13314487
55	0xbe11a9fc	-0.14225
56	0x3de2b2fe	0.11069296
57	0xbe521ab0	-0.20517993
58	0xbd085cf8	-0.033291787
59	0xbd01fa29	-0.031732712
60	0xbea9f051	-0.3319116
61	0x3e2246e5	0.15847357
62	0x3e4c89c7	0.19974433
63	0x3dda456c	0.106577724
64	0x3ea51d08	0.32248712
65	0xbdfea82a	-0.124344185
66	0xbe675e8c	-0.2259466
67	0xbf20852b	-0.627032
68	0xbf53473a	-0.8253056
69	0xbc6c81cf	-0.014435246
70	0xbe552999	-0.2081665
71	0x3dd23c0e	0.10265361
72	0x3f3af925	0.73036414
73	0x3c96e48c	0.018419527
74	0x3ec240d6	0.3794009
75	0xbee889e5	-0.45417705
76	0xbed6c414	-0.4194647
77	0xbd8217dd	-0.06352208
78	0xbdc1d477	-0.094643526
79	0x3db0b9c6	0.086291835
80	0xbec6ae72	-0.38804966
81	0x3e3d1a8a	0.18467155
82	0xbe78944c	-0.24275321
83	0xbf559af2	-0.8343955
84	0xbe6db642	-0.23214057
85	0xbdec8b85	-0.11550049
86	0x3d90e5cc	0.0707508
87	0x3ef8a900	0.48566437
88	0xbe204e25	-0.1565481
89	0xbe23444d	-0.15944023
90	0x3ce6f186	0.02819134
91	0xbe27d7da	-0.16390935
92	0xbdaf7026	-0.085663125
93	0xbe574763	-0.21023326
94	0xbdfcf825	-0.12352017
95	0x3effc733	0.49956664
96	0xbd3bba1c	-0.045831785
97	0xbe085348	-0.1331302
98	0x3dbb1836	0.09135477
99	0xbecd0037	-0.40039226
100	0x3e433ae0	0.19065428
101	0xbf517dfa	-0.8183285
102	0x3d1b969c	0.03798543
103	0x3d73c953	0.05951817
104	0xbe120c59	-0.14262523
105	0xbf5481f2	-0.8301078
106	0x3e24a2ac	0.1607768
107	0xbe057d47	-0.13036071
108	0x3e547711	0.20748545
109	0x3f828090	1.0195484
110	0x3da7f2c3	0.082006
111	0xbd8cc53e	-0.068735585
112	0x3cbef84b	0.023311755
113	0x3f4f1cce	0.8090333
114	0x3ec6ea85	0.388508
115	0xbed05d16	-0.4069602
116	0xbe1b5cb9	-0.1517209
117	0xbeaa7976	-0.33295792
118	0x3e621d1d	0.22081418
119	0x3db04f9e	0.08608936
120	0x3f1a0c78	0.60175276
121	0xbe2df355	-0.16987355
122	0xbef17f1a	-0.47167283
123	0xbf172832	-0.5904571
124	0xbf921f15	-1.1415735
125	0x3da92378	0.08258718
126	0x3ecf204f	0.40454337
127	0xbe2febc4	-0.17179781
128	0x3f92118a	1.1411602
129	0xbe30af2f	-0.17254327
130	0xbdb8212a	-0.089907005
131	0xbeacaf72	-0.33727604
132	0xbfe2eb0e	-1.7727983
133	0xbe15f2d1	-0.14643408
134	0x3c80bad6	0.01571409
135	0xbc815293	-0.015786445
136	0x3f58a54b	0.8462722
137	0x3dc133b9	0.094336934
138	0x3f27d3b0	0.65557384
139	0xbf3d5677	-0.7396006
140	0xbe1379b1	-0.1440189
141	0xbe396319	-0.18104209
142	0xbc35416d	-0.011062962
143	0xbde5fd7f	-0.11229991
144	0xbf622248	-0.8833356
145	0xbd45e5ae	-0.048314743
146	0xbe5564dd	-0.20839258
147	0xbf857600	-1.0426636
148	0xbdcede7d	-0.1010103
149	0xbe98fe01	-0.2988129
150	0xbd09d862	-0.033653624
151	0x3ece81a7	0.40333292
152	0xbf12ad41	-0.57295614
153	0xbf286e4e	-0.6579331
154	0xbd6e2e5a	-0.058149673
155	0xbe24fdd1	-0.16112448
156	0x3e5ec45e	0.21754596
157	0xbf85dd3f	-1.0458144
158	0xbdd7ade9	-0.105312176
159	0x3f1e7ed7	0.6191229
160	0xbe6f0ae6	-0.23344001
161	0xbd3badda	-0.045820095
162	0xbe9785bc	-0.2959422
163	0xbf88393a	-1.0642464
164	0xbe009c62	-0.12559655
165	0xbfd98610	-1.6994038
166	0xbb0685ed	-0.0020526603
167	0xbc80a5a2	-0.01570398
168	0xbdf50bf9	-0.11965174
169	0xbf754eb8	-0.9582324
170	0x3e70c648	0.23513138
171	0x3d96e2a3	0.07367446
172	0x3db8d4f1	0.0902499
173	0x40016a25	2.0221035
174	0x3daae1e4	0.083438665
175	0x3d47b977	0.048760857
176	0xbd94128e	-0.072301015
177	0x3f3f8650	0.7481432
178	0x3e74eef3	0.23919277
179	0xbf81c2b2	-1.0137541
180	0xbf3bdbba	-0.7338215
181	0xbf2df0c9	-0.67945534
182	0x3ea94e27	0.33067438
183	0x3d213fdb	0.039367538
184	0x3fa313d5	1.2740427
185	0x3db6c1d0	0.089236856
186	0xbed191d9	-0.40931585
187	0xbfd28a55	-1.6448466
188	0xbff946ae	-1.9474695
189	0xbd6ef0cb	-0.058335107
190	0x3f80f252	1.007395
191	0xbf2cb3b5	-0.6746171
192	0x3efa3c52	0.48874146
193	0xbe84d62e	-0.25944656
194	0xbe3fcafd	-0.18729778
195	0x3f0b4ce3	0.54414195
196	0xbe30545d	-0.17219682
197	0x3eb1a555	0.3469645
198	0x3e6d6a33	0.23185043
199	0x3e5aa608	0.21352398
200	0xbe936bc4	-0.28793156
201	0x3e342789	0.17593206
202	0x3e9df5a1	0.30851462
203	0xbeb461a5	-0.35230747
204	0x3edd8b61	0.432704
205	0xbe2da4d8	-0.16957414
206	0xbe421297	-0.18952404
207	0x3e99bebc	0.3002833
208	0xbef61a81	-0.48067096
209	0xbece4be9	-0.4029229
210	0x3efd8623	0.495164
211	0x3de64a35	0.112446226
212	0x3f458126	0.7715019
213	0xbe4aa8c4	-0.19790941
214	0xbe76a738	-0.24087226
215	0xbd8803f2	-0.066413775
216	0x3e8554fc	0.260414
217	0xbed5d947	-0.41767332
218	0x3e7f3d19	0.2492565
219	0xbe47ebc5	-0.19523533
220	0x3f1debc6	0.61687887
221	0xbf057a81	-0.5214005
222	0xbcff622f	-0.031174747
223	0xbdf76255	-0.12079302
224	0xbf0a1639	-0.5394016
225	0xbe72916b	-0.23688285
226	0xbe4f92e7	-0.20270883
227	0xbe785be4	-0.24253803
228	0xbecf0772	-0.40435368
229	0xbe52dd1f	-0.20592164
230	0xbefef78c	-0.49798238
231	0x3d9b5258	0.07584065
232	0x3dd04d87	0.10171037
233	0x3f2dd694	0.67905545
234	0xbf144d96	-0.57930887
235	0x3ecd361d	0.40080348
236	0x3da0a961	0.078448065
237	0x3d04b759	0.032401416
238	0x3e89007b	0.2675818
239	0xbe9886f2	-0.29790455
240	0xbede2e34	-0.43394625
241	0xbf12419a	-0.5713135
242	0xbeceb67a	-0.40373594
243	0xbea36e4a	-0.3192008
244	0x3bbc7887	0.0057516727
245	0x3d6f60d1	0.05844194
246	0x3e050b12	0.12992504
247	0xbeff2e78	-0.4984014
248	0x3df40c9c	0.119164675
249	0x3e8f806d	0.2802767
250	0x3f025da6	0.50924146
251	0xbe931f43	-0.28734788
252	0x3e7aed6b	0.2450463
253	0x3e06f2dc	0.13178581
254	0x3ebd1068	0.3692658
255	0xbeac7d1f	-0.3368921

policy.2.bias f4 [32]
0	0xbcf4c2c5	-0.02987803
1	0xbdda1f84	-0.106505424
2	0xbda526f6	-0.08064072
3	0xbeb15b34	-0.34639895
4	0xbd509ce5	-0.050930876
5	0x3cc87cc0	0.024473548
6	0xbdb91698	-0.090375125
7	0x3deda3cd	0.11603508
8	0x3e4005c1	0.18752195
9	0xbb75a05c	-0.0037479615
10	0x3cef9f0c	0.029250644
11	0xbd768f6a	-0.060195364
12	0xbda3d28a	-0.079991415
13	0xbd05a48f	-0.03262764
14	0x3b599f70	0.0033206604
15	0x3b2bcd9e	0.0026215087
16	0x3d4afe8b	0.049559157
17	0x3d3812e4	0.04493989
18	0xbea01a57	-0.31270096
19	0xbdd75f27	-0.10516196
20	0xbdfa19d3	-0.12211957
21	0x3ded4e82	0.1158724
22	0xbe18bb9f	-0.14915322
23	0x3e0c76c2	0.13717178
24	0xbe12d1d0	-0.1433785
25	0x3d1446a5	0.036200184
26	0xbe8ec495	-0.27884355
27	0xbdf0d2dc	-0.11758968
28	0xbda33638	-0.07969326
29	0x3ca5c095	0.020233432
30	0x3e41d273	0.18927936
31	0x3e083641	0.13301946

policy.4.weight f4 [1, 32]
0	0x3d89ab6e	0.06722151
1	0x3d6cf8eb	0.057854574
2	0x3ee6f9b2	0.45112377
3	0xbe4bd642	-0.19905952
4	0xbe9cb240	-0.30604744
5	0xbe25b668	-0.16182864
6	0x3d29974e	0.04140406
7	0x3eb419dd	0.35175982
8	0x3e8e7cb1	0.27829507
9	0x3e10b38c	0.14130992
10	0x3e1a18c6	0.15048513
11	0x3e5bcbd5	0.21464474
12	0xbdd3287d	-0.10310457
13	0x3dcf59e2	0.10124566
14	0xbaf15796	-0.0018412943
15	0xbe228cfb	-0.15874092
16	0x3da08a88	0.07838923
17	0x3e526cab	0.20549266
18	0xbdbfd25f	-0.09366297
19	0x3df74202	0.12073137
20	0x3e913a67	0.2836487
21	0x3c96d04c	0.01840987
22	0xbe497033	-0.19671707
23	0xbdfa023f	-0.1220746
24	0x3eedfdcb	0.4648269
25	0x3dfa5378	0.12222952
26	0xbdca0f5a	-0.09866209
27	0x3ab69cf9	0.001393228
28	0xbdc5df4e	-0.096617326
29	0x3da001ac	0.07812819
30	0x3e421bee	0.18955967
31	0xbdec9a99	-0.11552925

value.0.weight f4 [64, 2]
0	0xbea455cc	-0.32096708
1	0x3fa7c3d9	1.3106643
2	0x3feb909a	1.8403504
3	0x40c5f947	6.1866794
4	0xbdd9cfdf	-0.106353514
5	0x405a3696	3.4095817
6	0xbef96794	-0.48711836
7	0x3fcf0f3e	1.6176527
8	0x3ffd2055	1.9775492
9	0x40a4278e	5.1298285
10	0x3ffd8427	1.9805955
11	0x40db38dd	6.8506913
12	0x3edeb441	0.43496898
13	0x40ea73c7	7.326633
14	0xbfe07741	-1.7536393
15	0xc07bdbbe	-3.935287
16	0x3e753b34	0.23948365
17	0x40ddff3e	6.9374075
18	0xbfdf8a8a	-1.7464154
19	0x3fdb1e09	1.7118541
20	0x3dbdadf2	0.09261693
21	0x40daa611	6.832772
22	0xbff493f3	-1.910765
23	0xc0c28adf	-6.079452
24	0x3fb0d3a1	1.3814584
25	0xc091a4ba	-4.551358
26	0x3ed66fe6	0.41882247
27	0xc072a8a6	-3.7915435
28	0xbfc89380	-1.5670013
29	0xc087e45d	-4.2466264
30	0x3fd34de4	1.6508145
31	0x402b3884	2.6753244
32	0xbfe22ac7	-1.7669305
33	0xc0db418d	-6.851752
34	0x3eed5ef0	0.46361494
35	0xc000969e	-2.009193
36	0x3f97dc13	1.1864036
37	0xc0954013	-4.6640716
38	0xbfe3aa2e	-1.778631
39	0xc04af0ed	-3.170955
40	0x3d128e93	0.0357805
41	0x40cc92bd	6.3929124
42	0x3fafd9af	1.3738307
43	0x408d6ddb	4.41966
44	0xbff78dc1	-1.9340135
45	0xc0ae60b9	-5.449307
46	0x3f83fc79	1.0311424
47	0xc096123b	-4.6897254
48	0xbff07c91	-1.8788015
49	0xc0cee3e1	-6.4653172
50	0x3f835c4a	1.0262539
51	0x40a84233	5.258081
52	0x3fefc17f	1.8730925
53	0x40ad1e66	5.4099607
54	0x3fbe5f32	1.4872801
55	0x40c75430	6.229027
56	0xbde5826a	-0.11206515
57	0xc0d8f8cb	-6.78037
58	0xbf6ad6a2	-0.91733754
59	0xc0ce1f4a	-6.4413195
60	0x3f84a962	1.0364192
61	0xc0bcdfb6	-5.9023085
62	0xbf2bf73f	-0.6717414
63	0x400d5a5d	2.2086403
64	0xbeb6d8b1	-0.35712197
65	0x40f1f380	7.560974
66	0xbf6d202f	-0.92627233
67	0x40933a83	4.6008925
68	0xbe7ac978	-0.24490917
69	0xc0f3b57e	-7.615905
70	0xbeb0c03d	-0.34521666
71	0x3f972773	1.1808914
72	0xbfed6331	-1.8545896
73	0xc0bd4367	-5.914478
74	0xbf132c22	-0.57489216
75	0x3fe84d5c	1.8148608
76	0xbfd366bc	-1.6515727
77	0x4076d6d2	3.8568616
78	0xbe7a66ce	-0.2445328
79	0xbf114a2f	-0.5675382
80	0x3f121ed9	0.5707832
81	0xbfd09827	-1.6296433
82	0x3fd11b17	1.6336392
83	0xbfa87b78	-1.316268
84	0x400306d0	2.0472908
85	0x40dcd20b	6.90064
86	0x4005860e	2.086307
87	0x40a3f540	5.1236877
88	0xbf2d950e	-0.67805564
89	0x400f7106	2.2412734
90	0x3f8f60b2	1.1201384
91	0x40e0c991	7.0246053
92	0xbf246395	-0.6421445
93	0x402ab834	2.6674929
94	0x3fa9ebbb	1.3275064
95	0xc0a20b5d	-5.063887
96	0x3f0536b6	0.5203661
97	0xbff64c2f	-1.9241999
98	0x3f867869	1.0505496
99	0xc0a06e02	-5.0134287
100	0xc01a767c	-2.4134817
101	0xc0bae92e	-5.8409643
102	0xbf22b992	-0.6356441
103	0x40d5610a	6.6680956
104	0x3ffc1db5	1.9696566
105	0x40c6ab44	6.2084064
106	0xbdbf0692	-0.09327425
107	0x40cf2947	6.4737887
108	0xbff30668	-1.898633
109	0xc09c91e3	-4.8928084
110	0x3e8a3425	0.26992908
111	0xc0f2e9b3	-7.5910277
112	0x3ff931b6	1.9468296
113	0x40bb5247	5.8537936
114	0x3feb4d21	1.8382913
115	0x40c7b162	6.240403
116	0x3ee4a4dd	0.4465703
117	0xbf8ab6bd	-1.0837017
118	0xbe19e324	-0.15028054
119	0x3fad898b	1.35576
120	0xc00d5bf7	-2.208738
121	0xc099bda1	-4.804398
122	0xc000eaa0	-2.0143204
123	0xc0d1996a	-6.5499773
124	0x3eb4dfe9	0.3532708
125	0xbf89a0f2	-1.0752242
126	0xbe8cb335	-0.27480474
127	0x4099ed5c	4.8102245

value.0.bias f4 [64]
0	0x3edc18b8	0.4298761
1	0x3fb32aa9	1.3997394
2	0xbf8435e0	-1.0328941
3	0x3f32de7d	0.6987074
4	0xbe8a0d1c	-0.26963127
5	0xbc60a473	-0.013711083
6	0x3dfbb78f	0.122908704
7	0xbfa02a31	-1.2512876
8	0x3dc965af	0.09833848
9	0xbf5d8f5a	-0.8654686
10	0xbd8083ad	-0.06275115
11	0x3e7ee113	0.24890547
12	0x3f0d7324	0.55253816
13	0xbd204e82	-0.03913737
14	0x3e92d303	0.28676614
15	0x3f8b23af	1.0870265
16	0x3eb40d17	0.35166237
17	0xbebe1835	-0.37127843
18	0x3ee9f158	0.45691943
19	0xbfa0e51f	-1.2569922
20	0xbdfa608e	-0.122254476
21	0xbe278a90	-0.16361451
22	0x3e373b18	0.17893636
23	0x3ebc405e	0.36767858
24	0x3ef69771	0.48162416
25	0xbefade62	-0.4899779
26	0xbebdd647	-0.37077543
27	0xbe7efe06	-0.2490159
28	0xbcec1691	-0.028819354
29	0x3e95dceb	0.2927011
30	0x3ef8f7c8	0.48626542
31	0x3e241dfc	0.16027063
32	0xbe7e8425	-0.24855097
33	0xbe97fbaf	-0.29684207
34	0xbdefcae2	-0.11708619
35	0x3f396425	0.72418433
36	0x3e8b44b7	0.27200863
37	0x3eead17f	0.45862958
38	0xbf2dad5d	-0.67842656
39	0x3fcd447b	1.6036524
40	0xbf0807b9	-0.53136784
41	0x3f3d8598	0.7403197
42	0x3d4db20b	0.050218623
43	0xbdd8e1f2	-0.10589971
44	0x3ef806d5	0.48442712
45	0x3f348906	0.7052158
46	0x3dc02b06	0.09383206
47	0x3f0742e8	0.52836466
48	0xbeaaa47a	-0.3332861
49	0x3ee96984	0.45588315
50	0xbee8033a	-0.45314962
51	0xbea70e3f	-0.32628056
52	0xbe6a0fe7	-0.22857629
53	0xbd8fb256	-0.07016437
54	0x3ed3b0fa	0.4134596
55	0x3e4f14de	0.20222804
56	0xbeb13f1d	-0.34618464
57	0xbe6322b3	-0.22181205
58	0xbf3ac8bf	-0.72962564
59	0x3f1cc0b5	0.6123155
60	0x3f10937d	0.5647505
61	0x3d7c8a9f	0.061655637
62	0xbf45ed41	-0.77315146
63	0xbf491322	-0.7854482

value.2.weight f4 [32, 64]
0	0x3dc84b1a	0.097799495
1	0xbe6cfbb1	-0.23142888
2	0x3f23dd25	0.64009315
3	0xbf22e1ef	-0.63626
4	0x3c2299d6	0.009924373
5	0xbeb6cd98	-0.3570373
6	0x3ea70fd8	0.32629275
7	0xbdf38c72	-0.11892022
8	0x3e8d2113	0.27564296
9	0x3e12529f	0.1428933
10	0x3f1c1fe0	0.6098614
11	0x3e5ef0a8	0.2177149
12	0xbe899398	-0.26870418
13	0x3e13f9a7	0.14450704
14	0xbea8d893	-0.32977733
15	0xbe658b0a	-0.2241632
16	0x3c3f03c8	0.011658616
17	0x3d09cf33	0.033644866
18	0xbe58ce13	-0.21172361
19	0x3d9404c5	0.07227472
20	0x3f69ac57	0.91278595
21	0x3f337156	0.7009481
22	0xbcd4f727	-0.025996758
23	0x3d7e7f6d	0.06213324
24	0xbdd659fc	-0.10466382
25	0x3eafcf2a	0.3433774
26	0x3e216f7d	0.15765186
27	0x3e3e0e07	0.18560039
28	0xbed5ab18	-0.41732097
29	0xbe637e36	-0.22216114
30	0xbec95406	-0.39321917
31	0xbf217bc2	-0.63079464
32	0x3efea083	0.49731836
33	0xbe40c254	-0.1882413
34	0xbf5e3746	-0.8680309
35	0xbef1ac63	-0.47201833
36	0xbdac67c6	-0.08418231
37	0xbf024156	-0.50880945
38	0x3db450ad	0.0880445
39	0xbf0c5fe7	-0.54833835
40	0x3f7f46c9	0.99717385
41	0xbe2a0ebf	-0.16607188
42	0xbe7e863b	-0.24855892
43	0xbe37fbb0	-0.17967105
44	0xbfbbf0a9	-1.4682819
45	0x3eac85fa	0.33695966
46	0xbf1713f2	-0.5901481
47	0x3b46cc4e	0.0030334177
48	0x3f0fed04	0.5622103
49	0xbef70264	-0.4824401
50	0x3e9d1ee6	0.30687636
51	0x3e5d8710	0.21633554
52	0xbce887ed	-0.028385127
53	0x3e847dd3	0.25877246
54	0xbe87af28	-0.2650082
55	0xbf01a1eb	-0.5063769
56	0xbd6e3a20	-0.0581609
57	0x3dcd3a3a	0.100208715
58	0x3edf3b9a	0.4360016
59	0xbe697cef	-0.22801565
60	0xbd87447a	-0.06604858
61	0x3e0b2d32	0.1359146
62	0x3ed50333	0.41604003
63	0x3f1aa5c1	0.6040917
64	0xbe9a0e7c	-0.30089176
65	0x402b865c	2.6800756
66	0x3e84cb0e	0.25936168
67	0xbf6bf78c	-0.921746
68	0xbf1fc065	-0.62402946
69	0xbf17e8df	-0.5933971
70	0x3f89bd53	1.0760902
71	0xc0198d87	-2.3992631
72	0x40038bf8	2.055418
73	0xbf850553	-1.039225
74	0x3f685e9a	0.9076935
75	0x3f4d9b41	0.80315024
76	0x3e534578	0.20631969
77	0xbd82ed2a	-0.06392892
78	0x3df70eaa	0.12063344
79	0x3ffc986c	1.9734015
80	0x3f0fab98	0.56121206
81	0x3ef2a17c	0.47388828
82	0xbe13378d	-0.1437666
83	0xc00c9a82	-2.1969304
84	0x3f9d0195	1.2266108
85	0x3dab6c27	0.08370238
86	0x3f122929	0.57094055
87	0xbe0eb231	-0.13935162
88	0x3f001e83	0.5004656
89	0xbe17aeb5	-0.14812739
90	0xbf130e35	-0.57443553
91	0xbea2cd7f	-0.31797406
92	0xc002b755	-2.0424397
93	0xbc70b205	-0.014690881
94	0xbf247666	-0.6424316
95	0xbef621fe	-0.4807281
96	0x3fdd6cc9	1.7298824
97	0xbdded4a5	-0.108804025
98	0xc0011ee0	-2.0175095
99	0xbf085333	-0.5325195
100	0x3f2ea251	0.68216425
101	0xbfb1b637	-1.3883733
102	0xbec7b71a	-0.39006883
103	0xbeee676b	-0.46563277
104	0x3f9a28c3	1.204369
105	0x3f91231b	1.1338838
106	0xbf131a01	-0.57461554
107	0xbf18871d	-0.59581167
108	0xbfea490d	-1.8303543
109	0x40240320	2.5626907
110	0xbec14d00	-0.3775406
111	0x3d66631c	0.05624686
112	0x3ee26e48	0.44224763
113	0xbeff4ce5	-0.49863353
114	0x3f238b9f	0.6388492
115	0x3f9af034	1.2104554
116	0xbf44bc62	-0.7684995
117	0x3fc31a6c	1.5242438
118	0x3f2c15fd	0.6722105
119	0xbfd8c5c2	-1.6935351
120	0xbf5b9e6d	-0.85788614
121	0xbf24848e	-0.6426476
122	0x3f72c6e5	0.9483474
123	0xbe2424f4	-0.16029721
124	0x3f0e3ac2	0.5555841
125	0x3f3024d0	0.6880617
126	0x3f0dc5f5	0.55380183
127	0x3e3e6eeb	0.18597
128	0x3f2d650f	0.6773233
129	0xbf3696de	-0.71323955
130	0xbf4e7f88	-0.8066335
131	0x3f8d60f5	1.1045214
132	0x3e9ae5c7	0.3025343
133	0x3f1bc02a	0.60840094
134	0xbec2f281	-0.3807564
135	0x3f8e467e	1.1115263
136	0xbf4bf631	-0.79672533
137	0x3f16ca18	0.5890212
138	0xbf4b5cd7	-0.7943854
139	0xbf041005	-0.51586944
140	0xbebeb81b	-0.37249836
141	0xbefb08e2	-0.49030215
142	0x3e6b4314	0.22974807
143	0xbf443786	-0.7664722
144	0xbeac45ec	-0.33647096
145	0xbf5cc407	-0.86236614
146	0xbe72e15f	-0.23718785
147	0x3f4d6c5f	0.80243486
148	0xbf9582b7	-1.1680516
149	0xbea5561c	-0.3229226
150	0xbea03632	-0.31291348
151	0xbeae49a0	-0.34040546
152	0xbdc4e37b	-0.09613701
153	0xbe858046	-0.26074427
154	0x3d90678d	0.07051001
155	0xbce11777	-0.02747701
156	0x3f1dd8b5	0.61658794
157	0x3e70ebaa	0.23527399
158	0x3ea5190f	0.3224568
159	0x3f85111e	1.0395849
160	0xbfa08991	-1.2541982
161	0x3f106e32	0.56418145
162	0x3f7c099e	0.98452175
163	0x3f654a6d	0.8956669
164	0xbec5e1a3	-0.3864871
165	0x3fe54827	1.7912644
166	0x3edd5c99	0.4323471
167	0x3f65e931	0.89808947
168	0xbfe00317	-1.7500943
169	0xbf5b952c	-0.85774493
170	0x3f35d7a1	0.7103215
171	0x3ef15e67	0.47142336
172	0x400ed0df	2.2314985
173	0xbf6df625	-0.9295371
174	0x3f633a58	0.887609
175	0xbec14736	-0.37749642
176	0xbf869d0e	-1.0516679
177	0x3de7df63	0.113219045
178	0xbedcc330	-0.43117666
179	0xbef2f219	-0.4745033
180	0x3f202218	0.6255202
181	0xbf09f8a2	-0.5389501
182	0xbdc23512	-0.094827786
183	0x3fa29eba	1.270469
184	0x3eed2ce7	0.4632332
185	0x3eba6cbf	0.36411092
186	0xbf8ae2e0	-1.0850487
187	0x3f111ef4	0.56687856
188	0xbe19fc05	-0.15037544
189	0xbf172172	-0.5903541
190	0xbf61e4ba	-0.88239634
191	0xbf35011b	-0.7070481
192	0x3de3273f	0.1109147
193	0x3f2eeb89	0.6832815
194	0xbe5265dc	-0.20546669
195	0x3f43e885	0.7652667
196	0x3bda7875	0.0066671916
197	0x3db35bc1	0.08757735
198	0xbcac1df8	-0.021010384
199	0xbf44f8e8	-0.769423
200	0x3e873cb0	0.26413488
201	0xbee62240	-0.44948006
202	0xbcc75892	-0.024334226
203	0x3c819338	0.01581727
204	0x3f1ef697	0.62095016
205	0x3eb05074	0.3443638
206	0x3e586929	0.21133865
207	0x3f1bb052	0.6081592
208	0x3e6684c1	0.22511579
209	0x3e1c943b	0.1529092
210	0x3f1fcb8d	0.6241997
211	0xbf0832f6	-0.5320276
212	0xbe73dcca	-0.23814693
213	0x3df9a63c	0.1218991
214	0xbd04afdd	-0.03239428
215	0x3edcae6b	0.4310182
216	0x3e58c473	0.2116869
217	0xbe96611f	-0.29370973
218	0xbc9de266	-0.019272994
219	0xbdedc702	-0.11610223
220	0xbd516258	-0.05111918
221	0x3e1c6d23	0.15276007
222	0x3ecb5572	0.39713627
223	0xbe89abfb	-0.26889023
224	0xbe5db6b2	-0.21651724
225	0xbf0ed3e9	-0.557921
226	0x3d8d822f	0.06909596
227	0x3f824c43	1.0179523
228	0xbde7d74b	-0.11320361
229	0x3d171eae	0.036894493
230	0xbecfe3f0	-0.4060359
231	0x3ebe33f1	0.37149003
232	0xbe3af329	-0.1825682
233	0x3f1d4a28	0.6144128
234	0xbe05fc80	-0.13084602
235	0xbbc62512	-0.0060468996
236	0x3ea377d0	0.31927347
237	0x3f47bc51	0.78021723
238	0xbec53540	-0.3851719
239	0x3ee84f69	0.45373085
240	0x3e98940a	0.29800445
241	0x3ed6688b	0.41876635
242	0x3dac3e3a	0.08410306
243	0xbea01ef8	-0.31273627
244	0x3d548c4c	0.05189161
245	0xbdf4ff10	-0.11962712
246	0x3c855b23	0.016278809
247	0x3e5b07c1	0.21389677
248	0x3ca7d1ed	0.020485843
249	0x3e0d082a	0.13772646
250	0xbf71dbd9	-0.94476086
251	0x3f393ee4	0.7236159
252	0x3e198280	0.14991188
253	0x3e47d121	0.1951337
254	0xbf64289d	-0.8912447
255	0xbeb8f8fd	-0.36127463

value.2.bias f4 [32]
0	0xbefd7868	-0.49505925
1	0xbe9c4068	-0.30517888
2	0x3f337452	0.70099366
3	0x3eae71d3	0.34071216
4	0xbf45cfa2	-0.7726995
5	0x3f312028	0.6918969
6	0x3ef8b971	0.4857898
7	0xbec8a9ad	-0.39191952
8	0x3e745850	0.23861814
9	0xbef44cef	-0.47714946
10	0xbf14840b	-0.5801398
11	0x3f2ecfa2	0.6828557
12	0xbe0f9eda	-0.14025441
13	0xbd83f78b	-0.064436994
14	0xbf07c670	-0.53037167
15	0x3c0eb7e8	0.008710839
16	0xbeea13fd	-0.45718375
17	0xbebae666	-0.36503905
18	0x3ebc546b	0.36783156
19	0x3f68a8d2	0.908826
20	0xbea93e01	-0.33055118
21	0x3f121cef	0.570754
22	0x3d31651c	0.043309316
23	0xbf55a04c	-0.8344772
24	0xbf6df710	-0.9295511
25	0xbe70f2d1	-0.23530127
26	0x3ed254fc	0.41080463
27	0x3e930cbc	0.28720653
28	0xbee4c338	-0.4468019
29	0x3f0fc19e	0.5615481
30	0x3f4b1306	0.793259
31	0x3ee9016f	0.45508906

value.4.weight f4 [1, 32]
0	0xc07cd5d8	-3.950552
1	0xc0738f97	-3.805639
2	0x40867622	4.2019205
3	0x409e8ec3	4.954927
4	0xc090eec6	-4.529147
5	0x406b6cdd	3.6785195
6	0x4080a499	4.0200925
7	0xc0a15a80	-5.0422974
8	0xc03d22c2	-2.9552464
9	0xc0ae59b3	-5.4484496
10	0xc09ffb16	-4.9994
11	0x40a0817c	5.015806
12	0xc047518e	-3.1143527
13	0xc0418297	-3.0235956
14	0xc085e6d7	-4.1844287
15	0x4046767c	3.1009817
16	0xc03d5d8e	-2.9588351
17	0xc03fb4aa	-2.9954019
18	0x40485172	3.129971
19	0x40889bfd	4.2690415
20	0xc04622bb	-3.0958698
21	0x409e3a87	4.9446445
22	0x40a00159	5.0001645
23	0xc027f5cb	-2.624377
24	0xc057f767	-3.3744752
25	0xc03388d3	-2.805226
26	0x4089262f	4.285911
27	0xc0517de8	-3.2733097
28	0xc07d0e71	-3.9540064
29	0x409959eb	4.7922263
30	0x40310ba6	2.766336
31	0x40a41aca	5.12827
