models/Pendulum-v0.model (torch_old, 21018 bytes, 10 tensors)

policy.0.weight f4 [64, 3]
000000 49 fa 7e bf 09 df 67 3f 46 92 8b be 94 d5 66 3f
       -0.99600655 0.905747 -0.27260035 0.90169644
000010 c2 e4 f2 be 06 aa 98 be 15 c0 a8 bf e9 95 ed 3f
       -0.47440153 -0.29817218 -1.3183619 1.8561374
000020 e7 ab 64 be 18 c0 1e bf 51 c1 e5 bf d2 06 96 bf
       -0.223312 -0.6201186 -1.794962 -1.1720831
000030 24 57 84 3e 56 b6 bc 3f 9d b5 bb 3e f3 08 45 bf
       0.25847733 1.4743145 0.36661997 -0.7696678
000040 0e 64 87 bf cc 82 82 be ca 74 8a 3f 45 3f 22 3f
       -1.0577409 -0.25490415 1.0816891 0.6337779
000050 11 cf 81 3e 53 ae 23 bf e7 84 a7 3f 9c e5 d8 bd
       0.25353292 -0.6393787 1.3087434 -0.105906695
000060 ea bf 2f be 1e e8 cf 3f 5a c5 e2 3e db 62 8a 3f
       -0.17163053 1.6242712 0.44291192 1.0811418
000070 b5 86 81 3e 5b 72 88 3e 40 5c a8 3f d2 65 ad be
       0.25298086 0.26649746 1.3153152 -0.33866745
000080 b7 05 48 bf 79 39 bb be f7 8e 92 bf bc 95 aa be
       -0.7813372 -0.36567286 -1.144988 -0.33317363
000090 6a 1c 6f 3f df 5d bf 3f fd 5d 94 3e 6a 76 a8 be
       0.9340273 1.4950522 0.28977957 -0.32902843
0000a0 fc 12 d8 bf 34 5f b2 3e 14 da f4 be 56 e4 8a bf
       -1.6880794 0.3483826 -0.4782263 -1.0850933
0000b0 aa c2 98 be bc a8 f4 be d5 d1 f8 bf 38 c8 0e 3f
       -0.29836017 -0.47784984 -1.9439036 0.5577426
0000c0 a0 fc 64 3f 8b 25 6f 3f f8 ad c4 3e 6c 50 93 bf
       0.89447975 0.9341666 0.38413978 -1.1508918
0000d0 26 6b a8 bf 65 58 e5 3e 31 a3 3c bf 8e 41 1b bf
       -1.3157699 0.44794002 -0.7368651 -0.60646904
0000e0 cf 1b 86 3e 2d 00 60 bf f9 db b9 bf aa 6e d7 3e
       0.2619309 -0.8750027 -1.4520255 0.42076617
0000f0 d1 5c 99 3f 1e cf 6e bf 5e fa 45 3e b5 81 0d bf
       1.198145 -0.93284786 0.19333789 -0.5527604
000100 5c db 99 3f 94 aa e7 3e 7d d3 88 bf c4 45 42 3f
       1.2020068 0.45247328 -1.0689541 0.75887704
000110 c3 7b 7f 3e 66 0e d9 3e 02 8f 24 3f 0e 6b 36 bf
       0.24949555 0.42393798 0.6428071 -0.712571
000120 f0 5e cc 3d 2a 30 dc bf 17 d8 50 3b f6 ee 9f 3f
       0.099790454 -1.7202199 0.003186708 1.24948
000130 47 29 d1 bf 38 ee 83 3e 0e 60 25 be 3d c8 af bf
       -1.6340722 0.25767684 -0.16149923 -1.3732983
000140 5b e8 cb be ab 6c 38 3f b4 58 8f 3f bb 1a a0 3e
       -0.3982571 0.72040814 1.1198945 0.31270394
000150 af e5 5b bf 54 5c 09 c0 57 00 11 bf 42 9f 88 3e
       -0.85897344 -2.1462603 -0.56641144 0.26684004
000160 04 e2 55 be 8d 5e 49 3e e8 bf 85 bf f7 60 b8 3f
       -0.20887 0.19664975 -1.044919 1.4404591
000170 4b 50 bc be d0 c8 44 3f 37 80 65 bf 4b aa 86 3e
       -0.3678001 0.76868916 -0.89648765 0.26301798
000180 10 8e 51 3b 2d 33 b5 bf dc a6 b6 3e a5 25 6e bf
       0.0031975545 -1.4156243 0.3567418 -0.9302619
000190 cf 79 7a bf 74 22 8d be 63 c2 10 bf fb d7 5d be
       -0.97842115 -0.27565348 -0.5654661 -0.21664421
0001a0 4c 33 dd 3f ee cc b4 3f 70 1b 3a bf 30 82 56 be
       1.728128 1.412504 -0.72698116 -0.209481
0001b0 52 16 6d bf 7f 7b 14 bf 36 58 2f 3e 3e 56 96 bf
       -0.92612183 -0.5800094 0.17123494 -1.1745069
0001c0 ff ce 00 bf 83 c9 01 bf d3 91 27 bd cb 23 89 3f
       -0.5031585 -0.5069811 -0.040910553 1.0714048
0001d0 08 73 36 be 96 2e 09 bf 12 41 e6 3e 0e 4e b6 3e
       -0.17817318 -0.5358671 0.4497152 0.35606426
0001e0 52 ab 78 3e b2 cf fd 3f 21 42 8d be 56 b4 ea 3e
       0.24284104 1.9829009 -0.27589515 0.4584071
0001f0 9a 4d 38 be 00 a4 7e be 69 64 b3 3e 5b 26 97 3f
       -0.17998353 -0.24867249 0.35037544 1.180858
000200 f0 a5 b0 3e a3 f9 62 3e 9a ca 7a bf 18 80 ce be
       0.345016 0.22165541 -0.97965395 -0.40332103
000210 81 8e 8d bf 3c e1 1d 3f 49 6f 63 be 32 33 a2 bf
       -1.1059114 0.61671805 -0.2221042 -1.2671874
000220 ab db d0 3e 09 35 43 3f 83 64 4c 3f 7c 3b 3b 3f
       0.40792593 0.762528 0.7984087 0.7313764
000230 bb 89 50 be 6b d1 1c be 78 ca 22 bf e0 8f 2b 3f
       -0.2036504 -0.15314262 -0.6359019 0.6701641
000240 a0 d9 c3 bf c5 ec 1a bf 38 c2 a1 3e 46 46 8c bf
       -1.5300789 -0.6051753 0.3159349 -1.0958946
000250 a0 43 1b 3f c9 8d 6a 3e 15 74 43 bf d6 33 18 3d
       0.6065006 0.22905649 -0.76349 0.03715881
000260 9a 47 95 3e b2 67 4e bf 34 46 81 3f 16 1d d8 3e
       0.2915619 -0.80626976 1.0099549 0.4220969
000270 12 96 89 3e 54 b9 ad 3f 05 f0 f3 bf 89 2a 9d bf
       0.26872307 1.3572183 -1.9057623 -1.2278606
000280 18 4f ef 3f 25 29 cb be f4 1a c1 3e 12 d4 b4 bf
       1.8696012 -0.39679828 0.37715876 -1.4127219
000290 b8 59 96 bf ad 60 94 bf 4f b0 f4 3e ec 2b 50 be
       -1.174613 -1.1592003 0.47790763 -0.20329255
0002a0 6d 91 89 3c 9e be df bf b8 f0 e7 3e d8 30 1d 3f
       0.016792977 -1.7480047 0.4530084 0.61402655
0002b0 78 06 02 40 fc d5 47 3e f0 c2 03 c0 a7 9e 82 3f
       2.0316448 0.19515222 -2.058773 1.0204667
0002c0 7d 4a 19 bf a7 bb a4 3e 1a 97 3d be 70 e3 56 3e
       -0.59879285 0.32174417 -0.18514672 0.20985198
0002d0 5d c1 d8 bf 96 0d c8 3f 8e 81 91 be f1 3c 87 bf
       -1.693401 1.5629146 -0.28419155 -1.0565473
0002e0 00 85 28 3e 96 d8 a0 3e 5b 42 3c 3f cf c4 d0 3f
       0.16456985 0.31415242 0.7353875 1.6310061
0002f0 fd bf ba 3e d7 a9 4d bf b2 87 8f bf 41 ee 09 3e
       0.364746 -0.8033728 -1.1213286 0.13469793

policy.0.bias f4 [64]
000000 15 ca a0 3f 5a 2b 39 bf 59 49 bb 3d 29 8b 4e be
       1.256167 -0.72331774 0.09144849 -0.20170273
000010 66 4b d7 bd 77 cb fe 3e 73 54 81 bf 07 cc 0f bf
       -0.10512428 0.49764606 -1.0103897 -0.56170696
000020 53 6a 07 3e ca 6e 82 3e d5 c9 63 3f c4 1c bc 3e
       0.13224153 0.2547515 0.88979846 0.36740696
000030 1a 55 85 bf 0f c0 88 3e 37 71 bc 3e 92 59 a2 3e
       -1.0416596 0.2670903 0.36805126 0.31708962
000040 18 7b c8 3e 3f 92 38 bd 93 bb 9a 3f 60 73 3c be
       0.39156413 -0.045061346 1.2088493 -0.18403387
000050 75 5d 88 bf 12 2a ea 3e 6a 6d 35 3d 6c 46 10 3f
       -1.0653521 0.45735222 0.0442938 0.56357455
000060 20 4a 02 3f 72 22 e4 3e d8 53 10 be a4 54 a0 be
       0.50894356 0.4455753 -0.14094484 -0.31314576
000070 32 ad b4 be e2 25 87 3f af 47 0c be dd b5 20 bf
       -0.35288388 1.0558436 -0.1369922 -0.627775
000080 8d 16 a8 3e af 74 09 3f 38 c1 01 3f 04 02 5e be
       0.32829705 0.5369367 0.50685453 -0.21680456
000090 7c 54 1a 3f dc f1 88 bf 39 ee ab bd d3 f5 6c 3f
       0.6028516 -1.069881 -0.08395047 0.925626
0000a0 b3 43 42 3c e1 95 42 bf f8 12 48 bd 07 6f f6 bd
       0.011856961 -0.7600995 -0.048846215 -0.120328955
0000b0 96 5d 79 3f a2 71 39 bf d3 15 63 bf 15 2a 88 bf
       0.97408426 -0.72439015 -0.88705176 -1.0637842
0000c0 ae c3 80 3f 2a 70 a2 bd 91 0d 7d 3f ac 42 d6 3e
       1.0059717 -0.0793155 0.98848826 0.41847742
0000d0 b4 03 fc bd 70 89 28 bf 4f 84 0a 3f 83 57 66 3f
       -0.12305394 -0.65834713 0.54108137 0.8997728
0000e0 81 aa 6d 3d 95 b4 bf 3e 08 79 a9 be 6b f2 92 3f
       0.058023933 0.3744246 -0.33100152 1.148023
0000f0 e1 aa b6 be e0 1b 76 3f 05 f0 f8 be ec 50 2f 3f
       -0.35677245 0.96136284 -0.4862062 0.6848285

policy.2.weight f4 [32, 64]
000000 46 d1 8a 3f 7b cf e7 be 08 4c 45 3f a4 1d be be
       1.0845115 -0.45275483 0.7706914 -0.3713199
000010 83 47 bb be fa 29 12 3f cb d6 88 bf f6 f9 b2 bd
       -0.36577997 0.570953 -1.069055 -0.087390825
000020 51 b0 b5 3d 3e 88 cc bd 8d bf b0 3e 18 73 1d 3f
       0.0887152 -0.09986924 0.34521142 0.61503744
000030 a7 72 b5 be ce 5e 8b 3e 35 de 18 3f 54 4b 91 3e
       -0.35439035 0.27220768 0.5971406 0.28377783
000040 b5 11 21 3d 80 38 91 3e f9 04 97 3e c0 be 8f 3e
       0.039323527 0.2836342 0.2949598 0.28075218
000050 1b 11 66 bf d9 ad a7 3e 99 65 b5 3e bc c1 d5 3d
       -0.8986985 0.32749823 0.35429075 0.104373425
000060 42 e7 37 bc 5f 10 92 be 0a 32 8b 3d f6 86 0b bf
       -0.01122457 -0.28528115 0.067966536 -0.5450281
000070 cf 8b 49 3e 09 ab b1 3e 3a 6a 44 3f 1f b1 d0 be
       0.19682239 0.34700802 0.7672459 -0.40760133
000080 36 4e 91 bd e0 c6 27 3f b5 39 a7 3e 7e 5b b9 be
       -0.07094996 0.65537834 0.32661214 -0.36202615
000090 4f dc b0 3e fb 1a 96 3d 7c 50 30 3e 5d b9 ed 3e
       0.34543082 0.07329365 0.17218202 0.46430483
0000a0 58 38 8c be 47 ce 91 be 55 9a 68 be f3 72 29 be
       -0.27386737 -0.2847769 -0.22715123 -0.16547756
0000b0 e9 69 66 3f 13 45 49 be a3 a8 94 be cf 02 ce bd
       0.90005356 -0.19655256 -0.2903491 -0.100591294
0000c0 32 be e4 3a 8e aa cc 3e 79 7a e6 3e 9e c7 3f 3e
       0.0017451702 0.39973873 0.45015314 0.18728492
0000d0 65 bc 18 be 60 59 87 3e 5f ac 3c be 35 8e 33 3f
       -0.14915617 0.26435375 -0.1842513 0.70138866
0000e0 a1 1a 58 3c fe ef 03 bf a6 b6 36 3e b3 4d bc 3e
       0.013189943 -0.51538074 0.17843112 0.3677803
0000f0 fe 2d c2 3e 28 71 1f 3e f3 4a 34 bf b4 2a 99 3e
       0.37925714 0.1557051 -0.70426863 0.29915392
000100 67 39 ef bd 11 f6 91 bd 25 41 63 be 87 c6 6d 3e
       -0.116808705 -0.071270116 -0.2219282 0.23220263
000110 71 e1 72 bf 4a 21 44 3f ce 72 c4 bd f6 2e ed bd
       -0.94875246 0.76613295 -0.0959221 -0.11581223
000120 de 3d c7 be f1 b9 54 be 13 45 22 3e 92 3d 36 3f
       -0.38914388 -0.20774056 0.15846662 0.711877
000130 30 5b 81 be 83 12 08 3e e7 06 4c 3f da 28 a4 3e
       -0.25264883 0.13288312 0.7969803 0.32062417
000140 e0 ee 0d bf 22 f9 57 3e 06 5b 7c 3e 04 69 87 3e
       -0.5544262 0.2109113 0.24644098 0.26447308
000150 50 c5 dd 3d a1 88 fe bd 88 a2 45 be 4a 22 10 be
       0.1082865 -0.12428404 -0.19300282 -0.1407558
000160 da 45 e9 3e 56 2d dc 3c 6a 6e 55 3f 06 e5 13 bf
       0.45561105 0.026877087 0.83371603 -0.5777134
000170 d3 13 6b 3f 97 fb 7f be 38 01 1f be 30 77 95 3e
       0.91827124 -0.24998318 -0.15527809 0.29192495
000180 88 9e ac 3d 84 b9 00 3f 61 75 76 be 84 fd 2c 3e
       0.08428675 0.50283074 -0.24068214 0.16893584
000190 0b e7 18 3e 64 49 c1 3e fa 9b 7b be 9a 15 53 bd
       0.14931886 0.37751305 -0.24571219 -0.051534273
0001a0 58 1b 6d be 0a 71 ac 3d 28 ec 64 bf 6f fb 86 3e
       -0.23154962 0.08419998 -0.89422846 0.26363704
0001b0 df dd 8e 3d 9c 31 cd bc f8 d0 80 be 24 a9 40 3e
       0.06975912 -0.02504807 -0.2515943 0.18814522
0001c0 91 5e e4 3e 12 ca 48 be e5 7f 51 3e 98 fa 46 be
       0.44603398 -0.19608334 0.20458944 -0.19431531
0001d0 71 43 c8 bd 82 15 62 bd f7 19 01 bd 50 0e d5 bd
       -0.097784884 -0.055196293 -0.031518903 -0.104031205
0001e0 be 36 b0 3e 97 0e 2e bf 8d 3e 37 3e 33 3f 62 be
       0.34416765 -0.6799101 0.17894955 -0.22094421
0001f0 8c f8 4d be 2c ac 98 3e f5 2a 4f bf 86 2f 38 3e
       -0.20114344 0.29818857 -0.8092492 0.17986879
000200 4d 50 84 3c 9a 60 22 3f 4e 4e 57 3f 51 80 8e 3d
       0.016151572 0.6342865 0.8410386 0.06958068
000210 e3 06 06 3e 9a 0c f9 be 9b c0 88 3e 78 7b a2 3e
       0.13088565 -0.48642427 0.26709446 0.31734824
000220 6c d2 0c 3e d1 9b fa be 1b 7f 91 be 36 d5 f0 be
       0.13752145 -0.48947003 -0.28417286 -0.47037667
000230 50 ea 8d 3f 93 a5 c4 bf 0f 64 c6 be 83 17 b3 bf
       1.1087132 -1.5363029 -0.38748214 -1.399155
000240 c9 bc e4 bd c8 09 74 bf a5 73 84 bf 6b 8e 4b bf
       -0.111688204 -0.95327425 -1.0347792 -0.7951419
000250 3f 7b ba be 8b 07 54 be 1b ed 12 3e a0 80 bc bb
       -0.36422154 -0.20706002 0.14348261 -0.005752638
000260 47 dd 10 bf be 1b 4e bb 61 e4 b6 3d e7 6e 8e 3e
       -0.5658764 -0.003144964 0.089302786 0.27818987
000270 e5 cd 18 3d c0 ff 3c bf 92 33 10 3f f1 4a 9c be
       0.03730573 -0.73827744 0.5632869 -0.30525926
000280 86 c7 f2 bf 3d e7 98 be c3 14 7b be 98 0c b8 bc
       -1.896714 -0.2986392 -0.24519639 -0.022466943
000290 d3 3e 3e bf e3 ea 6c 3e ee 0a 0f 3f 7d e0 4e bf
       -0.7431461 0.23136477 0.5587605 -0.8081129
0002a0 c8 ea 28 3f e2 13 42 3f 1f cf 49 bd 70 f4 94 3d
       0.6598325 0.7581159 -0.04926979 0.07273185
0002b0 a0 6d a5 3e 30 3a 9b 3e 85 c3 7b 3f 6e 68 b1 3e
       0.323102 0.3031783 0.98345214 0.34649986
0002c0 06 5c 02 bf 20 0f b6 3d 0e bc 27 bf b8 23 20 bd
       -0.50921667 0.088896036 -0.65521324 -0.039096564
0002d0 0c 26 4c 3d 3a 90 05 bc 0b 47 90 be a3 31 8a 3e
       0.04984097 -0.008152062 -0.281792 0.26990995
0002e0 40 8b 7b bf 89 9f de 3c 06 b3 2d 3f b7 b3 5e bf
       -0.98259354 0.027175682 0.67851293 -0.86992973
0002f0 30 89 ca 3e 87 84 0b bf 2b b5 05 3f 22 af ad bf
       0.3955779 -0.54499096 0.52229565 -1.3569071
000300 75 30 cc be 84 64 b0 be 2a 06 9e 3d 09 c3 fc 3e
       -0.3988072 -0.34451687 0.077160195 0.4936755
000310 ef 74 13 3d 79 58 0c be 4a 84 27 3f 06 40 bd 3e
       0.03600019 -0.13705625 0.6543623 0.36962909
000320 56 99 af bc 6b 9d 91 be b8 00 fe bd d2 90 6e be
       -0.021435421 -0.28440413 -0.12402481 -0.23297432
000330 c9 98 a3 3e b5 2f 64 bd db 07 5f be f1 68 9d bd
       0.31952503 -0.05570956 -0.2178034 -0.076860316
000340 e5 1d 28 be 7d f0 ba bc 73 76 a0 3e 82 6e 68 3b
       -0.16417654 -0.022819752 0.3134037 0.0035466258
000350 ef 76 8d 3e 65 0a 57 3e af a0 f7 3e 74 42 26 be
       0.27629802 0.21000059 0.4836478 -0.16236287
000360 c8 be b8 3d a7 de d3 be d7 5a 04 3d f2 fe dd 3d
       0.09020764 -0.41380808 0.032313194 0.108396426
000370 fd eb c4 3e 71 c3 a5 be f3 80 2d 3e 92 26 4d 3e
       0.38461295 -0.32375672 0.16943721 0.20034245
000380 c7 19 90 be 14 5e 09 be 81 d9 99 be 8d 69 02 bf
       -0.28144667 -0.13414794 -0.30048755 -0.5094231
000390 c9 4c 14 3f 88 4b a3 3e 71 00 42 3e 64 21 3c 3e
       0.57929665 0.31893563 0.18945481 0.18372113
0003a0 77 1c 22 3e e7 8f 14 be 67 3d a2 3d 94 de eb 3c
       0.15831171 -0.1450802 0.07921868 0.028792657
0003b0 88 4a fa be 93 96 64 3e 75 02 75 be 92 6d cf 3d
       -0.48884988 0.22323065 -0.23926719 0.10128321
0003c0 db 3e 2d 3f 62 7e 26 3f ba 0e a4 3e f3 e1 69 3e
       0.67674035 0.65036595 0.32042485 0.22840099
0003d0 01 f4 35 3d d5 ca b3 3e cf d6 19 3f 63 6c b7 be
       0.044422153 0.35115686 0.60093397 -0.3582488
0003e0 f9 b3 55 be 06 5b a1 bd e6 5e b1 3e 6e c3 ed be
       -0.20869435 -0.078786895 0.34642714 -0.46438164
0003f0 20 3a ad 3e da 3b bf 3e 92 7c 4d 3e c6 86 e1 3e
       0.33833408 0.3735035 0.20067051 0.44048136

policy.2.bias f4 [32]
000000 e8 eb a8 3e ad c2 da bd 7d 8c d1 be 91 f9 e9 be
       0.32992482 -0.10681663 -0.40927497 -0.45698217
000010 bd d4 da 3d 07 bd 96 3e 83 e0 f7 bd e2 0c 5f 3e
       0.10685108 0.2944109 -0.12103369 0.21782258
000020 02 8b 6b 3e 6a fd 39 3e 03 e9 5f 3e fe 46 8c be
       0.23002246 0.18163076 0.2186623 -0.27397913
000030 f1 78 a0 be 72 d9 5b be 57 05 51 be 8b c8 bc be
       -0.3134227 -0.21469668 -0.20412193 -0.36871752
000040 c9 ed e7 3e 1d bc 91 3e c6 fd 49 be 07 a2 d6 3d
       0.45298603 0.28463832 -0.19725713 0.10480123
000050 fd b2 ff 3e f5 d6 64 3e 02 2b 35 3d 30 9c 44 3d
       0.49941245 0.22347625 0.04423047 0.048000515
000060 b3 9d 2e 3f 2e 10 c0 3d a2 2a 2d 3e f2 4e 5e 3e
       0.6820938 0.09378086 0.16910794 0.21709803
000070 9b 60 b3 3e 28 89 47 3e bd 53 37 be 98 92 ac be
       0.35034642 0.19485915 -0.17903037 -0.33705592

policy.4.weight f4 [1, 32]
000000 be 8b 46 3f c8 d8 54 be e6 7b 34 bf d2 34 91 be
       0.7755698 -0.2078582 -0.70501554 -0.2836061
000010 06 c1 c7 3e 28 72 ac be d4 fe 09 bf 26 8c 13 be
       0.39014453 -0.33680844 -0.5390446 -0.14408931
000020 e3 21 69 3f 4c 54 46 3f e6 6c cb be 92 62 40 3f
       0.9106733 0.77472377 -0.3973152 0.75150406
000030 a0 77 70 3e 56 ad bd be ab 66 4a bf 8c a9 51 3f
       0.23483133 -0.37046307 -0.7906291 0.81899333
000040 ad f0 07 3f 4f 44 14 3f 6e de a5 3e 27 b0 db bd
       0.5310162 0.5791673 0.32396263 -0.10726958
000050 76 86 53 3f 09 20 cb be c9 44 85 3f ef 31 19 3f
       0.82627046 -0.39672878 1.0411617 0.5984182
000060 f3 76 36 bf 66 d9 23 bf 56 04 3a bf 33 8d 62 bf
       -0.7127525 -0.640036 -0.72662866 -0.884967
000070 5f 5f 0b bf 55 1c 9b 3f 90 f4 a6 3f 9a fb 95 bf
       -0.544424 1.2118021 1.3043385 -1.1717408

value.0.weight f4 [64, 3]
000000 71 32 a2 3e 12 48 f0 3e d6 42 05 be 11 d9 49 3f
       0.3167911 0.46929985 -0.13013777 0.7884684
000010 60 78 0d 3e 7b 94 ee 3e 89 be c7 3f 6f 3a 42 c0
       0.1381545 0.46597657 1.5605022 -3.0348165
000020 df 17 34 bf da d9 33 be 18 0b ff bf bf 06 1d 3f
       -0.70348924 -0.17563573 -1.992526 0.6133842
000030 50 7b b7 be a1 89 f3 3f 04 0d 47 be 4c 57 46 3f
       -0.35836267 1.9026376 -0.19438559 0.77476954
000040 53 c4 e7 bf b4 b2 ac 3f f3 93 ee bb 61 a3 38 3e
       -1.8106788 1.3492036 -0.0072808205 0.18031074
000050 d7 d2 61 bd c9 36 7b bd ed 58 60 3f 5d ac 6a be
       -0.055132713 -0.061331544 0.8763569 -0.22917314
000060 c7 64 be be 08 89 56 3e 20 01 a8 be dc 90 8a 3f
       -0.37186262 0.20950711 -0.32813358 1.0825458
000070 bd 53 e3 be bf a1 de be be a4 08 40 52 42 a3 3f
       -0.44399825 -0.43482777 2.135055 1.2754614
000080 07 84 d0 3e b7 cd 59 be e5 62 91 bb 59 36 86 3e
       0.4072573 -0.2126988 -0.004436838 0.2621334
000090 8b 6b aa bf 3b 50 52 bf fb 42 ae bf 75 d8 85 3f
       -1.331407 -0.8215367 -1.3614191 1.0456682
0000a0 47 a3 dd be 0d 9e c3 be be d0 b7 bf e4 13 b1 bf
       -0.43288633 -0.3820652 -1.4360578 -1.3834195
0000b0 cf 67 06 bf a9 b6 6f 3f 7e 6d c2 be 0d b0 ad be
       -0.5250215 0.9363809 -0.3797416 -0.3392338
0000c0 8e 5b 69 bf 8d b6 8a bf 47 cc dd be 31 be 9d bf
       -0.91155326 -1.083696 -0.43319914 -1.2323667
0000d0 8b ee 80 be c9 4e b7 be 9b 2b 02 c0 27 90 73 3f
       -0.25181994 -0.35802296 -2.0339115 0.95141834
0000e0 42 ad ae be 60 f6 4a bf e2 61 72 bf 40 a6 d1 3e
       -0.3411656 -0.7928219 -0.9468061 0.4094715
0000f0 12 21 02 bf dd c1 96 3e 51 7b bc be 55 15 84 bf
       -0.5083171 0.2944478 -0.36812833 -1.031901
000100 2b a9 cc 3d 74 96 b4 be 0f 87 92 3d eb ba a2 be
       0.09993204 -0.35271037 0.07154667 -0.31783232
000110 72 7a cb be 2a cb 39 bf 28 67 4b 3c 5b 13 c5 be
       -0.39741856 -0.7257563 0.012414731 -0.3849133
000120 d7 66 6a bf f2 d4 17 bf 12 5c bd 3e 3b ef 36 be
       -0.9156317 -0.59309304 0.36984307 -0.17864697
000130 75 c2 44 3f 21 60 33 be 37 2d b8 bf 7e 60 53 3f
       0.7685922 -0.17517139 -1.4388798 0.8256911
000140 d7 2b e2 be 01 2d 8b bd 91 48 59 3f 9a 5e 90 be
       -0.44174072 -0.06795693 0.8487635 -0.28197175
000150 9a 2c ae 3f c7 c2 04 3f 8b 35 e5 be 73 d9 de be
       1.3607361 0.51859707 -0.44767413 -0.43525276
000160 a3 e7 44 bd dc 2e 34 bf 5a 50 57 be de 71 9b bf
       -0.04807247 -0.70384 -0.21026745 -1.2144125
000170 a3 6d 23 3e 9f 34 3a 3e 36 bb 07 3c 01 b3 05 3d
       0.15959792 0.18184136 0.008284381 0.032641415
000180 2c 7c 68 3f ad d7 85 be 62 9b b3 be 29 52 7b 3f
       0.9081447 -0.2614111 -0.35079485 0.9817224
000190 05 4e 90 bf 6f 5b a8 be 33 87 8a 3f 6c d3 a4 3f
       -1.127381 -0.32882258 1.082251 1.2877021
0001a0 5a b5 fe 3d 19 de 9e bf 24 ee 93 bf 0f 83 e9 be
       0.12436934 -1.2411529 -1.155705 -0.45607802
0001b0 56 3a 50 bf df 50 81 bf c2 a1 67 3e 1f 69 b8 3f
       -0.81339014 -1.0102805 0.226203 1.440708
0001c0 6e 8a a4 3f 49 1f f9 3e 3c 49 a4 3e ad 16 d8 3f
       1.2854745 0.4865668 0.32087123 1.688192
0001d0 e7 bc 54 bf 84 2f 5f 3e f7 6d b0 3f 75 ec fb be
       -0.8310074 0.2179547 1.3783559 -0.4920384
0001e0 f1 72 3d bf cd 26 d9 3f e4 73 96 3f 93 df 43 bf
       -0.7400351 1.6964966 1.1754117 -0.7651302
0001f0 96 bf a0 bf 88 36 f4 be ac 03 a6 3f c8 7e 89 bf
       -1.2558467 -0.47697854 1.296987 -1.0741816
000200 02 16 e3 be a2 15 6c 3e 09 4d 3f 3f 91 64 0c 3d
       -0.44352728 0.23055127 0.7472692 0.034275595
000210 18 8c b9 3e 72 ec 9f bf 23 b9 83 be c2 71 fc be
       0.36239696 -1.2494032 -0.25727186 -0.4930554
000220 95 7b d6 bd ba a7 66 3f 86 f4 94 bf 8d 11 0d 3f
       -0.1047279 0.9009968 -1.1637123 0.55104905
000230 4b 60 dc 3e c3 b2 4d bf 29 4d 08 40 28 7b d3 bc
       0.43042216 -0.80350894 2.1297095 -0.025815561
000240 fa db 3a bf d2 0f 6d bf b8 da 18 3e f7 23 c9 bd
       -0.7299191 -0.92602265 0.14927185 -0.09821313
000250 57 60 ee bf 02 97 ab 3e 21 c3 19 bf 59 6b 0c bf
       -1.862315 0.33513647 -0.6006337 -0.548513
000260 35 81 8b bc a1 5b bd 3f ec b3 7b 3e 64 a1 59 3f
       -0.017029384 1.4793588 0.24580353 0.8501189
000270 ba 92 1b be 3d dd 85 3e 7d 59 55 3e 00 dc 6a 3e
       -0.1519269 0.26145354 0.20834918 0.22935486
000280 63 dd b3 3e b3 44 d9 3e b3 c2 6b bf e4 19 8f 3e
       0.35129842 0.42435226 -0.9209396 0.2794944
000290 1b f9 c0 3e d9 60 0a bf 67 67 b6 be e3 57 80 3f
       0.37690052 -0.5405403 -0.35625765 1.0026821
0002a0 90 80 80 bf 84 82 05 3f c1 27 17 be 55 fa 89 3f
       -1.0039234 0.52152276 -0.14761259 1.077952
0002b0 6b ac eb be e0 30 bb be 4a 1e 67 3e a3 29 60 3e
       -0.46029982 -0.36560726 0.22570148 0.21890883
0002c0 99 01 79 bd 7f 0d 74 3f 7b ea 12 40 c5 d3 5d 3f
       -0.06079254 0.95333093 2.2955616 0.8665126
0002d0 56 dc 07 bf d8 06 bc 3f 36 e0 86 3f 74 9e fc 3e
       -0.5307058 1.4689589 1.0537174 0.4933964
0002e0 69 d5 cc be a6 af 37 3f 6c 26 7a 3f 8a de 9a 3e
       -0.4000657 0.71752393 0.9771488 0.3024791
0002f0 4e 02 ec 3e 26 c8 82 3f 34 e4 ba be 7d f8 c7 be
       0.46095508 1.021733 -0.3650223 -0.3905677

value.0.bias f4 [64]
000000 b7 63 47 bf 91 09 a6 bf fa cd 8e 3d 46 1e 61 bf
       -0.7788653 -1.297167 0.06972881 -0.8793682
000010 85 ab 2f 3f 82 2a 40 3f aa 27 63 bf 4f 82 2b bf
       0.68621093 0.7506486 -0.887324 -0.6699571
000020 19 ac 6c 3f 11 db 5c bf 4c 3f be be 54 48 26 3f
       0.924501 -0.8627177 -0.37157667 0.64954114
000030 d3 6a 45 bf 30 88 3c bf 60 9e 2b 3f e1 63 10 bf
       -0.77116126 -0.73645306 0.67038536 -0.56402403
000040 99 98 f2 3e a8 72 00 3f 2d 89 ad be 89 cd 1d bf
       0.47382048 0.5017495 -0.3389372 -0.61641747
000050 40 57 2c bf 53 37 41 3f f3 7f 46 bf 03 31 86 3f
       -0.6732063 0.75475043 -0.77538985 1.0483707
000060 58 02 2a 3f df a8 29 3f 59 ce 26 bd 10 7f 0c 3f
       0.66409826 0.662733 -0.040724132 0.5488138
000070 01 ca 7f be be 4c 87 3f 5b 61 52 bf 5a 81 7a 3f
       -0.24979402 1.0570295 -0.821798 0.97853625
000080 ba 99 33 bf 3b 3c 9f be 43 de 92 3e 35 df 09 3f
       -0.70156443 -0.3110064 0.28685197 0.5385621
000090 b2 c8 38 3f 49 7b 06 bf 26 21 6f 3e 03 94 1d 3f
       0.72181237 -0.5253187 0.23352489 0.6155397
0000a0 9d 1d ea 3e df 02 cc 3e 87 58 df be 79 3f 89 3f
       0.45725718 0.3984594 -0.43622229 1.0722495
0000b0 85 e1 5c bf 6c 0b 61 bf e6 c9 39 3f 07 c0 64 3e
       -0.86281615 -0.87908053 0.725737 0.22338878
0000c0 92 f2 fd 3e 82 b3 09 bf b4 93 37 3f 16 01 0e bd
       0.4959913 -0.5378953 0.7170975 -0.034669004
0000d0 7b ef 4f bf f0 11 10 bf 50 55 51 3f 31 90 04 3f
       -0.81224793 -0.5627737 0.817708 0.5178252
0000e0 18 67 96 3e 8e ef 30 bf d8 46 3c bf 5c 87 ee be
       0.2937553 -0.6911553 -0.735456 -0.46587646
0000f0 bb 25 bb 3e 73 17 9a bd 60 c6 a8 bf 3f e4 4f bf
       0.36552224 -0.07524004 -1.3185539 -0.8120765

value.2.weight f4 [32, 64]
000000 f4 e2 c3 bc 5f 63 56 3c e5 b3 ca 3e 9d 8d 0f be
       -0.02391193 0.013085215 0.39590374 -0.14018865
000010 fa 8f a2 be 88 09 ed bd a4 97 f8 3e a3 67 57 3d
       -0.3175047 -0.115740836 0.48553193 0.05258907
000020 12 70 a4 be 1e ab 3a 3f 4a aa 01 3f 1a 97 a1 be
       -0.32116753 0.72917354 0.50650465 -0.31560594
000030 21 38 ed 3e e0 62 2a 3f b7 b3 82 be ae ff 74 3f
       0.46331885 0.6655712 -0.25527737 0.95702636
000040 1a 07 8b be eb 71 27 bf cf 7b 8e be 1a 6d ce 3e
       -0.27153856 -0.654082 -0.27828833 0.40317613
000050 64 51 43 bd c0 b7 07 bf 65 e9 13 be a1 33 83 be
       -0.047685042 -0.53014755 -0.14444502 -0.25625327
000060 d1 ea 9c be 79 b3 96 be c2 15 c1 be 4f aa 98 be
       -0.306479 -0.29433802 -0.37711912 -0.29817435
000070 2f 8c 81 3e 11 1d 40 be 03 3d bb 3e 87 06 d8 be
       0.25302264 -0.18761088 0.36569986 -0.4219248
000080 99 b9 1d 3f 01 80 82 3e 0e aa 72 3e 94 5f 95 be
       0.61611325 0.25488284 0.23697683 -0.29174483
000090 6f 17 be be 0b 11 ba 3e 82 2c f0 bd 55 b5 4b be
       -0.37127253 0.36341128 -0.11727239 -0.19893391
0000a0 39 aa 08 bf 19 46 f1 be 05 87 18 3f 74 69 d0 be
       -0.5338474 -0.47123793 0.59581023 -0.40705454
0000b0 86 14 20 3f 9a 3a 44 3c 54 aa 78 bf 18 7f a5 bd
       0.62531316 0.011976862 -0.971349 -0.08080882
0000c0 c0 e6 79 be a8 59 99 3e e6 9f 07 bf 0b 79 a0 3e
       -0.2440443 0.29951215 -0.5297836 0.31342348
0000d0 b8 b2 8b 3e fe 0d cc 3e 38 91 ea be e4 a6 f4 be
       0.2728479 0.39854425 -0.45813918 -0.47783577
0000e0 9a 8c fe be e1 b4 10 3f 0a 0c 18 3f 2e f8 99 3f
       -0.49716645 0.56526 0.5939337 1.2028863
0000f0 c7 79 d4 be 9d 94 02 be c6 3a bd 3e 4f 29 25 3f
       -0.4149916 -0.12752004 0.36958903 0.64516157
000100 c0 67 ca be 20 42 f3 3e 20 35 61 be 29 67 dc 3e
       -0.3953228 0.47511387 -0.21992922 0.43047455
000110 65 f1 4d 3e aa e8 21 3f 74 bc 06 be 11 ff 39 bf
       0.20111616 0.6324564 -0.13157827 -0.72654825
000120 bb 44 b1 bd 0e fe 8e be 94 d8 21 3e 47 f2 7b 3e
       -0.086556874 -0.27928203 0.15805274 0.2460414
000130 ac d7 5d be c2 63 e6 be 41 cf 27 be 79 3b dc bd
       -0.21664304 -0.44997984 -0.16387655 -0.10753531
000140 bc d3 60 be 16 9b 18 be 1a f3 0b 3e b8 a0 ca 3e
       -0.2195577 -0.1490291 0.13666955 0.39575744
000150 8c 19 3b 3d 13 97 78 be a9 36 9f 3d e8 7c c0 be
       0.04567866 -0.2427638 0.077740975 -0.37595296
000160 a8 6b 41 3f 4f 82 c6 be 1e 3e 61 bd bc 1d 83 be
       0.75554895 -0.38771293 -0.05499088 -0.25608623
000170 1f e5 0c bf 8e 7d 8a be 56 1a 9c 3e 65 6a ed bd
       -0.5503711 -0.27048916 0.30488843 -0.11592559
000180 30 a2 a5 bd 61 7e 3e be 90 39 fc be 5a f5 f3 bd
       -0.080875754 -0.18602897 -0.49262667 -0.119120315
000190 bf 62 8d 3e 6e 58 c4 bc 79 cf 94 be 6a 50 c7 be
       0.276144 -0.023967948 -0.2906454 -0.3892854
0001a0 9c 1a b8 3e 9c 6d 38 3e 61 94 1c 3e 40 03 98 be
       0.359578 0.18010563 0.15290977 -0.2968998
0001b0 44 35 7d 3c bc 44 9b 3e c0 7c 2b bd 6e 89 e3 be
       0.015454594 0.30325878 -0.041867018 -0.44440788
0001c0 93 e7 94 3f 2c 91 cd 3e 19 bf 7b be 0e 03 19 ba
       1.1633171 0.4014982 -0.24584617 -0.0005836942
0001d0 94 87 6a 3e 51 ad 66 3d a5 3a e6 3e 31 e2 3f 3f
       0.22903281 0.05631763 0.44966617 0.74954516
0001e0 79 91 e9 bd 2a ea 02 bf 5c 80 1b be 9e 2e e3 be
       -0.114047 -0.51138556 -0.15185684 -0.44371504
0001f0 c4 4e 36 3e f9 cd 09 3e 55 4b 92 3e 0a 4f 24 bf
       0.17803484 0.13457479 0.285731 -0.64183104
000200 8e 8f 9c be 62 a9 ff 3e f2 6a 7c bf 23 5e a3 bc
       -0.30578274 0.49933916 -0.98600686 -0.019942349
000210 9a 7a 01 3f 85 8b a7 3e 72 82 6c be 63 63 34 3d
       0.505777 0.32723632 -0.23096636 0.044040095
000220 30 2e 71 39 a0 68 e5 3d f7 43 0a 3f 19 a5 14 3e
       0.00023000757 0.11201596 0.54009956 0.14516105
000230 99 c6 d3 be 9b e1 c7 3d 65 10 cb 3d 87 3b 12 bc
       -0.41362455 0.09759828 0.099152364 -0.008925325
000240 80 63 4c be b2 0a 45 bf 77 4c aa be 42 7f a3 be
       -0.19959831 -0.76969445 -0.33261463 -0.31933028
000250 0b 1a 8c bd 1f 2e 6c bf 42 d2 c2 be ff 4a 00 bf
       -0.06840905 -0.92257875 -0.3805104 -0.50114435
000260 92 14 ef 3e 91 7f 72 be 23 1d bc be 7f ab 75 be
       0.4669538 -0.23681475 -0.3674098 -0.23991202
000270 36 96 64 be 60 e2 b4 bd 6b 47 e6 be dc e4 ca bb
       -0.22322926 -0.0883224 -0.44976363 -0.006191833
000280 47 6d d9 bd e3 42 4f be 07 f5 f4 bb 1d 86 c8 be
       -0.10616546 -0.20240359 -0.0074754986 -0.3916482
000290 d1 74 3e 3f b9 c1 a1 3d 22 60 12 be d2 5c be bd
       0.74397 0.07898278 -0.14294484 -0.09295048
0002a0 f5 37 8e 3e c4 bb df 3e a1 fe ec 3e 08 ab bf 3e
       0.27777067 0.4369794 0.46288016 0.37435174
0002b0 dd af 01 bf ae 26 aa be 7f 3d b4 3d 4c 0d 5f 3f
       -0.5065897 -0.33232635 0.08800792 0.87129664
0002c0 85 fd de 3e 44 19 96 3d d8 7b b3 be 74 3c 96 3e
       0.43552795 0.07329038 -0.35055423 0.29342997
0002d0 fa c9 e3 3c ba 1a c3 bd 30 60 67 3e 81 90 19 3e
       0.02780627 -0.09526582 0.22595286 0.1499653
0002e0 7b 5f 15 bf 4c e6 2e bd b1 b0 7b bd 4e 8e 1d bf
       -0.58348817 -0.042700097 -0.061447803 -0.61545265
0002f0 68 cd 20 3e 3a 5a 9d 3d 79 ab 70 3e b1 c4 26 be
       0.15703356 0.07683225 0.23502912 -0.1628597
000300 70 b3 3d be 94 3d dc bd f4 fa 11 3f 71 0d 62 be
       -0.18525481 -0.107539326 0.5702355 -0.2207544
000310 0a 53 70 3f 4f 8a ee bd 79 40 ee bd dd 86 c7 3e
       0.9387671 -0.11647474 -0.11633391 0.3897008
000320 bb 32 8e 3d 2a b7 21 bf 14 6b 94 3e b5 b3 fd bd
       0.0694327 -0.6317011 0.28987944 -0.12387792
000330 0f f1 a0 bd 73 18 4e be 1b 64 aa bf 11 0e b7 be
       -0.07858478 -0.20126514 -1.33118 -0.3575292
000340 0b f1 62 bf 03 fe 11 bd 11 eb a8 3e 76 99 6c be
       -0.8864905 -0.035642635 0.3299184 -0.23105416
000350 91 46 b3 3c 7e 7d 86 3e 0d 05 42 be 77 cc d3 3e
       0.021884235 0.26267618 -0.18947239 0.41366932
000360 70 69 da bd 3b b0 a5 3e 1f e8 ff 3d 29 1a 2d 3e
       -0.10664642 0.32361016 0.124954455 0.1690451
000370 1d ab 22 3e a5 49 2a 3e 68 73 17 bf e5 ca 0a 3f
       0.15885587 0.16629656 -0.5916047 0.5421584
000380 85 b3 b9 be 13 1e 98 3e 34 98 89 3f 1e 84 5f bf
       -0.36269775 0.29710445 1.0749574 -0.8731097
000390 4a 70 eb be d9 6b 89 3f c7 6c fb 3d f1 36 10 3e
       -0.45984107 1.0736037 0.12276607 0.14083458
0003a0 a0 b1 3d be c4 91 46 bf 37 81 f4 be 8a d4 c5 3e
       -0.1852479 -0.7756617 -0.47754833 0.38638717
0003b0 72 ef 67 bf f4 13 bc 3e 99 e4 1f 3f 7f ed 9f 3f
       -0.9059974 0.36733973 0.6245819 1.2494353
0003c0 20 87 01 bf 80 0c 29 be b8 5a bc 3d 73 f9 1d 3f
       -0.5059681 -0.16508675 0.09196991 0.61708754
0003d0 43 5c ae be 62 e1 13 3e 77 e4 ff 3d 9d 1d a1 be
       -0.34054765 0.14441445 0.12494748 -0.31467906
0003e0 3a b6 63 3d bd 3c ed bd a4 a4 23 be 1d 71 eb 3f
       0.055593707 -0.115838505 -0.15980774 1.8393894
0003f0 e7 c3 28 3e 6d 83 e5 3d 86 22 c7 bd 4c be 50 be
       0.16480981 0.11206708 -0.09723382 -0.20385092

value.2.bias f4 [32]
000000 39 15 f5 be 40 02 37 3d cd 65 5d 3e d2 23 ca 3e
       -0.47867754 0.04467988 0.21620865 0.39480454
000010 ef 95 75 be c1 b6 c9 3e 27 14 af bd 23 5b f3 3e
       -0.23982976 0.39397243 -0.08548766 0.4753047
000020 94 44 33 3e f2 f4 29 bf 04 3c f3 3d 3f 3e 29 bf
       0.17506629 -0.6638938 0.118766814 -0.66110605
000030 ef 38 1c bf d4 9f 20 bf a6 56 40 3e 38 60 b7 be
       -0.61024374 -0.6274388 0.18783054 -0.35815597
000040 47 69 17 bf 1e 83 95 3e b4 7e 09 bf 6b 56 30 bd
       -0.59145015 0.29201597 -0.5370896 -0.043051165
000050 3a 8b 23 bf ed 98 98 3d d6 6e a9 be 12 78 27 be
       -0.6388432 0.07451043 -0.33092374 -0.16354397
000060 44 39 29 bf dc e2 d4 bd 90 8f 10 3f fc 82 bc 3e
       -0.66103005 -0.103948325 0.5646906 0.36818683
000070 c3 d6 98 3e 4d dc 84 be d3 cb 01 3f a4 35 17 3e
       0.2985135 -0.25949326 0.50701636 0.14766556

value.4.weight f4 [1, 32]
000000 35 6e 41 41 c8 d6 60 c1 5b 70 66 c1 b0 7e 7d 41
       12.089406 -14.052437 -14.402431 15.84343
000010 43 44 4d 41 d8 5a 75 41 19 88 52 41 20 60 89 41
       12.829165 15.334679 13.158227 17.171936
000020 5e 6d 5b 41 be 92 59 41 b1 85 53 c1 db 51 4e 41
       13.714201 13.598326 -13.2201395 12.894984
000030 91 17 4b 41 db 42 6a 41 33 b4 6a c1 60 53 65 c1
       12.6932535 14.641322 -14.668994 -14.332855
000040 1c a8 52 41 e4 d9 6f c1 e4 14 6d 41 75 1f 57 41
       13.166042 -14.990696 14.8176 13.44518
000050 bf c3 56 41 a5 71 63 41 14 5a 63 41 b4 7f 81 c1
       13.42279 14.215245 14.209492 -16.187355
000060 b4 64 4e 41 4a 9c 68 41 61 fa 71 c1 03 03 83 41
       12.899586 14.5381565 -15.123628 16.37647
000070 8b 5e 6a c1 fc c0 6f c1 f0 41 40 c1 3e 1c 6a 41
       -14.648082 -14.984615 -12.016098 14.631895
