models/Pendulum-v1.pth (torch, 23226 bytes, 10 tensors)

policy.0.weight f4 [64, 3]
0	0x3f1d4f4b	0.61449116
1	0xbf815a00	-1.0105591
2	0xbe86cfe7	-0.26330492
3	0xbeaf5d96	-0.34251088
4	0xbe01d367	-0.126783
5	0xbeadb255	-0.3392512
6	0x3f059b2f	0.52189916
7	0x3fa17d6c	1.2616401
8	0x3e97f53a	0.2967928
9	0xbe44185f	-0.19149922
10	0x3a0cc2bc	0.0005369594
11	0x3faa8c7c	1.3324122
12	0x3f1de74f	0.61681074
13	0x3f8ada55	1.084788
14	0x3ef48403	0.47756967
15	0xbe5821a5	-0.21106584
16	0x3fea113e	1.8286512
17	0x3d99ada9	0.07503826
18	0x3f04c2b7	0.5185961
19	0xbf3e8ae9	-0.7443071
20	0xbeb02889	-0.34405926
21	0xbe95001f	-0.29101655
22	0xbfa7fa1b	-1.3123201
23	0x3f6f479e	0.93468654
24	0x3f52dc23	0.8236715
25	0xbf756c70	-0.9586859
26	0x3c9870df	0.018608509
27	0xbefc8cb0	-0.49326086
28	0xbf6c12c6	-0.92216146
29	0xbfc0dce3	-1.5067409
30	0x3f4c79a2	0.79873097
31	0xbfc1f20b	-1.5151991
32	0xbe908954	-0.28229773
33	0x3f3e8cbe	0.74433506
34	0xbf66d17a	-0.90163386
35	0x3f9cddc2	1.2255175
36	0x3ef7502b	0.4830335
37	0xbd8f3817	-0.0699312
38	0x3f8ed629	1.1159106
39	0xbf876945	-1.0579001
40	0x3f0a5181	0.54030615
41	0x3f5b56c7	0.85679287
42	0xbed51a8c	-0.41621816
43	0x3f40515a	0.7512413
44	0xbfe585d7	-1.793147
45	0xbea261c9	-0.3171523
46	0xbfd316fe	-1.6491392
47	0xbecb22a2	-0.3967486
48	0x3f5bb319	0.85820156
49	0xbed8373a	-0.42229635
50	0xbe8e3595	-0.27775255
51	0xbf68f1a3	-0.9099371
52	0x3ea7f581	0.32804492
53	0xbf475bf9	-0.77874714
54	0xbf42d414	-0.76104856
55	0xbfb64d21	-1.4242288
56	0xbed353f2	-0.41274983
57	0xbf27a820	-0.65490913
58	0x3d2b31f0	0.04179567
59	0xbfb8404a	-1.439462
60	0x3ee009d0	0.43757486
61	0xbf9401f8	-1.1563101
62	0x3ebc6c0f	0.36801192
63	0x3fa00f61	1.2504693
64	0x3cbc9b66	0.023023318
65	0x3dd01de3	0.101619504
66	0x3eb62362	0.3557387
67	0xbf8355be	-1.0260541
68	0xbe4d5414	-0.20051605
69	0xbf5a8f8c	-0.85375285
70	0xbfb4bb35	-1.4119631
71	0x3ed3c132	0.41358334
72	0x3ede47ba	0.43414098
73	0x3fec1c85	1.8446203
74	0xbe9b1a4f	-0.3029351
75	0xbf77a2f7	-0.9673304
76	0xbda7183e	-0.08158921
77	0x3d99e6a2	0.07514693
78	0x3f1f359f	0.62191194
79	0x3f90549b	1.127582
80	0x3e9d595e	0.30732244
81	0x3ecd2d8f	0.4007382
82	0xbf28992f	-0.6585874
83	0x3f2412cd	0.6409119
84	0x3f43a144	0.76417947
85	0xbfb2595c	-1.393352
86	0xbd2602f8	-0.040530175
87	0xbf34b9d8	-0.70596075
88	0xbf851d2d	-1.0399529
89	0xbe3dd66f	-0.18538831
90	0x3f75c0fe	0.9599761
91	0xbf701fb3	-0.9379837
92	0x3e852209	0.2600253
93	0x3eeeb7e7	0.4662468
94	0xbf4b63df	-0.79449266
95	0x3e9fac64	0.3118621
96	0xbde2f252	-0.11081375
97	0xbfd395f3	-1.6530136
98	0x3f28e2e6	0.6597122
99	0x3e43059c	0.19045109
100	0xbe97f5ea	-0.29679805
101	0x3fb1c13d	1.3887097
102	0xbf02b04a	-0.51050246
103	0x3ee57608	0.44816613
104	0xc004a284	-2.0724192
105	0xbfd16232	-1.6358092
106	0x3e683848	0.2267772
107	0xbdff9a6a	-0.12480624
108	0x3ff48ebc	1.9106059
109	0xbf2901af	-0.66018194
110	0x3e9fa6d1	0.31181958
111	0x3f2218eb	0.6331927
112	0x3f7f6e81	0.9977799
113	0x3e57a6b0	0.2105968
114	0x3f684461	0.9072934
115	0xbe638cfb	-0.22221749
116	0xbf6857aa	-0.90758765
117	0x3f7937e0	0.97350883
118	0xbf4b1e52	-0.7934314
119	0xbe86285a	-0.2620266
120	0xbf251caf	-0.6449689
121	0x3f0e8959	0.55678326
122	0x3e6382ca	0.22217861
123	0xbf80c4cb	-1.0060056
124	0x3da79981	0.081835754
125	0xbedfd06a	-0.43713695
126	0xbe43c315	-0.19117387
127	0xbfda708d	-1.7065598
128	0xbeae6a2f	-0.34065387
129	0xbe446981	-0.19180872
130	0x3f42612a	0.7592951
131	0x3f706476	0.9390329
132	0xbf0370f9	-0.5134426
133	0xbfde2a36	-1.7356632
134	0xbece3b0a	-0.40279418
135	0xbefa605b	-0.48901638
136	0x3f60951f	0.8772754
137	0x3e80e7ae	0.25176758
138	0xbdbedbd0	-0.0931927
139	0xbf0fd8b3	-0.5619003
140	0xbfa17ab3	-1.261557
141	0x3f44fe9e	0.76951015
142	0xbf7b92dc	-0.98270965
143	0xbea92c8b	-0.33041796
144	0x3f382980	0.71938324
145	0x3f98464f	1.1896456
146	0x3ebf7d28	0.37400174
147	0x3fd1a02b	1.6377004
148	0xbe92a1ab	-0.28638968
149	0x3e348320	0.17628145
150	0xbf4ba5fd	-0.79550153
151	0xbde45d66	-0.11150627
152	0x3d2725b8	0.040807456
153	0x3f100aa1	0.5626622
154	0xbe1481fb	-0.14502709
155	0xbe850058	-0.25976825
156	0x3f7d0235	0.9883149
157	0xbf2bfc6d	-0.67182046
158	0xbec2f4af	-0.38077304
159	0x3f48af87	0.78392833
160	0x3f117313	0.56816214
161	0x3de526e8	0.111890614
162	0xbc37a6f4	-0.011209238
163	0xbee9193a	-0.4552706
164	0x3f6806b7	0.90635246
165	0x3e0714f6	0.1319159
166	0x3ed3f5f0	0.41398573
167	0xbf0c2963	-0.5475065
168	0xbf8e2efd	-1.110809
169	0xbf0f7b5d	-0.5604761
170	0xbd263d2e	-0.04058569
171	0x3eb5d758	0.35515857
172	0x3f7b3148	0.9812207
173	0xbf5be52f	-0.8589658
174	0xbfaecfe3	-1.3657192
175	0x3dadfb88	0.084952414
176	0xbe7522af	-0.23939012
177	0x3fc7dd86	1.5614479
178	0x3efb9d1d	0.49143305
179	0x3c2c0aee	0.010500653
180	0x3fc6e54b	1.5538725
181	0xbda169b1	-0.07881487
182	0x3d7f198e	0.06228023
183	0xbf408317	-0.7520003
184	0x3e913f21	0.28368476
185	0xbf8dec83	-1.1087803
186	0xbf01508b	-0.50513524
187	0xbfe73e57	-1.80659
188	0x3e9fed16	0.3123557
189	0x3f256d9b	0.6462037
190	0xbf95d5a5	-1.1705824
191	0x3dca5432	0.0987934

policy.0.bias f4 [64]
0	0xbef042f3	-0.46926078
1	0xbf79f4a3	-0.9763891
2	0xbf085266	-0.5325073
3	0xbf0746be	-0.5284232
4	0xbf70f63b	-0.9412572
5	0xbdb12435	-0.08649484
6	0xbd10fe98	-0.03539905
7	0xbf8f8dd6	-1.121516
8	0xbbf2bbe3	-0.0074076517
9	0xbf0db272	-0.5535041
10	0x3d0d93f9	0.034564946
11	0x3e999ce8	0.30002522
12	0xbf88911d	-1.0669285
13	0x3f0d947e	0.55304706
14	0x3cfceccc	0.030874632
15	0x3d89cce2	0.067285314
16	0xbf4458d6	-0.7669805
17	0xbf578685	-0.84189636
18	0x3f237ff5	0.6386712
19	0xbf8599b6	-1.0437534
20	0x3f333275	0.69998866
21	0xbf6dd3e9	-0.92901474
22	0xbf114aa4	-0.5675452
23	0xbe031a77	-0.12803064
24	0x3e1f3b42	0.15549949
25	0x3f5b3d18	0.85640097
26	0xbf1eeaaf	-0.6207685
27	0x3d618a69	0.05506364
28	0x3d037723	0.03209604
29	0x3f01a4d1	0.50642115
30	0xbf5e2818	-0.8677993
31	0xbf5c07b5	-0.8594926
32	0xbf729d8b	-0.9477164
33	0xbf7458ac	-0.954478
34	0x3ef3e471	0.47635224
35	0xbed05204	-0.40687573
36	0x3d2665b9	0.040624354
37	0xbf1a353e	-0.6023749
38	0xbe959f42	-0.29223067
39	0x3f695535	0.9114564
40	0x3efba955	0.49152628
41	0xbee6de8f	-0.45091674
42	0xbcc086ff	-0.023501871
43	0x3f3738ae	0.7157086
44	0x3eab0be2	0.33407503
45	0x3eaafd6c	0.3339647
46	0x3f466e33	0.775119
47	0xbf475eb7	-0.778789
48	0xbf42ec43	-0.76141757
49	0x3de90616	0.11378114
50	0x3f14f02a	0.5817896
51	0xbf62df61	-0.886221
52	0xbf74af41	-0.95579916
53	0xbf32c252	-0.6982776
54	0x3f87ae7c	1.0600123
55	0xbf40e4d4	-0.75349164
56	0x3f18960a	0.5960394
57	0x3f06c3e4	0.52642655
58	0xbf1e4325	-0.61821204
59	0xbe6c339c	-0.23066562
60	0x3e6b79ea	0.22995725
61	0xbf027152	-0.50954163
62	0xbddb2b7e	-0.10701655
63	0x3e3545b5	0.17702372

policy.2.weight f4 [32, 64]
0	0xbf49197d	-0.7855452
1	0xbd1521da	-0.036409236
2	0x3f4b6d41	0.79463583
3	0x3d6f25f3	0.0583858
4	0x3eac5522	0.336587
5	0x3ec90d84	0.39268124
6	0xbdc4d673	-0.096112154
7	0x3e44f879	0.1923541
8	0xbe201002	-0.15631106
9	0x3e9879b9	0.29780367
10	0xbd462290	-0.048372805
11	0xbe6ea2f0	-0.23304343
12	0x3e96d6aa	0.2946065
13	0xbe1dc036	-0.15405354
14	0x3e82dcc3	0.25559053
15	0xbf841004	-1.0317388
16	0xbefc93f1	-0.4933162
17	0x3e41326d	0.18866892
18	0xbf8a62c4	-1.0811391
19	0x3ecac4c3	0.39603242
20	0xbd7fff7c	-0.06249951
21	0x3e89e309	0.26931027
22	0xbee70f28	-0.4512875
23	0xbe2731b1	-0.1632755
24	0x3ea41219	0.32045057
25	0x3e60325b	0.21894209
26	0x3f19e8ef	0.60121053
27	0xbda23771	-0.07920731
28	0xbe2a117b	-0.16608231
29	0xbf68766f	-0.90805715
30	0xbe1111df	-0.14166974
31	0x3dc3f95a	0.095690444
32	0x3e73f76e	0.23824856
33	0x3d967641	0.07346774
34	0xbbeeb248	-0.0072844364
35	0xbe37e670	-0.17958999
36	0xbd9f31b1	-0.0777315
37	0x3eb10ed4	0.34581625
38	0xbd0b4791	-0.034003798
39	0x3e1fd574	0.1560877
40	0x3e0f44b5	0.13991053
41	0xbce3b138	-0.027794465
42	0xbf9c298b	-1.2200178
43	0xbdf833fa	-0.12119289
44	0xbfbc8224	-1.4727216
45	0x3c9e837a	0.019349802
46	0xbe34cb99	-0.17655791
47	0xbf2533f9	-0.6453243
48	0x3ea889e0	0.3291769
49	0x3e21807e	0.15771672
50	0x3d846816	0.06465165
51	0xbe3cc712	-0.18435314
52	0xbf82c25e	-1.0215566
53	0x3e0d8620	0.13820696
54	0xbec2e02e	-0.3806166
55	0x3d3277d1	0.043571297
56	0xbd2b22bf	-0.041781183
57	0xbd671c56	-0.056423508
58	0xbd59274b	-0.05301599
59	0xbd05f1d0	-0.032701313
60	0x3e586c0c	0.21134967
61	0x3e4688ad	0.19388075
62	0xbe28f15e	-0.16498324
63	0xbe5daf36	-0.21648869
64	0xbd565ac5	-0.05233266
65	0xbe08efea	-0.1337277
66	0x3c0339c3	0.008009377
67	0xbe0e4a02	-0.13895419
68	0xbe7c53b2	-0.24641302
69	0xbd325f69	-0.04354802
70	0x3e87d77c	0.2653159
71	0xbf2afe94	-0.66794705
72	0x3dc53e82	0.09631063
73	0x3ec21078	0.3790319
74	0x3e852227	0.2600262
75	0xbd419eaf	-0.047270473
76	0x3d46ff8f	0.048583563
77	0xbea7426a	-0.32667857
78	0x3e7c7d0a	0.24657074
79	0xbdad6057	-0.08465641
80	0xbea988fc	-0.33112323
81	0x3e23a513	0.1598094
82	0xbd8b31e2	-0.06796624
83	0x3e8a4f27	0.27013513
84	0x3eb0373c	0.3441714
85	0x3eadcdba	0.3394602
86	0xbe2fb240	-0.1715784
87	0xbf3bd98a	-0.73378813
88	0x3eb5d229	0.35511902
89	0x3e41192e	0.18857262
90	0x3c500236	0.01269584
91	0xbcd59e06	-0.026076328
92	0x3e6b0d15	0.22954209
93	0xbdef224e	-0.11676465
94	0xbd949d44	-0.072565585
95	0xbe92ed86	-0.2869684
96	0xbf41f52f	-0.75764745
97	0xbd8fd3ce	-0.070228204
98	0x3e917c37	0.2841508
99	0xbec390b1	-0.38196328
100	0x3e15f55d	0.1464438
101	0xbd45e937	-0.048318114
102	0x3d9b4726	0.0758193
103	0x3f4df056	0.8044485
104	0x3d09270a	0.033484496
105	0x3e2057bf	0.15658472
106	0xbe217a47	-0.15769301
107	0xbdd266fa	-0.102735475
108	0xbe061583	-0.13094144
109	0xbe42a2b6	-0.19007382
110	0x3e17abf6	0.14811692
111	0xbdb58255	-0.088627495
112	0xbe014ed6	-0.1262773
113	0x3e9b91c7	0.30384657
114	0xbde05a6a	-0.10954745
115	0xbe77b229	-0.24189056
116	0xbecc4e94	-0.399037
117	0xbd9a3072	-0.075287715
118	0xbd22a199	-0.039704893
119	0xbebf676d	-0.37383595
120	0xbe8c882a	-0.27447635
121	0x3e01e8ea	0.12686506
122	0xbe281fe7	-0.1641842
123	0x3f05668d	0.52109605
124	0x3ee1862b	0.44047675
125	0x3e1a21e5	0.15051992
126	0xbf17033c	-0.5898931
127	0x3a9d3836	0.0011994902
128	0xbefe0949	-0.4961646
129	0xbe04db8c	-0.12974375
130	0x3caa87dd	0.020816738
131	0x3df8449b	0.121224605
132	0xbb91675d	-0.0044373707
133	0x3ee664c1	0.44998744
134	0xbea67357	-0.32509872
135	0xbe8dbe03	-0.2768403
136	0xbea625ef	-0.32450816
137	0xbe1d8044	-0.1538096
138	0xbed888e3	-0.42291936
139	0xbd8471d5	-0.06467024
140	0x3d8fd02d	0.07022128
141	0x3eadca3d	0.33943358
142	0xbe8959c7	-0.26826307
143	0x3cf43b31	0.02981338
144	0xbd6dfda3	-0.058103215
145	0xbc345e75	-0.011008848
146	0x3e5cf11d	0.21576352
147	0xbe08af90	-0.13348222
148	0xbc92e6c4	-0.017932303
149	0xbe7edef0	-0.24889731
150	0xbede05d8	-0.43363833
151	0xbe5d1343	-0.21589379
152	0x3ed6bb55	0.41939798
153	0xbe134295	-0.14380868
154	0x3d7992c6	0.06093099
155	0x3d37c86e	0.04486888
156	0xbee43ff9	-0.44580057
157	0x3e3b1a28	0.18271697
158	0xbcbf6cdb	-0.023367336
159	0xbe575e15	-0.21031983
160	0xbe662676	-0.22475609
161	0x3cc82d36	0.02443562
162	0xbeacf281	-0.33778766
163	0x3e4c0702	0.19924548
164	0xbe1f1977	-0.15537058
165	0xbd5f57a0	-0.054526925
166	0xbe4a06a7	-0.197291
167	0xbe96dc48	-0.29464936
168	0x3ebf6240	0.37379646
169	0x3c5ce3eb	0.013482074
170	0xbcf4110d	-0.029793287
171	0x3ede240e	0.43386883
172	0x3e2cd546	0.16878232
173	0x3eb2ed20	0.34946537
174	0xbcc1779e	-0.023616608
175	0xbee70b47	-0.4512579
176	0x3d126d71	0.035748903
177	0xbe2d4e93	-0.16924505
178	0x3d504bce	0.050853543
179	0xbd6c4aa9	-0.05768839
180	0xbe2c7560	-0.1684165
181	0xbc34ab65	-0.011027192
182	0x3eb18f39	0.34679583
183	0x3cdd593e	0.027020093
184	0xbe2fb4dd	-0.17158838
185	0x3e1bea11	0.15226008
186	0x3d074b27	0.033030655
187	0xbb8cb2e4	-0.0042937864
188	0xbe1f0fcd	-0.15533371
189	0x3d602762	0.05472506
190	0xbeb4fc07	-0.35348532
191	0xbed1d5c9	-0.40983418
192	0xbe3b43c9	-0.18287577
193	0x3f10a036	0.5649446
194	0x3ea7338c	0.32656515
195	0x3e8aecfa	0.27133924
196	0x3e248c8e	0.16069242
197	0x3f3eb137	0.7448916
198	0x3a373d84	0.00069900625
199	0x3eac00a1	0.3359423
200	0xbec693c0	-0.387846
201	0x3f2d8b0b	0.6779029
202	0xbe439d2c	-0.19102925
203	0xbeb6aadf	-0.3567724
204	0x3e6d3be4	0.23167378
205	0xbedd6e7a	-0.4324835
206	0x3e171266	0.14753112
207	0xbeac9a92	-0.33711678
208	0x3ee56a91	0.44807866
209	0x3f305533	0.68880004
210	0xbe83cdb2	-0.2574287
211	0x3f0d977d	0.5530928
212	0xbf9b7b67	-1.2147034
213	0x3c675a68	0.014120676
214	0x3d873567	0.066019826
215	0xbf0d6d0d	-0.55244523
216	0x3eba0611	0.36332753
217	0xbf53cc26	-0.8273338
218	0x3dd104bf	0.10205983
219	0xbe7a2c0b	-0.24430864
220	0xbecfe869	-0.40607002
221	0xbea5ada0	-0.32359028
222	0x3db0a36c	0.0862492
223	0x3e7a9efc	0.2447471
224	0x3ef57cd6	0.47946805
225	0x3ebe305b	0.37146267
226	0xbdd4e549	-0.10395295
227	0x3e98e373	0.2986103
228	0x3d9b2537	0.075754575
229	0x3e4cd2b8	0.20002258
230	0x3dd04a7a	0.10170455
231	0xbec44024	-0.38330185
232	0xbe050e76	-0.12993798
233	0x3ed0d2dd	0.40785876
234	0xbed45141	-0.41468242
235	0xbea5d9a4	-0.3239261
236	0xbef0c106	-0.47022265
237	0xbe96312c	-0.2933439
238	0xbdc41c44	-0.09575704
239	0xbcc8b724	-0.02450139
240	0x3e88926c	0.2667421
241	0x3baec56b	0.0053335926
242	0xbeee76db	-0.46575055
243	0x3fb34122	1.4004252
244	0xbdd0299c	-0.10164186
245	0x3df2b93c	0.11851737
246	0xbf34ad93	-0.70577353
247	0x3f1d377d	0.61412793
248	0xbe9128dd	-0.2835149
249	0xbe1f2ff7	-0.15545641
250	0x3ebb6a49	0.36604527
251	0xbea0d4b0	-0.31412268
252	0xbe75b912	-0.2399638
253	0x3ef25246	0.47328395
254	0xbf241596	-0.6409544
255	0xbf7c1f80	-0.98485565

policy.2.bias f4 [32]
0	0x3d8bdcb4	0.06829205
1	0x3f141bd0	0.5785494
2	0x3da51ccb	0.080621324
3	0xbf179630	-0.5921354
4	0xbe8986c0	-0.2686062
5	0x3e62c96b	0.22147147
6	0x3cb2a2f0	0.02180621
7	0x3eba785f	0.3641996
8	0x3c42459e	0.011857418
9	0xbdd61434	-0.10453072
10	0xbe3157e2	-0.17318681
11	0xbe9fb3e3	-0.3119193
12	0xbe9cf7fd	-0.3065795
13	0x3e8f92cd	0.28041688
14	0x3d7c5582	0.061604984
15	0xbde99e9b	-0.11407205
16	0x3f03db0c	0.51506114
17	0xbe7de164	-0.24793011
18	0xbf246cf0	-0.64228725
19	0xbe123650	-0.14278531
20	0x3ef5bae4	0.4799415
21	0xbeb5dffa	-0.35522443
22	0xbe9b0567	-0.3027756
23	0xbe864872	-0.26227146
24	0x3ef1a98f	0.47199675
25	0x3eb02538	0.34403396
26	0xbd11e948	-0.035622865
27	0x3e05a7c1	0.13052274
28	0xbead56d0	-0.33855295
29	0x3e40a04f	0.18811153
30	0xbe0ee5d8	-0.13954866
31	0x3cdcead8	0.026967451

policy.4.weight f4 [1, 32]
0	0xbf3e223a	-0.74270976
1	0xbe946e93	-0.2899061
2	0xbe48f894	-0.19626075
3	0xbeec7736	-0.461847
4	0xbf1cd596	-0.61263406
5	0xbf7df107	-0.99195904
6	0xbee2f7aa	-0.44329578
7	0x3f19a874	0.60022664
8	0x3f2ab06f	0.66675466
9	0x3eb5ef36	0.35534066
10	0x3e702314	0.23450881
11	0xbf328ba9	-0.69744354
12	0x3ebca762	0.36846453
13	0xbe883135	-0.26600042
14	0xbdb4b051	-0.08822692
15	0xbd619876	-0.05507704
16	0x3f4978b1	0.78699785
17	0xbea16347	-0.31521055
18	0x3eec0bd8	0.46102786
19	0x3ec14ac9	0.3775237
20	0x3f1eb25b	0.619909
21	0x3e8505f6	0.2598111
22	0xbf24d25d	-0.6438349
23	0xbf4dd74f	-0.8040666
24	0xbf28e86c	-0.6597965
25	0xbeca04a2	-0.3945666
26	0x3d9dd5fd	0.07706831
27	0x3ef0f0ca	0.47058707
28	0x3efcd5a0	0.49381733
29	0xbf754b4f	-0.95818037
30	0x3f7cec72	0.98798287
31	0xbf5e0d23	-0.86738795

value.0.weight f4 [64, 3]
0	0x3f3fbd6e	0.7489842
1	0xbed53bb1	-0.41647103
2	0x3c628d16	0.013827583
3	0xbef84f4b	-0.48497996
4	0xbeff1133	-0.4981781
5	0x3f0a5a03	0.54043597
6	0xbfa69473	-1.3014053
7	0x4021f92a	2.5308328
8	0x3f572fd1	0.8405734
9	0x3de428d0	0.11140597
10	0x3ff73aa9	1.9314777
11	0xbe64f12a	-0.22357622
12	0xbfb8a4a3	-1.4425243
13	0x3fc3b891	1.52907
14	0x3f077f5a	0.529287
15	0xbeeb63fa	-0.45974714
16	0xbf978411	-1.1837178
17	0x3e404ec3	0.18780045
18	0x3e8fb253	0.28065738
19	0xbda70a97	-0.08156317
20	0x3e2ed7cc	0.17074507
21	0x3ec740b8	0.38916564
22	0xbd76c163	-0.06024302
23	0x3f18b78c	0.5965507
24	0xbe234c20	-0.15947008
25	0x400a79b6	2.1636786
26	0x3edefab8	0.43550658
27	0x3f62b377	0.8855509
28	0xbe7cd257	-0.24689613
29	0xbf07aa48	-0.52994204
30	0x3eb2f6d5	0.34953943
31	0x3f01ac2d	0.50653344
32	0xbf2b5cbf	-0.66938394
33	0x3f873a19	1.0564605
34	0x3f778cd0	0.9669924
35	0x3ec4a5e8	0.38407826
36	0x3efba4c3	0.4914914
37	0xbf5c4a26	-0.8605064
38	0x3f1904ce	0.59772956
39	0x3e3ca702	0.18423083
40	0x3f7a029a	0.9766022
41	0xbc769c66	-0.015051937
42	0x3e15cef8	0.14629734
43	0x3ff5feb9	1.921836
44	0xbe65f660	-0.22457266
45	0xbdec8ad9	-0.115499206
46	0x40184999	2.379492
47	0x3ed00841	0.40631297
48	0xbf26a49e	-0.65094936
49	0xbf2e8d36	-0.6818422
50	0x3eac36ae	0.33635467
51	0x3e3477fc	0.17623895
52	0x3fa4585d	1.2839466
53	0xbe1ef28d	-0.15522213
54	0x3edd20d2	0.43189102
55	0x3e3dc599	0.18532409
56	0xbf08cdcc	-0.5343902
57	0xbf90a9bb	-1.1301798
58	0x3f5ee13f	0.8706245
59	0x3f0a1f43	0.5395395
60	0x3f6dac44	0.9284098
61	0x3ee7722e	0.452043
62	0xbcb3009e	-0.02185088
63	0x3f6b8525	0.9200004
64	0xbf67469f	-0.90342134
65	0xbe8af093	-0.2713667
66	0x3f50580a	0.81384337
67	0xbeaa3de0	-0.33250332
68	0x3f06512c	0.5246761
69	0x3f553606	0.8328556
70	0xbfa735f8	-1.3063345
71	0x3d97691b	0.07393094
72	0x3f54c6a7	0.8311562
73	0xbe8cab5e	-0.27474493
74	0x3bbd3d8d	0.0057751597
75	0xbc9e388d	-0.019314075
76	0x3e6fa2a8	0.23401892
77	0xbeb9303a	-0.36169606
78	0x3f2aed6e	0.6676854
79	0x3f3e312e	0.7429379
80	0x3ea40dbd	0.3204173
81	0x3f1a126c	0.6018436
82	0x3ebb5624	0.36589158
83	0xbdb3d800	-0.08781433
84	0x3f1f138b	0.62139195
85	0xbb88d6ce	-0.0041759973
86	0xbbbbe622	-0.005734221
87	0x3f8c5c56	1.0965679
88	0x4036d253	2.8565872
89	0x3f6337d2	0.8875705
90	0x3f4315c9	0.76205117
91	0x3fc54e01	1.541443
92	0xbd25e4d1	-0.04050142
93	0x3ed1e145	0.4099218
94	0xbf892fca	-1.0717709
95	0x3e333a75	0.17502768
96	0xbee3b319	-0.44472578
97	0xbf81a245	-1.0127646
98	0x3eafbd79	0.34324244
99	0xbe794430	-0.24342418
100	0xbf0fb6a3	-0.56138057
101	0xbea18798	-0.31548762
102	0xbec28b27	-0.3799679
103	0xbf87ff39	-1.0624763
104	0x3dde139d	0.10843585
105	0x3e83109b	0.25598606
106	0x3e625c40	0.22105503
107	0xbeefeb67	-0.46859285
108	0x3f555317	0.8332991
109	0xbf94c990	-1.1624012
110	0xbeec4ecf	-0.46153876
111	0x3f175aa6	0.59122694
112	0x3f3cb749	0.7371717
113	0xbe34c983	-0.17654996
114	0x3f4cd262	0.8000852
115	0x3c2f43c0	0.010697305
116	0x3f3634a8	0.711741
117	0xbeebd9c9	-0.46064594
118	0x3fb90a08	1.4456186
119	0xbe96407b	-0.2934607
120	0xbde1b0ae	-0.11020027
121	0x3f2bf7b0	0.67174816
122	0x3ec4f9cd	0.38471833
123	0x3f04808b	0.5175864
124	0x3bc4e686	0.006008926
125	0x3f206b87	0.62664074
126	0x3f35a9a3	0.7096197
127	0xbf65b5bb	-0.89730424
128	0x3f22bab2	0.63566124
129	0x3eb2c15f	0.34913155
130	0x3fa460e1	1.2842065
131	0xbe1ec5df	-0.1550517
132	0xbf251711	-0.6448832
133	0x3defad5a	0.11702986
134	0xbf24c4b3	-0.6436264
135	0x3dd9442a	0.106087044
136	0xc0156056	-2.3340049
137	0xbee476c8	-0.44621873
138	0xbccb5bae	-0.02482399
139	0xbf12a0ef	-0.57276815
140	0x3e76273a	0.24038401
141	0xbf18510c	-0.5949867
142	0x3fc5b1af	1.544485
143	0xbf008f68	-0.5021882
144	0xbfa620d0	-1.2978764
145	0x4060f8cb	3.515185
146	0x3f533c6c	0.8251407
147	0xbf7fa2f0	-0.99858
148	0xbf65dc11	-0.8978892
149	0xbed5b320	-0.41738224
150	0x3f5a4505	0.85261565
151	0x3dc6176c	0.09672436
152	0x3f28437a	0.6572796
153	0xbf08371c	-0.5320909
154	0x3ec65aa6	0.38741034
155	0xbdd38c42	-0.103294864
156	0x3f0dcd9a	0.5539185
157	0xbe1728a4	-0.14761597
158	0xbeee36f4	-0.465263
159	0xbf2f7e92	-0.68552506
160	0xbeaedf34	-0.34154665
161	0x3e8e7574	0.27823985
162	0xbdd55e85	-0.10418419
163	0xbd6c94df	-0.057759162
164	0x3d8214a3	0.063515924
165	0x3f6539e3	0.89541453
166	0xbe24c680	-0.16091347
167	0xbd26a7fa	-0.04068754
168	0xbe8db1ff	-0.27674863
169	0xbde49895	-0.11161915
170	0x3f05d7de	0.5228251
171	0xbd8dc43d	-0.06922195
172	0xbe822a00	-0.25422668
173	0x3ee0e177	0.43922016
174	0xbf283ddf	-0.6571941
175	0x3e1a7ed1	0.15087439
176	0x3edb1910	0.4279256
177	0xbf210649	-0.62900215
178	0xc00902ee	-2.1408038
179	0xbf01b3cb	-0.5066497
180	0x3f3207f6	0.695434
181	0x3ed836d0	0.4222932
182	0x3f2dbe19	0.6786819
183	0x3e347c7c	0.17625612
184	0x3fb00762	1.3752253
185	0xbe036029	-0.12829651
186	0xbf4f91fc	-0.8108213
187	0xbedf01ea	-0.43556148
188	0x3d97143c	0.07376906
189	0xbf695d7c	-0.9115827
190	0xbe922204	-0.28541577
191	0x3f280724	0.65635896

value.0.bias f4 [64]
0	0x3f274cf4	0.65351796
1	0x3f995915	1.1980311
2	0xbd78b80e	-0.060722403
3	0xbd49e7ca	-0.049293317
4	0x3d9dc535	0.0770363
5	0x3ec825b7	0.39091274
6	0x3f40c450	0.7529955
7	0xbf2ff481	-0.6873246
8	0x3f7a1561	0.9768887
9	0xbe96b51b	-0.29435048
10	0xbe94e66e	-0.29082054
11	0xbf0f18d3	-0.55897254
12	0xbf2d8a92	-0.67789567
13	0xbf28a490	-0.658761
14	0xbdb47c58	-0.08812779
15	0x3f66ee84	0.90207696
16	0x3f0b03c9	0.5430265
17	0xbedd0684	-0.43169034
18	0xbe92a9c0	-0.28645134
19	0x3ee9f6c2	0.45696074
20	0xbe93402b	-0.28759894
21	0xbf078833	-0.529422
22	0x3d5e72b6	0.054308616
23	0xbf0d82f9	-0.55277973
24	0x3f3c8f42	0.73656094
25	0x3f4a0405	0.78912383
26	0xbf02ddae	-0.51119506
27	0x3f45c9bb	0.7726094
28	0x3f5e742b	0.8689601
29	0xbeb436bc	-0.3519801
30	0xbf1e8a5d	-0.61929876
31	0x3d2ac540	0.04169202
32	0x3ea49aa9	0.32149246
33	0x3f347cf3	0.7050316
34	0x3e461033	0.19342117
35	0xbf4982a2	-0.78714955
36	0xbf1aaabd	-0.60416776
37	0xbefdce16	-0.49571294
38	0xbef8fd9c	-0.4863099
39	0x3f4dd86f	0.80408376
40	0xbf6607ae	-0.8985547
41	0xbeef43b8	-0.46731353
42	0xbec2a8cf	-0.38019416
43	0xbec069f2	-0.3758083
44	0x3ed80d0d	0.42197457
45	0xbf57a650	-0.8423815
46	0x3ed17914	0.40912688
47	0x3f16008d	0.5859459
48	0xbed7af77	-0.42126057
49	0x3ebdd4b9	0.37076357
50	0xbe7501c1	-0.2392645
51	0xbf63ec86	-0.8903278
52	0xbe1dca88	-0.15409291
53	0x3eb781e2	0.3584128
54	0x3f707013	0.9392101
55	0x3f745f34	0.9545777
56	0x3f9d85e6	1.2306488
57	0x3f8bb881	1.0915681
58	0x3e99df38	0.30053115
59	0xbc9a03c8	-0.018800631
60	0xbefc36ba	-0.49260503
61	0x3f43d959	0.7650352
62	0xbf97456e	-1.1818063
63	0x3f00c83e	0.50305545

value.2.weight f4 [32, 64]
0	0x3e38a4dd	0.1803164
1	0xbf2879f0	-0.6581106
2	0x3ede59cd	0.43427888
3	0xbd02a729	-0.031897698
4	0x3e1bcbab	0.15214412
5	0xbe2c9475	-0.16853507
6	0xbe1d0382	-0.1533337
7	0x3ee06d1b	0.4383324
8	0xbeb7d9b7	-0.3590829
9	0x3deef370	0.11667526
10	0x3e79c624	0.24391991
11	0x3f9a20ce	1.2041261
12	0x3eb5db06	0.35518664
13	0x3e970b45	0.29500785
14	0xb8ee4f19	-0.000113634575
15	0xbed42a31	-0.4143844
16	0xbed69043	-0.41906938
17	0x3e8cabe7	0.274749
18	0x3e359e9b	0.17736284
19	0xbe90b493	-0.28262767
20	0x3ea740cd	0.32666627
21	0x3e6658ee	0.22494861
22	0x3dd52a77	0.1040849
23	0x3f554f1b	0.8332383
24	0xbd78550b	-0.06062798
25	0xbf149354	-0.58037305
26	0x3f43ea9f	0.7652988
27	0xbf039c71	-0.51410586
28	0x3dd1080c	0.10206613
29	0x3d9e128b	0.077183805
30	0x3e1cb047	0.1530162
31	0x3e38eb07	0.18058406
32	0xbe46badf	-0.19407223
33	0xbf57e70b	-0.8433692
34	0xbd7cedeb	-0.061750334
35	0x3ee0b579	0.43888453
36	0x3f04c943	0.518696
37	0x3f08e8c9	0.534802
38	0x3e0313e8	0.12800562
39	0xbea86f94	-0.32897627
40	0x3f54be61	0.83102995
41	0x3ebc52e0	0.3678198
42	0x3d17ad7d	0.037030686
43	0x3e8e6a4f	0.27815482
44	0xbe7ea3be	-0.2486715
45	0x3e8ac0e3	0.27100286
46	0xbebcb5ce	-0.36857456
47	0xbeb8923a	-0.36049062
48	0x3ec5aa7b	0.3860663
49	0xbf09dd4e	-0.5385331
50	0x3e824fcf	0.25451514
51	0x3e92e171	0.28687623
52	0x3c89d98d	0.01682737
53	0xbdada6a2	-0.08479048
54	0xbd9817d6	-0.07426421
55	0x3f026c03	0.5094606
56	0xbf08f078	-0.53491926
57	0xbebf018f	-0.37305877
58	0x3c7c5bcb	0.0154027445
59	0x3cb0aa0b	0.021565458
60	0x3ea90a4f	0.33015677
61	0xbf613f47	-0.8798718
62	0x3cab5ebc	0.020919196
63	0xbe7b7aee	-0.24558613
64	0x3e2da447	0.16957198
65	0x3e9fcd1e	0.3121118
66	0x3d007739	0.0313637
67	0xbecc8dfa	-0.3995207
68	0x3f2955ff	0.66146845
69	0x3e73cc8b	0.23808496
70	0x3f03ac3e	0.51434696
71	0xbef4fc11	-0.4784856
72	0x3f337302	0.70097363
73	0xbe1d5a56	-0.15366492
74	0xbe22a4da	-0.15883198
75	0xbe5be52d	-0.21474142
76	0xbec6d90f	-0.38837478
77	0xbea781e7	-0.32716295
78	0xbede3d5d	-0.4340619
79	0x3f570ffe	0.8400878
80	0x3ea2b49b	0.31778416
81	0xbef92196	-0.48658437
82	0xbe84b2a7	-0.2591755
83	0x3fcb9c43	1.5907062
84	0xbeea8f17	-0.45812294
85	0x3f409ad6	0.7523626
86	0x3cba54b2	0.022745464
87	0x3d99d858	0.075119674
88	0x3ecb57b5	0.39715353
89	0x3e6c9a05	0.23105629
90	0xbe6647d3	-0.22488336
91	0x3ded3605	0.11582569
92	0x3e4b38b5	0.19845851
93	0xbd456d33	-0.048199844
94	0xbe3eb6f5	-0.1862448
95	0x3f074eb5	0.5285447
96	0x3e0dbd45	0.13841732
97	0x3eb46b43	0.35238084
98	0x3eeae5d7	0.4587848
99	0xbe815a25	-0.25264087
100	0xbecc9526	-0.3995754
101	0xbef6ef0d	-0.48229256
102	0xbefbf5c2	-0.49210936
103	0x3eb6a5f7	0.35673496
104	0xbe7affd2	-0.2451165
105	0xbeb9b52c	-0.36271036
106	0xbe75a418	-0.23988378
107	0xbe8d1d7d	-0.2756156
108	0x3eb77aee	0.35835975
109	0xbf0182f4	-0.50590444
110	0x3e75a664	0.23989254
111	0x3e912fbf	0.2835674
112	0x3d8ff1fd	0.070285775
113	0x3e0ccd93	0.13750295
114	0xbdf4b0ff	-0.11947822
115	0xbf0ecddc	-0.55782866
116	0xbdfd4871	-0.12367333
117	0x3dd4860f	0.10377132
118	0x3e35740c	0.1772005
119	0x3c86e7cb	0.01646795
120	0x3ee4432c	0.44582498
121	0x3f0ddc7d	0.55414563
122	0x3e415c16	0.18882784
123	0x3df57d67	0.11986809
124	0xbec77638	-0.3895738
125	0xbe057c17	-0.13035618
126	0xbead3c9d	-0.33835307
127	0x3e7b1312	0.24518993
128	0x3f70a98f	0.94008726
129	0xbdc1fd59	-0.0947215
130	0xbf8b251f	-1.0870703
131	0xbeded334	-0.4352051
132	0xbf8c884e	-1.0979097
133	0x3e2a981b	0.16659586
134	0x3e2ed55b	0.17073576
135	0x3ec19ad1	0.37813428
136	0x3d9eeebc	0.07760379
137	0x3f1dcc67	0.6164002
138	0x3dd65020	0.104645014
139	0xbe7f3dbc	-0.24925894
140	0x3f13fab6	0.5780443
141	0xbeb73f0e	-0.35790294
142	0xbee727c4	-0.45147526
143	0xbe1afa66	-0.15134582
144	0xbdb054d0	-0.08609927
145	0xbebec450	-0.3725915
146	0xbc793eba	-0.015212709
147	0xbf162e90	-0.586648
148	0xbd84cc83	-0.0648432
149	0x3e9f85be	0.31156725
150	0x3f1cd21e	0.61258113
151	0x3e7dd4f6	0.2478827
152	0x3f1cde5a	0.6127678
153	0xbe75de94	-0.24010688
154	0xbee8c426	-0.4546215
155	0x3e364f87	0.17803775
156	0x3ef082da	0.46974832
157	0x3f7c5b5d	0.9857691
158	0xbea77552	-0.32706696
159	0x3f58092b	0.8438899
160	0x3daaebc1	0.08345748
161	0x3e631665	0.22176512
162	0x3f013e22	0.5048543
163	0x3c2884db	0.010285581
164	0x3ef68584	0.4814874
165	0xbe1e74b2	-0.15474203
166	0x3f2521da	0.6450478
167	0xbf334e3f	-0.7004127
168	0xbe63f29e	-0.2226052
169	0x3ef5ae4e	0.47984546
170	0x3f03c03d	0.5146521
171	0xbe860591	-0.26176122
172	0xbf18b156	-0.59645593
173	0xbe1a50ba	-0.15069857
174	0x3e48d525	0.19612558
175	0xbf2cd404	-0.6751101
176	0xbf855ada	-1.0418351
177	0xbd86a118	-0.06573695
178	0x3f13089f	0.5743503
179	0xbe792e7f	-0.24334143
180	0x3e4dade4	0.20085865
181	0xbe2b61bd	-0.16736503
182	0x3e925ec3	0.28587922
183	0x3f0fb6f2	0.5613853
184	0xbe0112ef	-0.12604879
185	0x3e10f519	0.14155997
186	0xbe3b82a7	-0.18311559
187	0xbefe744d	-0.49698105
188	0x3ed8192d	0.42206708
189	0xbe5fe6f5	-0.21865447
190	0xbd90a374	-0.07062426
191	0xbf0d8124	-0.5527518
192	0xbf2e83b4	-0.68169713
193	0x3e86053b	0.26175866
194	0x3f9329a0	1.1497078
195	0x3f2201da	0.63284075
196	0x3fb70dd3	1.4301094
197	0xbe2839f5	-0.16428359
198	0xbde4e1db	-0.11175891
199	0x3d864468	0.06556016
200	0x3e12a740	0.14321613
201	0xbf0b38f4	-0.5438378
202	0x3eb136f6	0.34612244
203	0xbe67e6e8	-0.22646677
204	0xbd852a9a	-0.06502266
205	0xbe62c3d1	-0.2214501
206	0x3f19202e	0.5981473
207	0xbd8aa76e	-0.06770216
208	0x3f0919fa	0.5355526
209	0x3e9c0cfd	0.3047866
210	0x3c4f24d2	0.012643056
211	0x4007008f	2.109409
212	0xbfabd363	-1.3423885
213	0xbfd74c6a	-1.6820195
214	0xbeaf6f70	-0.34264708
215	0xbef6efab	-0.48229727
216	0xbf12b1df	-0.5730266
217	0xbde887db	-0.113540374
218	0xbf1defda	-0.6169411
219	0xbd36c6f3	-0.044623327
220	0xbecc9e4f	-0.3996453
221	0xbe143ce4	-0.14476353
222	0xbf0e5715	-0.55601627
223	0xbf49619d	-0.7866457
224	0xbedd9b14	-0.43282378
225	0xbda77bf2	-0.081779376
226	0x3d3ebfbe	0.04656958
227	0x3d189183	0.037248146
228	0xbfa57f48	-1.2929468
229	0xbf560666	-0.83603513
230	0xbdbe45b2	-0.09290637
231	0x3e2af523	0.16695075
232	0x3dffa0ee	0.12481867
233	0x3e2c43ff	0.16822813
234	0xbc039269	-0.008030512
235	0x3e613db7	0.21996199
236	0x3d03e3dd	0.03219973
237	0x3e060c6d	0.13090678
238	0xbe6740fe	-0.22583386
239	0x3dbc575d	0.09196351
240	0x3fa7ebe5	1.3118864
241	0x3e90d97e	0.28290933
242	0xbe2189d7	-0.15775238
243	0x3ea3ee01	0.3201752
244	0xbe35d1c7	-0.17755805
245	0x3f5ee9ec	0.87075686
246	0xbd850ff3	-0.06497183
247	0xbeac8a59	-0.336993
248	0x3e4f75a2	0.20259717
249	0xbdc78c1e	-0.09743522
250	0x3edcc352	0.43117768
251	0x3e152886	0.1456624
252	0x3df9c86e	0.12196432
253	0x3f07071b	0.5274522
254	0x3df94c79	0.12172789
255	0x3e995caa	0.2995351

value.2.bias f4 [32]
0	0xbef9fe10	-0.48826647
1	0x3e5cc2d3	0.21558695
2	0x3e2b11e1	0.16706039
3	0x3dafc1a7	0.08581858
4	0x3c2ceb95	0.010554214
5	0x3f636e2e	0.88839996
6	0x3eb8053d	0.35941496
7	0x3dfa97e0	0.12235999
8	0xbdf728ad	-0.12068305
9	0xbd43e7c4	-0.04782845
10	0xbea9ada7	-0.331403
11	0xbf1237be	-0.57116306
12	0xbec1a261	-0.37819198
13	0x3e1d7953	0.15378313
14	0xbe879f21	-0.26488593
15	0x3c71e626	0.014764344
16	0xbee66f0f	-0.45006606
17	0xbea938ab	-0.33051047
18	0xbf049806	-0.5179447
19	0xbeeea5a0	-0.46610737
20	0x3e06b3d7	0.13154541
21	0xbcdd7434	-0.027032949
22	0x3e357cf0	0.17723441
23	0xbefe1bd8	-0.49630618
24	0xbed03ff6	-0.40673798
25	0x3e3cd5dc	0.18440956
26	0xbbef0ac2	-0.0072949836
27	0x3d212729	0.039343987
28	0x3d4b11bd	0.049577463
29	0x3d9c7af1	0.07640637
30	0xbc425762	-0.011861654
31	0xbd926e23	-0.07149913

value.4.weight f4 [1, 32]
0	0x41732a53	15.197833
1	0xc171279b	-15.072169
2	0x4180cfa9	16.101397
3	0xc183096a	-16.379597
4	0xc17cf8d6	-15.810751
5	0x41834aee	16.411587
6	0xc17300bf	-15.187682
7	0x4172307b	15.136836
8	0x417596aa	15.349283
9	0x417af27e	15.684202
10	0x417a5b89	15.647347
11	0x4172528a	15.145151
12	0x41726eaa	15.152018
13	0xc174a68b	-15.29066
14	0x4172df56	15.179525
15	0x418365dd	16.424738
16	0x4172e6af	15.181319
17	0xc17cc434	-15.797901
18	0xc182a8c0	-16.332397
19	0x41725f22	15.148226
20	0x417f04ae	15.9386425
21	0x417c730e	15.77809
22	0xc172bf0f	-15.171645
23	0x4170b7d7	15.044883
24	0xc185e656	-16.737469
25	0xc1775dbf	-15.460387
26	0x41806a70	16.051971
27	0xc17abfa3	-15.671786
28	0xc1711ecb	-15.070018
29	0x417c6d4d	15.776685
30	0x41840003	16.500006
31	0xc171e033	-15.117236
