models/Swimmer-v2.model (torch_old, 23716 bytes, 12 tensors)

log_std f4 [1, 2]
00000000: f952 52bf 65ee 56bf
-0.82157856 -0.8395751

policy.0.weight f4 [64, 8]
00000000: 8f1f 23bf 04b4 933a 5325 703e 63a6 583f
00000010: 5ab7 523e 220d dd3e d219 57bf b1a9 e83f
00000020: c554 2b3f 66e1 3abf ef89 0b3f 6b52 1abf
00000030: 743a d33e 4140 77bf 3445 433e 1954 973f
00000040: 7ab6 12bf 2742 003e 30cd 3cbe 5bfd 613f
00000050: d3bf f2bf f069 a73e 2484 22bf 757f febe
00000060: 64a9 ab3f 45b8 8fbf 4a4d f53c c490 d83f
00000070: 7a89 a03f 4322 85bd abf9 2e3e 6f1a 5bbe
00000080: 73ca d9be 34f2 243f d712 dabf 401e aabe
00000090: be1f 2dbf f459 f5bc c238 603d 8ff7 03be
000000a0: 1ed0 d6be 524d 64be 865e 94bf 0a45 43bf
000000b0: 773e 45bf 76e5 6bbe 1410 39be 1941 59bd
000000c0: b9ed 85be 6d38 53bf 68e8 2039 db81 85bf
000000d0: 5f6f 04be 1407 f83e 6929 e0bd 06cc 44bf
000000e0: c942 a33f afe2 60c0 5e37 423f d21b 243f
000000f0: c83c 4fbf 933f b73e 764f 273d 92d1 45bf
00000100: a5a5 cfbe 05c0 a13e 7715 cabf 690d 613f
00000110: c6b8 69bf 5d71 14be d311 a23e 9e00 e9be
00000120: 382e 35bf efb1 6dbf 6472 0cbf aa38 bd3c
00000130: 7304 87be df2c b43e d3b1 6e3e f932 d0be
00000140: d012 dd3e 6de1 503f acec 13bf 4ea4 0f3f
00000150: 6343 c83f 8cc0 1f3f c633 4fc0 f042 1d3f
00000160: 7f24 453f a6a0 e83d 84e3 c1bf 032e 5bbf
00000170: 7dd3 b4bd 85c4 e9be e454 6e3f 21c7 303f
00000180: 38bd 4d3e 4418 a23e 01a8 edbf 72df dbbf
00000190: b9a3 293f 42d3 8ebe 037f 093f b75e aabe
000001a0: 36eb aebe a5c5 5a3e 079a 2040 1bd2 1b3f
000001b0: 2cf4 fabf 84f7 973d 8d48 c9bf b098 123f
000001c0: aa03 e2bf 8837 5e3f 58c4 fd3f 2120 76be
000001d0: 86f9 c6bf 5fb9 f2bd b1a0 273f 3c05 6bbe
000001e0: cb54 08bd b921 263f a4d4 acbf b7f6 423f
000001f0: a02f 673f dcb5 54be 84c6 003e bdd5 933f
00000200: b9a4 f13e 8975 223f 3bc9 85be 0e90 94be
00000210: 3116 bd3f aced 94be 7c1d b43e dca0 993e
00000220: 9ca4 80be 7cd6 4a3e 96e1 6bbe 35d6 4a40
00000230: 3e2d 013f 20e5 983f 1d64 adbd be79 9abe
00000240: 7f3f b93d ccc4 aa3e c33d 3c3e 8ae0 14c0
00000250: 0181 2240 04e0 71be 8bae a63f 8891 73bf
00000260: 333b 2bbf 27be 69bf 4cdf e73e a7cc 213f
00000270: d363 2cbf e7ad 2bbf e699 633f 448d df3e
00000280: 492b f83d 5f5a 073f 3342 92be a910 863f
00000290: edb4 6e3f ac1e f1be 9a0a f33b 2c9c 1f40
000002a0: 469d 873e aa6c e7be 1e4c 2f3f 6567 743e
000002b0: 4664 26c0 7cdd e03d a723 a9be 3f2e 063e
000002c0: 5be4 133f 2ebe 313f d454 17bf f0f5 8dbd
000002d0: e8b6 c53f 2bc3 893e 6a97 ffbe da6b 0ebe
000002e0: 7287 12bf 13fb 673f 89b5 61bd df24 8d3f
000002f0: a88f 3b3f acf7 593f ee64 48be 04a0 dabd
00000300: 4231 39bf 0574 cfbe 1aec 2a3f 5049 7540
00000310: f0bd 5b3f 5362 0840 92a9 a8bf 1495 fbbe
00000320: 9459 54be 3645 3dbf 9caa 233e 61d4 fd3f
00000330: 5856 62bf 36a7 b33e 7870 8cbf f391 0340
00000340: d046 bc3f 556b 88be 2942 33bf 954c 0fbe
00000350: 579a 6140 0430 0abf 510e 0f3f 69a7 cfbe
00000360: 74e3 ea3e d8ce 033f 2cde 09bf 55ac 35bf
00000370: b714 8abe fa7f 583f aa57 09bf 9d6f 5bbf
00000380: 22ea efbe a333 433f 292a 76bf 2517 eb3e
00000390: ba29 de3f cfae 333f 2cba 513e 36a4 b3bf
000003a0: 86ce ecbe 4760 aabd 795a 98bf 7ead 27bf
000003b0: 4a42 593f e03a fa3e bdc8 e3bd e41d aebc
000003c0: e257 ee3e 76cf 183f 0a12 b13e 6b3e 3b3f
000003d0: 695c fe3f 6f6c 5a3e 2cf5 4cbe a571 1abe
000003e0: 3cf8 893f 9870 85bf 2427 92bf ea3b 173f
000003f0: adc4 6440 0407 0dbd 4c89 153f 7424 e53d
-0.6372003 0.0011268859 0.23451738 0.84628886 0.20577756 0.43174082 -0.84023774 1.8176786
0.66926223 -0.7300018 0.54507345 -0.6028201 0.41255534 -0.9658242 0.19069368 1.182254
-0.5730969 0.12525235 -0.18437648 0.88277215 -1.896479 0.3269801 -0.6348288 -0.49706617
1.3411069 -1.122811 0.02994408 1.6919179 1.2541955 -0.065006755 0.17087428 -0.21396802
-0.4253727 0.6443207 -1.7037 -0.33226204 -0.6762656 -0.02995012 0.05474163 -0.12887405
-0.41955656 -0.2229512 -1.1591346 -0.7627722 -0.7704844 -0.23036751 -0.1807254 -0.053040598
-0.2615793 -0.82507974 0.00015345367 -1.0430254 -0.1293311 0.484429 -0.10945398 -0.76873815
1.2754756 -3.5138357 0.75865734 0.6410495 -0.8095212 0.3579069 0.040847264 -0.77272904
-0.40556064 0.31591812 -1.57878 0.8791109 -0.91297567 -0.1449637 0.31654224 -0.45508283
-0.7077365 -0.9284963 -0.54862046 0.023098309 -0.26370582 0.35190484 0.23310022 -0.4066389
0.43178415 0.8159397 -0.5778301 0.56110084 1.5645565 0.6240318 -3.237535 0.61430264
0.77008814 0.11358766 -1.5147557 -0.85617083 -0.08829401 -0.45657745 0.9309828 0.69053847
0.20091712 0.31659138 -1.8566896 -1.7177565 0.66265446 -0.27895552 0.5370943 -0.33275387
-0.34163827 0.21364458 2.509401 0.6086747 -1.9605765 0.07420257 -1.5725266 0.5726423
-1.7657368 0.86803484 1.9825544 -0.24035694 -1.5544899 -0.11851763 0.6547957 -0.22951216
-0.03328399 0.64895207 -1.3502393 0.76157707 0.90307045 -0.20772499 0.12575728 1.1549603
0.47195986 0.63460594 -0.2613009 -0.29016155 1.4772397 -0.2908758 0.35178745 0.30005538
-0.25125587 0.19808382 -0.23035273 3.1693242 0.5045966 1.1944923 -0.08466361 -0.30171007
0.09045314 0.3335327 0.18382935 -2.3262048 2.5391238 -0.23620611 1.3022016 -0.9514394
-0.66887206 -0.91305774 0.4528755 0.632029 -0.6733982 -0.6706223 0.88906705 0.43662465
0.12117631 0.5287227 -0.2856613 1.0473834 0.9324482 -0.47093713 0.0074170353 2.493907
0.26487178 -0.45200092 0.6847552 0.23867567 -2.5998702 0.10979745 -0.33035013 0.13103579
0.5777032 0.69430816 -0.5911381 -0.069316745 1.5446444 0.26906714 -0.49920207 -0.1390833
-0.57237923 0.90617484 -0.055104766 1.1026877 0.7326608 0.8514354 -0.19569752 -0.10675052
-0.72340786 -0.40518203 0.6676651 3.8325996 0.85836697 2.1310012 -1.3176749 -0.49137175
-0.20737296 -0.7393373 0.15983051 1.9830438 -0.88413 0.3508851 -1.0971823 2.055783
1.470911 -0.26644388 -0.7002283 -0.13994057 3.5250452 -0.53979516 0.5588122 -0.4055741
0.45876658 0.51487494 -0.5385463 -0.7096608 -0.2696893 0.84570277 -0.5364939 -0.85717183
-0.46858317 0.76250666 -0.9615808 0.45916095 1.7356484 0.7018861 0.20481175 -1.4034488
-0.46251315 -0.08319145 -1.190261 -0.65499103 0.84866774 0.48873043 -0.11122272 -0.021254487
0.46551424 0.5969156 0.34584075 0.7314212 1.9871951 0.21330427 -0.200154 -0.15082414
1.077888 -1.0424986 -1.1418195 0.59075797 3.5745041 -0.03443052 0.58412623 0.111885935

policy.0.bias f4 [64]
00000000: 54a4 2cbf 86a8 b43e 83a1 883e 9f1c a43d
00000010: 7cfc 013f 6055 c4be cf48 8d3e 512c 55bf
00000020: 4c45 a2bc 1d96 e5be edf2 e5be dfa7 833e
00000030: fdf0 153f 9040 0abd a5f4 d63f 0454 05bd
00000040: 060d 92be a2d7 143f 04a6 cdbe 7d9b 433e
00000050: 881f c9bd 7833 b93e bd1b afbd e321 5bbf
00000060: 7e33 3d3f 0577 a6bc 326d 9f3f 6cac a63e
00000070: cc98 fbbd 7ee4 d8bd deb4 903e 41f9 023f
00000080: d5bd 4a3e c986 1a3e 1c21 a03e fba2 a9bd
00000090: b808 c0be 7848 8cbe 9480 123e 3d14 c2bc
000000a0: c898 3b3f 8e45 6f3e 48f5 13bf b3dd 02be
000000b0: 4f30 08bf 2eab a9bd 64af 4ebf 2462 76bd
000000c0: 5e57 413e cd71 f5be 0899 f23d 6c61 e4be
000000d0: 5d01 7abe 3637 803f 7a9c 8b3f 04db 2bbe
000000e0: 1d5b ea3d 8690 633d 27be 213f 6fe0 103f
000000f0: e460 f3be 2c3f 1fbf f473 a2bc c9f5 31bf
-0.67438245 0.35284823 0.26685724 0.080132715 0.50775886 -0.38346386 0.2759461 -0.83270746
-0.019808434 -0.4484109 -0.449119 0.25714013 0.58570844 -0.033752978 1.679341 -0.032550827
-0.2852556 0.5814153 -0.40165722 0.19102283 -0.09820467 0.3617208 -0.085502125 -0.8559858
0.73906696 -0.020320425 1.2455199 0.32553422 -0.12285003 -0.105904564 0.2826299 0.5116158
0.19798978 0.15090479 0.3127526 -0.08283039 -0.37506652 -0.2739904 0.14306861 -0.023691291
0.7328 0.23366377 -0.57796144 -0.12779884 -0.53198713 -0.08284603 -0.80736375 -0.060152188
0.18880984 -0.47938386 0.11845595 -0.44605577 -0.24414583 1.0016849 1.0907128 -0.16782767
0.1144316 0.05555775 0.63180774 0.5659246 -0.4753486 -0.6220577 -0.019830681 -0.69515663

policy.2.weight f4 [32, 64]
00000000: 65b1 7fbe 2b25 083f 6448 ddbe 6b11 e83e
00000010: 287b 02be 41fc 8bbf 61b9 ffbd 1c4b e13d
00000020: e5dc 9bbf 69fe 95bf 605d 26bf 1b02 4dbf
00000030: 5d84 533f 2226 82be a9e7 37bf f130 d83e
00000040: 3d55 273e de45 443e daa2 45bf 50f7 c6bd
00000050: a64c b03e 57fd da3c 4490 653f ad8b 573e
00000060: 0d17 0abf 217c 0bbf a489 463e 6204 5dbf
00000070: 5f94 623f 62e3 57bf 2c0d 953e cf77 2e3e
00000080: 3ff6 fe3e 5363 873f d69e 133f fc5b e1be
00000090: a621 bbbf d13a 843f 54ca dc3e 7640 b13f
000000a0: a766 56be 8210 edbe 1ff1 193f b0dc a63f
000000b0: a8cc 0dbe 888c ed3e 58ea 63bf 36a6 d13e
000000c0: 8f66 21bf e722 263f 1a76 7dbe c806 433f
000000d0: 76c8 153e 25e7 4c3e 0b82 4a3f 5f7b 08bd
000000e0: 009b a7bf 50d0 283f d92c 203f 6cfd 31be
000000f0: 9faa db3e 10e6 f93d 6a2c 05bf 51cc 1e3f
00000100: a3b2 ae3e 2a83 a43d b19f 8c3e 4966 45be
00000110: 304f 74bf d69c 3bbd 6ca3 39bf ee1f 33be
00000120: ea5d aebf 2ddf 72be 6931 33bc fd29 563d
00000130: 413b 18bf 9569 a43e a7f1 08be e560 f5be
00000140: 0535 113d 3af6 82bf 49fc 903d 8cff 393f
00000150: a01c 773e f5df 2d3f 04e5 dbbe 6ec5 64be
00000160: 28d4 b7be 6006 a33f 766e 973d 7c61 0abf
00000170: ce68 81bf 2909 4fbe 2f0c 5dbf 2823 7d3e
00000180: 300b ea3e 58b2 653f e38d b83f 4d1a 37bf
00000190: b00f 203f fd46 163f 92fe 10bf 46b7 ad3e
000001a0: a984 c3be 3ba8 76be d0f2 523f 88b7 40bf
000001b0: 459b 273e fe5e 563f 11bd ef3f 2395 e93e
000001c0: b8c1 263f e85d 883e 2546 893e 03d2 bbbf
000001d0: e8fd 403d bed6 48be 9513 79bf ab40 9b3c
000001e0: 6ecb e9be 0f5c 71bf 3573 0bbf fecb 243b
000001f0: 8d38 013f fe91 c43e 61ef 1e3e 5f28 9bbe
00000200: cbd5 7f3e 45df a43f ef7d b6be cc0f 77be
00000210: 3d0c 263f d819 4e3f b4e2 bb3d 3342 033e
00000220: 96bd 2fbf 0a21 ddbd a247 a43d 718a 5d3f
00000230: 6dac b93e 19ad 963d 26ce 14be 1c66 93bd
00000240: eb7c a23d 2e9f 6dbd 9f91 d53d 310d 98be
00000250: 5385 0cbf 640a c03e 165c 53bd e637 bbbe
00000260: 5178 93bf 2e15 733f 6b6f 203d 634a e6be
00000270: 6430 ab3d 97b9 abbc 3e0a 12bf e1b5 8a3e
00000280: e03c 0fbf 61c4 1e3e b3df f0be 0b3a 743d
00000290: f7f0 293d 3b38 e13e 507b ffbe 6a4f cc3e
000002a0: 4d88 49bf a3b6 68bd 5894 853f ed70 09be
000002b0: 0440 0b3f 54da e93e a90f cf3f 0e01 02bf
000002c0: 46cf a13d 9614 34bf f36b 033d fff0 8e3e
000002d0: ae9e 223d f4c8 133f 9575 76bf d577 b8be
000002e0: dc68 04bf a20d cbbf e268 0ebe 49f2 e4bd
000002f0: 6c25 11bf 43c4 0b3f ed92 283f 9c55 203f
00000300: 01e5 2f3e 1c5f 9a3d 7a26 373f 4dde e9bd
00000310: 0e3a a0be c570 9f3f 1bc8 073f 60de 2a3f
00000320: ec03 1c3f b773 e93f 66b2 53be e108 6dbf
00000330: 0a21 efbd cecd 193e 9750 37bb cb32 913e
00000340: 7e1f 6abd 55a8 80bd 48ae 043f 0476 333f
00000350: b6ba 423e b28a 64bf 000b 9cbe 5c83 573e
00000360: b369 d83e 7922 f83e f58f 37bf 8ade b2be
00000370: 5db0 0cbe 5112 373f b818 6ebf 70e0 0a3f
00000380: deec 9d3e 5009 2fbf 3160 893d 6725 4f3f
00000390: ea06 893f a139 483f 565d 9d3e 7a01 bbbe
000003a0: efbf adbf fa5e 2e3f c8e2 cb3e 340a 2abe
000003b0: b940 1d3f 33de 753e d957 de3e c55f 9a3d
000003c0: d7db 5fbe a930 64be de15 b73e cc82 1ebe
000003d0: 1d42 3f3e f43c aabf a8a7 71be b116 b2be
000003e0: fb17 8e3f 312c ab3e bb1b 78bd e5cc 2d3f
000003f0: 5076 283c 3b5c 20be aecc 8dbf 29a4 9d3d
-0.24970014 0.53181714 -0.43219292 0.4532579 -0.12742293 -1.0936357 -0.1248653 0.11000654
-1.2176787 -1.1718265 -0.6498623 -0.8008134 0.82623845 -0.25419718 -0.7183786 0.4222484
0.1634111 0.19167277 -0.77201617 -0.0971514 0.34433478 0.02673213 0.89673257 0.21049376
-0.5394142 -0.5448628 0.19388443 -0.8633481 0.88507646 -0.84331334 0.29111612 0.17037891
0.49797246 1.0577186 0.5766424 -0.4401549 -1.4619644 1.0330449 0.43123114 1.3847797
-0.20937596 -0.46301657 0.60133547 1.3036098 -0.13847601 0.4639628 -0.89029455 0.4094712
-0.63047117 0.64897007 -0.24752083 0.7618222 0.14627251 0.2001005 0.7910468 -0.03332078
-1.3094177 0.6594286 0.6256843 -0.17381829 0.4290361 0.12202084 -0.52020895 0.6203051
0.34120664 0.0803283 0.27465585 -0.192773 -0.9543333 -0.045803867 -0.72514987 -0.17492649
-1.362241 -0.23717947 -0.010937073 0.052286137 -0.59465414 0.32111803 -0.13373433 -0.47925487
0.035450954 -1.0231392 0.070793696 0.7265556 0.24132013 0.67919856 -0.42948163 -0.22340938
-0.3590405 1.273632 0.073941156 -0.54055 -1.0110109 -0.20218338 -0.86346716 0.24720442
0.4571166 0.89725256 1.44183 -0.71524507 0.6252394 0.5870207 -0.56638443 0.3392889
-0.3818715 -0.24087612 0.8240175 -0.75280046 0.16367824 0.83738697 1.8729573 0.45621595
0.6513934 0.26634145 0.2681133 -1.4673465 0.047117144 -0.19613168 -0.97295505 0.018951735
-0.45663017 -0.94281095 -0.54472667 0.0025146003 0.50476915 0.38392633 0.15521003 -0.30304238
0.249839 1.2880636 -0.35642955 -0.2412712 0.64862424 0.80508184 0.091740996 0.12818222
-0.6864866 -0.10797317 0.080214754 0.8653937 0.36264363 0.073572345 -0.14531764 -0.0719721
0.079339825 -0.058013134 0.10428166 -0.29697564 -0.54890937 0.37507927 -0.051601492 -0.36566085
-1.1521093 0.9495419 0.039168756 -0.44978628 0.08358839 -0.02096252 -0.5704688 0.27091888
-0.5595226 0.155046 -0.4704567 0.059625667 0.041489568 0.43988213 -0.49898767 0.39904338
-0.78723603 -0.0568148 1.0435896 -0.13421984 0.54394555 0.45674384 1.6176654 -0.5078286
0.079008624 -0.7034391 0.03208537 0.2791824 0.03970211 0.57728505 -0.96273166 -0.36028925
-0.517225 -1.5863535 -0.13907197 -0.11179025 -0.56697726 0.54596347 0.6584919 0.6263063
0.17177202 0.07537672 0.71543086 -0.11419354 -0.31294292 1.245629 0.5303971 0.6674557
0.60943484 1.8238438 -0.20673522 -0.92591673 -0.116762236 0.15019915 -0.002797162 0.28359064
-0.05715894 -0.06282107 0.5182843 0.7010195 0.19016537 -0.8927413 -0.30477142 0.21046203
0.42268142 0.484638 -0.71704036 -0.3493541 -0.13739152 0.71512324 -0.9300647 0.54248714
0.30844778 -0.68373585 0.067078 0.80916446 1.0705235 0.78212935 0.30735272 -0.36524564
-1.3574198 0.6811367 0.39821458 -0.16605455 0.61426884 0.24010544 0.43426397 0.07537798
-0.21861206 -0.22284187 0.3575887 -0.15479583 0.18677564 -1.3299851 -0.23599112 -0.34782937
1.1101068 0.33432153 -0.06057332 0.6789077 0.010282114 -0.15660183 -1.1078088 0.07697327

policy.2.bias f4 [32]
00000000: 096a a13e aefd d5bd 6555 46be 7e30 2bbf
00000010: ef8f 673e b3f9 333e f804 18be 785d e9be
00000020: 8171 2c3e 8543 fa3e 056d a8bd 6fbe bcbd
00000030: 51e0 cb3e fc0d fa3e 6b23 03bf 3c04 ab3e
00000040: 309f 943c e788 4e3e 1413 afbe be20 02bf
00000050: a260 f2be f618 4cbe 3761 2f3f b953 2dbf
00000060: 2857 053e 3cd5 9b3e c2c2 843e 353e 8c3d
00000070: 8c0f d4bd 220c 9fbe 7739 703d 8c90 6ebe
0.3152621 -0.10448776 -0.19368513 -0.6687087 0.226135 0.17575721 -0.14845645 -0.45579123
0.16840173 0.48879638 -0.08223919 -0.0921601 0.39819577 0.48838794 -0.5122592 0.33401668
0.018142313 0.20169412 -0.34194243 -0.5083121 -0.4733935 -0.19931397 0.68507713 -0.67705876
0.13021529 0.30436122 0.25929838 0.068478025 -0.10354528 -0.31063944 0.058648553 -0.23297328

policy.4.weight f4 [2, 32]
00000000: 0a0e 22bf f367 30be 8454 583f 06ab a03f
00000010: 5676 93be f770 98bf 527c d83e 2e86 15bf
00000020: 9031 b4be d545 4c3c 3e0b 8b3f c00a 12bf
00000030: c73c e3bf 73ab 0cbf ac27 1bbf db56 14bf
00000040: d3d2 453f 358d d2be b733 0f3f 956f 833f
00000050: a63f b23f f98e 6fbf 3c67 3fbf e747 823f
00000060: d15a 593f 7f94 93bf 3026 7b3f f132 cbbe
00000070: 7ea2 2d3e fb5c 9e3f 845b 893e 6827 ddbd
00000080: 5357 7ebf 4a52 b43e 88d4 303f 9b37 c8be
00000090: 94bd be3f 7976 2b3f 19e1 82bf f030 97bf
000000a0: fcf3 8abf fe08 52bf 4dde 42bf 7d43 9ebf
000000b0: 3484 f0be d555 9abf 9708 663f 938b 7e3e
000000c0: 5783 d4be 7b45 51bf f4d4 3ebf 9792 cc3e
000000d0: 4599 133c ecd4 7d3f 0003 c13e 19b1 6cbe
000000e0: 5fcb 2a3f 35f4 4fbe 662c a5be 5c74 b4be
000000f0: 780d 9dbf bb19 bfbe 1197 9cbe d3b9 8cbf
-0.6330267 -0.17227153 0.8450396 1.2552192 -0.2880122 -1.1909474 0.4228235 -0.58407867
-0.35194063 0.012467821 1.0862806 -0.57047653 -1.7752923 -0.5494911 -0.6060741 -0.5794503
0.7727482 -0.41123357 0.55938286 1.0268427 1.3925674 -0.93577534 -0.747669 1.0178193
0.849042 -1.1529692 0.98105145 -0.39687303 0.16956517 1.2372125 0.26827633 -0.10798532
-0.99351996 0.35219032 0.69074297 -0.39104924 1.4901605 0.6697765 -1.0224944 -1.181181
-1.0855708 -0.8204497 -0.76120454 -1.2364346 -0.46975863 -1.2057444 0.8985686 0.24857931
-0.41506454 -0.81746644 -0.7454369 0.3995559 0.00900871 0.9915302 0.376976 -0.23114432
0.6671657 -0.20308001 -0.32260436 -0.35245025 -1.2269735 -0.37324318 -0.30584005 -1.0994209

policy.4.bias f4 [2]
00000000: c422 213d fba8 cdbe
0.039339796 -0.40167984

value.0.weight f4 [64, 8]
00000000: 94a8 b4be 5913 37be ca2c ccbe e2b6 8ebd
00000010: 1350 e33e 8e25 053f 913d a53d de2d 89bd
00000020: e246 03be beb7 313e 4865 8abf db6c efbf
00000030: 704b 0b3f ddb0 0d3e 7551 a5be 19c9 54be
00000040: 541b 90be 4835 8ebf 2716 c93e 5423 7a3f
00000050: 32b4 4cbe 7785 8e3d 2c27 f53e 7376 3b3e
00000060: e3af b1be e0c3 683e d54d 483f 318b 083f
00000070: 5237 0ebf 3d55 953d 9da7 ee3d 139a 8e3e
00000080: bc1f 243f bf3e c9bd 78f5 273f 6bf4 b63c
00000090: 3442 0b3f 34e0 883d 9197 c23d e996 8f3d
000000a0: 204d 1040 ca7d be3e 33c5 06c0 cf67 c73e
000000b0: aa2e 903e fa9b eebe 8257 c5be 0911 44be
000000c0: b2dc 073f c467 34bf 0caf 823f 8cd0 0ebf
000000d0: 9094 81bf fa4c 803e f97f 2abe 7ef5 d23e
000000e0: 5b1f 19bc 77de 5f3f e056 cf3f 8318 28bf
000000f0: b3b1 03be c019 083f b117 e9be 8723 253e
00000100: 4ef7 74bc 627d febe 781d 1e3f 817d 08bf
00000110: 8dcc f23e af8b 98be cecd bb3e 8cba 93be
00000120: 1327 d1be 482c 3b3d eb86 93bf a525 2ebe
00000130: a22b 33bf c46a 9ebe d7b8 a53e c9f5 263e
00000140: e32c 8dbf 8b33 69bf c720 efbe 0305 09bf
00000150: 4f2c f03e 250d 95be 7876 79be 023e ff3c
00000160: ed56 283f d951 603f 8de8 28bf 30a3 473f
00000170: e4ed ca3e c7d0 adbe ff9f 5d3e f0c9 1abe
00000180: 48df 2abe d9e4 cabe 3f90 b33f 763c 5ebe
00000190: 886c 54be 8767 0c3f 125b 8fbe 835f a7be
000001a0: c6dc 583d 51a4 01bf 99e5 443e aa59 0b3e
000001b0: 85d3 293f 5bab 24bf 2fd0 cbbe cd47 07be
000001c0: e1f5 dcbe 94f5 50bf d5a9 953f ad6a 3f3f
000001d0: dc61 b13f 7b73 ca3d 8897 0c3f 4587 74be
000001e0: 5166 1fbe ee67 02bd 315a 003f 70d3 85bf
000001f0: f466 87be 530c 9bbf e242 f33e d22d 16bd
00000200: d25f 1abf 80d9 1e3e 6f6a d9be bc74 60bf
00000210: 50a0 9fbe 6669 c93d c090 113e 4731 2b3e
00000220: 5f13 78be 775f c93e feba 13bf 2dfe 773f
00000230: f3e6 32bf 5a51 b6be b445 723f c1d1 7abe
00000240: ef89 1f3e c896 1fbf 8f8b 433f f751 78bf
00000250: 94e7 e5bf f42c b13e 9f89 aabe 8a36 1f3e
00000260: fba2 0abf 5628 fb3e 7bef ec3d cf4a 80be
00000270: 6f88 8ebd f6fd 02be 56e1 d6bd dd0e 0abc
00000280: 743e 953e 91cb 773f fafb 33be ab77 68bf
00000290: c91d 813f 55f1 e43d 7407 a33e 3dc2 973e
000002a0: 29af 3dbf 2f20 4cbf f510 2bbe f225 3a3c
000002b0: 2038 883f a628 8f3e d9c1 103f cbd6 283e
000002c0: 18bc 963e c396 dcbe ad7a 983f eec2 c63f
000002d0: 44d5 203f 90d5 323f aff4 81be 4146 5dbe
000002e0: 1a11 b5be f7e9 77bf 5115 603e c776 ed3d
000002f0: 9c91 2a3f 7950 2e3e b2cf 283f f6ac 8bbe
00000300: 4cae 203f f0fd 2e3f da97 07bf bc3a 4f3d
00000310: 60d3 d53e a48c 14bf 7f37 d9be 7a01 1b3c
00000320: b828 8fbf c05a 85bf 45a4 813c 93f1 343d
00000330: 367f 2ebf 0aa8 98be 7d0b eebe 849e 4fbe
00000340: 25bf 353e bcd7 073f e41c 653f 2af3 b23f
00000350: 02c7 ba3c 8abc 87bd 1015 073f aedf bd3b
00000360: 4223 22bf 6404 323e 5e95 a2bd fa9a 74bd
00000370: d257 91be cb66 ef3d 2f1c 253e 1cad 433d
00000380: f053 c0bf daec d3bf f131 d5be 4d94 e13e
00000390: 2929 29be 3d2d 8e3e 3a58 043e d35d 09bd
000003a0: dc84 88bf 56bd 80bf 91c6 7abf 02ab f7be
000003b0: abdf eb3e b28e 96be 65ca df3d f4d8 74bd
000003c0: b091 1dc0 3ef8 b5bf b901 57be d4d5 19bd
000003d0: 21a1 c0be f449 6a3f 9e1a 18be f55c 80bf
000003e0: 2fed 3abd 84b9 0abf 0a47 a0bf 3799 a4bc
000003f0: ef40 8ebc 5d00 863e 8dff 4abe 7516 91be
-0.35284865 -0.17878474 -0.3987792 -0.06968476 0.4439703 0.5201043 0.080683835 -0.066982016
-0.12820008 0.17355248 -1.0812159 -1.8705095 0.54411983 0.13836999 -0.3228871 -0.20779838
-0.2814585 -1.111001 0.39274713 0.97710156 -0.19990614 0.0695905 0.47881448 0.18306904
-0.34704503 0.2273097 0.7824376 0.5333739 -0.5555316 0.072916485 0.116530634 0.27851924
0.6411092 -0.09826421 0.6560893 0.022333344 0.5439789 0.06683388 0.09501565 0.07011206
2.2547073 0.37205344 -2.105786 0.38946387 0.28160602 -0.46603376 -0.38543326 -0.19147123
0.5307113 -0.70470834 1.020967 -0.5578697 -1.0123463 0.25058728 -0.1665038 0.4120292
-0.009345855 0.8744883 1.6198387 -0.656624 -0.12860756 0.5316429 -0.45525888 0.16126834
-0.01495154 -0.49705034 0.61763716 -0.53316504 0.47421685 -0.2979407 0.36680454 -0.2885326
-0.40850124 0.045696527 -1.1525549 -0.17006548 -0.69988453 -0.3094083 0.32367584 0.16304697
-1.1029323 -0.91094273 -0.46704695 -0.5352327 0.46908805 -0.2911159 -0.24361598 0.031157497
0.6575764 0.8762489 -0.65979844 0.7798338 0.3963462 -0.33948347 0.21643065 -0.15116096
-0.16686738 -0.39627722 1.4028395 -0.21702752 -0.20744526 0.5484547 -0.2799917 -0.32690057
0.05294492 -0.5064135 0.1922821 0.13608423 0.6633838 -0.6432397 -0.3980727 -0.13210984
-0.4315634 -0.8162472 1.1692454 0.7477215 1.3857989 0.098853074 0.5491872 -0.23879726
-0.15566374 -0.031837396 0.5013762 -1.0455151 -0.26445735 -1.2113136 0.47511965 -0.03666479
-0.6030246 0.15512657 -0.42464015 -0.8767812 -0.31176996 0.09834556 0.14215374 0.16718017
-0.2422614 0.39330646 -0.577072 0.96872216 -0.6988365 -0.3560894 0.9463761 -0.24494077
0.15579961 -0.6233945 0.76384825 -0.9700007 -1.7961297 0.3460461 -0.33308122 0.15548149
-0.5415494 0.4905421 0.11569115 -0.25057074 -0.069596164 -0.12792191 -0.10492198 -0.008426395
0.2914921 0.9679499 -0.1757659 -0.908076 1.0087215 0.11178843 0.31841624 0.2964038
-0.740954 -0.7973661 -0.16705687 0.011361586 1.0642128 0.279607 0.5654579 0.16488187
0.2944038 -0.43083772 1.1912438 1.5528238 0.6282542 0.6985712 -0.2538199 -0.21608831
-0.3536461 -0.9684138 0.21883132 0.115949206 0.6662843 0.17022885 0.6594192 -0.27280396
0.62765956 0.6835623 -0.5296608 0.050593123 0.4176283 -0.580271 -0.42425153 0.009460801
-1.1184301 -1.041832 0.0158254 0.044175696 -0.6816286 -0.29815704 -0.4649314 -0.20275313
0.17748697 0.5306356 0.8949721 1.3980458 0.022799972 -0.06627758 0.52766514 0.005794487
-0.6333505 0.17384487 -0.07938646 -0.05971811 -0.28387314 0.11689528 0.16124032 0.04777251
-1.5025616 -1.6556656 -0.41639665 0.44058457 -0.16519608 0.2776889 0.12924281 -0.033536743
-1.0665545 -1.0057781 -0.9795924 -0.48372656 0.46069083 -0.29405743 0.109272756 -0.059777215
-2.462017 -1.4216383 -0.20996751 -0.037557438 -0.37622932 0.91519094 -0.14853904 -1.0028368
-0.045636352 -0.54189324 -1.2521679 -0.02009259 -0.017364947 0.26172152 -0.19824047 -0.28337446

value.0.bias f4 [64]
00000000: 882c 883f 12e4 583e 03a9 acbd 7cc7 033f
00000010: bda7 b4bf ced0 373f cc8b cfbe 501f 8cbf
00000020: f9f1 e6be e7e8 0a3f af92 9f3f 150f 9cbf
00000030: a890 17bf 0894 53bf 55a6 46bf d236 f13e
00000040: 7562 933f 03d6 bb3e ee6b 213f b872 8d3f
00000050: 9887 273f bb53 9e3f efdd cd3e 3e31 033f
00000060: 8c4f b7bf 0c27 853f ae85 f43e f92c a03f
00000070: e1f1 673f 01d5 7b3f 87e5 ce3d 73b4 14bf
00000080: 768a 09bd e054 493d 310a 8cbf d3d3 0abf
00000090: b44d 813f b803 9e3f 4ad0 08be bf2e c9bf
000000a0: 6043 9dbf 7501 a33e dcc2 02bf f22e 6b3f
000000b0: c50b 3dbf b12b 373d ea60 20c0 3c10 8ebf
000000c0: 0e48 a4bf fd21 b33f e643 88be 716b c0be
000000d0: ba6e 0cbe 64fa ac3e 2e05 4abf b932 d43e
000000e0: a8fd 96bf 677f 93bf 8605 a6be db02 cb3e
000000f0: 3263 84be f0ef 3abf 59d6 0540 d9c5 a13f
1.063859 0.21180752 -0.08430674 0.51476264 -1.411369 0.71802986 -0.40536344 -1.0947056
-0.45106485 0.5426163 1.2466639 -1.2192103 -0.592051 -0.8264775 -0.7759755 0.47112137
1.1514422 0.36686715 0.6305531 1.1050634 0.65441275 1.2369303 0.40208384 0.5124701
-1.4321151 1.0402541 0.4775824 1.2513725 0.9060345 0.98371893 0.101023726 -0.58087844
-0.033579312 0.04915321 -1.094061 -0.5422947 1.0101838 1.2344885 -0.13360706 -1.5717391
-1.2286186 0.3183705 -0.5107858 0.9186851 -0.73846084 0.0447194 -2.5059152 -1.1098704
-1.2834489 1.3994747 -0.26614302 -0.3758197 -0.13714114 0.33784783 -0.78914154 0.41444948
-1.179616 -1.1523255 -0.3242609 0.39650616 -0.2585693 -0.73022366 2.0912077 1.2638503

value.2.weight f4 [32, 64]
00000000: c9ae 943e 04f2 2bbf 335c fa3e 48d8 703e
00000010: 6816 a5bf eb8c 96be 1952 00bf 0823 25bf
00000020: 427d 453f f655 9c3e cbdd 3740 5945 4abf
00000030: b1f8 793f 7615 5dbf ab3a 093e 2a4d 0f3e
00000040: d3d8 193f 3352 0b3e 7a5a 3cbf 5a0c b73e
00000050: 242c 14bf 5bbb e43f 2d3e bf3d 9c13 433d
00000060: 5cae 83bf 5249 0a40 6ae5 d53e e279 373f
00000070: 0201 2740 db5a 0a40 2b2a a03e 7e38 9d3d
00000080: 43ff 073e df06 fa3a cf69 f1bf d236 d2bf
00000090: 2995 8f3e f009 a23f b6d4 4b3f 42bd b13d
000000a0: e3c7 77bf 1f78 673d ce2c f6bd 44a2 09bf
000000b0: 20cc 1dbf 71a5 6dbe 0f91 e83e ea6d 0abf
000000c0: 095b abbf 497b c4be 74ad bd3e 1b41 07be
000000d0: 18f4 fb3d 3183 6b3f 014d eabd 6eaf 0cbf
000000e0: c9e6 d9be 60d6 97bf 2a6b 723e 7b45 c73d
000000f0: c4eb 0ebf c5ef 183e 511f 8d3e bbf2 a1be
00000100: a1ce 79be c1db 073f 83bc 94bf 5f53 11be
00000110: dc29 bc3e 8026 a5bd fd05 313e a192 87bd
00000120: a06b c6be a5bf 103e bdfc 09bf aa54 873f
00000130: c7bf 44bf 9428 283f 8176 4d3f 0f35 e13e
00000140: 4f60 0fbf ed9b 56bf c9d0 e43e 2b30 87bd
00000150: d94a e0be 176c 79bf f3dd 7cbf 432f 05bf
00000160: c19f b83f 7f41 653e dd3a bf3d 8538 4fbf
00000170: 6769 673d 04fb 803e c145 b93e ee75 db3e
00000180: 8a7c 933e 9c70 78be bf9e 253f d3cf 8a3f
00000190: eb41 95be 2443 a4be 41b4 f8bd 3359 f33e
000001a0: ab4a ce3f 908c 00bf ffc7 a5bf 60bf 46bf
000001b0: 7f41 843e 3fa7 0b3f 6b78 743f 345d 6a3f
000001c0: 3af8 113f 7965 72bf 8225 c4be 2a42 233f
000001d0: ec0f b83e 04fc 0340 8107 23be 9136 15bd
000001e0: 8311 263f 6389 533f d639 e8bd d4ab 56be
000001f0: 990a 813c c47b 273e 5ea1 69bf 127b 4abd
00000200: d1ad a3be ed76 a8be 954a c2bd 6575 c43d
00000210: 0f7d 4c3f e54b d3bf c66a 983e 53bb 0040
00000220: ae01 773f 9899 9cbf e4bb 69be 08ab a0bd
00000230: 508b c23f a96c 70be 91fd f2bb 63b5 94bf
00000240: c729 5e3e 1687 5ebe 6cd9 a4bd 5787 a23c
00000250: 90e1 b2bf 15d0 b0bf f196 923d b9cf 3f3f
00000260: c24c 153f eb84 83bf ff94 d1be e96a 823e
00000270: 83bb 30bf 6614 c5be bfeb 923e 141c 613e
00000280: 3834 57be 1d25 2f3f ce44 b43e ba8b 7b3f
00000290: be98 6e3e a4d1 8dbf d5d9 683f a770 cf3d
000002a0: 7f7e 9f3d 70a5 88be fb6f 3bbd 9798 45bf
000002b0: ba15 85bf dfa1 97bf af61 07be b737 d03f
000002c0: 6d23 b93f 5649 9fbd f4f3 60bd ed74 473e
000002d0: 7e39 a4bd 860d 423d 6c91 6b3f c97e 3cbf
000002e0: 44fc 953d ad02 483f cbb5 a83f f17b dabc
000002f0: 3cad dabd 3aa1 133e 48da dd3e cac7 ef3e
00000300: 1be9 f73e adb9 e4be 6f5a 8fbe e9d8 3d3f
00000310: e72b 80bf b6ae ddbe d097 58be 962e 113f
00000320: 03e4 063d 0c9a 3e3d f259 d83e a594 813e
00000330: 0520 23be f632 083f 3ce1 753e c38f 543d
00000340: 9cf7 023f 0140 1e3e 14d2 813e 8aec e83e
00000350: f15a 403e ace6 6bbe 6ab4 32bf 5688 fb3e
00000360: 6487 e2bc ca07 99bd 0698 723d 11ba 553f
00000370: 0795 e73d 8bc2 2ebf 9bba 923e cf0f d5be
00000380: a3a7 e93d a6f5 e03d 25a6 64be d4b7 23bd
00000390: 7abd 003e 91b2 0cbf d02d 17be b056 76be
000003a0: 40d8 d8be e354 2f3f ff28 98be ab40 6b3f
000003b0: 374b c4bd e720 33be 4f1e f5be af1f 103f
000003c0: 1482 163f 674a da3d 7c92 a1be 306d 853d
000003d0: 325e 853e e818 27be 3de0 c93e d840 7d3e
000003e0: 04ad e2be 7529 5ebe 183f 9d3e ed9e ab3d
000003f0: 2e6f 3bbe 614b f73d 12c8 1a3e cea4 1abe
0.290396 -0.6716616 0.48898467 0.23520005 -1.2897463 -0.29404387 -0.5012527 -0.6450658
0.77144253 0.30534333 2.8729122 -0.79012066 0.976451 -0.8636087 0.13401286 0.1399428
0.6009647 0.13605575 -0.73575556 0.3575161 -0.57879853 1.7869676 0.09338031 0.047626123
-1.0287585 2.160725 0.41776592 0.71670353 2.6094365 2.1617954 0.31282172 0.07676791
0.13280968 0.0019075534 -1.8860415 -1.642298 0.28043488 1.2659283 0.79621446 0.08678676
-0.9678938 0.05651104 -0.120202646 -0.5376322 -0.61639595 -0.23207642 0.4542317 -0.54073966
-1.3387157 -0.3837531 0.37046397 -0.1320843 0.123024166 0.9199706 -0.114404686 -0.54955184
-0.42558888 -1.1862297 0.23673692 0.09730049 -0.558285 0.14935215 0.27562955 -0.316305
-0.24395229 0.5306969 -1.1620029 -0.1419196 0.36750686 -0.08063984 0.1728744 -0.06619764
-0.38753986 0.14135607 -0.53901273 1.0572712 -0.7685513 0.6568692 0.8025895 0.43985793
-0.5600633 -0.83831674 0.4469054 -0.06600984 -0.43807104 -0.97430557 -0.9877617 -0.5202524
1.4423753 0.22388266 0.09337399 -0.80945617 0.056497004 0.2519151 0.3618603 0.4286341
0.28805953 -0.24261707 0.6469535 1.0844673 -0.29151854 -0.32082474 -0.12143756 0.4752899
1.6116537 -0.5021448 -1.2951659 -0.77635765 0.2583122 0.5455207 0.95496243 0.91548467
0.5701939 -0.94686085 -0.38309866 0.63772833 0.35949647 2.0622568 -0.15920831 -0.03642899
0.6487047 0.8263151 -0.11339156 -0.20963985 0.015752124 0.16355807 -0.9126185 -0.049433775
-0.3196855 -0.32903233 -0.09486882 0.09592704 0.79878324 -1.6507536 0.29768962 2.0114334
0.9648694 -1.2234373 -0.22825581 -0.078451216 1.5198765 -0.2347895 -0.0074154814 -1.1617855
0.21695624 -0.21731219 -0.080492824 0.019839926 -1.3975086 -1.3813502 0.07157696 0.74926335
0.5832025 -1.0274938 -0.40933987 0.2547219 -0.6903612 -0.38492125 0.28695485 0.21983367
-0.21016014 0.68416005 0.35208744 0.9826008 0.23300454 -1.1079602 0.90957385 0.101289086
0.07787799 -0.2668872 -0.04576109 -0.7718596 -1.0397255 -1.1846274 -0.13220857 1.6267003
1.4463936 -0.077776596 -0.05492015 0.19478197 -0.08018778 0.04737618 0.9201877 -0.7363096
0.073235065 0.7812908 1.3180479 -0.026670428 -0.10677573 0.14416972 0.43330598 0.46832114
0.48420033 -0.4467291 -0.27998683 0.74159104 -1.0013398 -0.43297356 -0.21151662 0.5671171
0.032932293 0.04653363 0.42256123 0.2530872 -0.15930183 0.5320276 0.24011701 0.051894914
0.5115907 0.15454103 0.2535559 0.45492965 0.18784691 -0.23037213 -0.6980654 0.49127454
-0.02765245 -0.07472189 0.059227012 0.8348704 0.113077216 -0.682656 0.28657994 -0.41613623
0.11408927 0.10984354 -0.22329004 -0.039970234 0.1257228 -0.5495997 -0.1476357 -0.24056506
-0.42352486 0.684889 -0.29718778 0.9189555 -0.095846586 -0.1749302 -0.47874686 0.56298345
0.58792233 0.10658722 -0.3155707 0.065149665 0.26048428 -0.16318095 0.39428893 0.24731767
-0.44272625 -0.21695502 0.307122 0.08379922 -0.1830413 0.12074924 0.15115383 -0.1510193

value.2.bias f4 [32]
00000000: 9484 50be b3f6 ccbe 7ed7 77be aa3f f43e
00000010: c34b 00bf 8f43 df3e bf82 b33e c57c 963e
00000020: 77c0 073e ee7a 823f f5df eebd d78d 853e
00000030: 5ad9 dfbd 30d3 0f3f f811 ba3e d85b d13e
00000040: 5234 b93e 0375 8ebe aa79 b9be 03b2 97bd
00000050: 6dbf 573f c064 e23e 8e82 3cbf 06a9 6ebd
00000060: d6ef c93e ff8f 1f3f 0906 d6be b1d1 bbbd
00000070: f3ae 463e 9511 223e 5ef5 6cbe d36b df3e
-0.20363075 -0.40031967 -0.24203297 0.47704822 -0.50115603 0.4360623 0.3506069 0.29392067
0.13257013 1.0193765 -0.1166381 0.26084778 -0.109301284 0.5618162 0.36341834 0.40890384
0.3617273 -0.27823648 -0.36225635 -0.07407 0.8427647 0.4421749 -0.7363671 -0.058266662
0.39440793 0.62329096 -0.4180148 -0.09170855 0.19402675 0.1582702 -0.23140475 0.4363695

value.4.weight f4 [1, 32]
00000000: d1df 12c0 1a83 9fbf 2122 363f 1d44 0240
00000010: 515d a2bf 47fa d53f 1776 3b3f 8b55 2b40
00000020: ac35 0240 b3ac a03f 8bc0 37bf c435 e63f
00000030: 94d3 3040 c16d b63f e0ff de3f a904 b23f
00000040: 8fba c63f a969 bcbf 9972 93bf dd78 0040
00000050: d22a bd3f 9fad 983f 8218 cabf 0904 1840
00000060: d941 0f40 e2a2 8c3f 02c1 b1bf 6a68 c8bf
00000070: 8af9 0240 6aa8 00c0 df35 8f3f 24a6 ea3f
-2.2949107 -1.2461884 0.71145827 2.0354073 -1.2684728 1.6717004 0.73227066 2.6770961
2.0345259 1.2552704 -0.7177817 1.7985158 2.7629137 1.4252244 1.7421837 1.3907672
1.5525683 -1.4719745 -1.1519347 2.007377 1.4778693 1.1927985 -1.5788729 2.3752463
2.238394 1.0987208 -1.3887026 -1.5656865 2.0464807 -2.0102792 1.1188315 1.8331952
